best_model.pth (torch, 4815 bytes, 7 tensors)

fc1.weight f4 [16, 4]
-0.00374341 0.2682218 -0.41152257 -0.3679695 -0.15710202 0.26759675 0.047253337 0.4296908
-0.02661799 0.19677123 -0.16796386 -0.081176355 -0.46127963 -0.37553328 -0.17946517 0.0048718927
0.18895203 0.26751783 -0.3207947 -0.26089358 0.17049572 0.47813585 -0.09861543 0.39389503
-0.08059168 0.05290705 0.4527381 -0.46383518 -0.3473244 -0.15297857 -0.15447727 0.40607148
-0.32408983 -0.23016644 -0.34932023 -0.4682805 -0.2280247 0.7136066 0.3364124 0.2766949
0.030011868 -0.23106574 -0.080613226 -0.43602467 -0.16138275 -0.32327768 0.19953245 0.35738972
-0.21914479 -0.13992174 0.300932 0.4770769 0.20034228 0.10156907 0.13787203 -0.2508208
0.09797518 -0.35607404 -0.39906093 -0.21774176 0.21889967 0.20461188 -0.21306302 0.10638819
00000000: 0054 75bb 5e54 893e 16b3 d2be 8066 bcbe
00000010: 5adf 20be 7102 893e b78c 413d 6f00 dc3e
00000020: f90d dabc 667e 493e b8fe 2bbe ca3f a6bd
00000030: d82c ecbe e645 c0be b8c5 37be 66a4 9f3b
00000040: a47c 413e 19f8 883e 343f a4be d893 85be
00000050: 6e96 2e3e 39ce f43e e3f6 c9bd 9cac c93e
00000060: 400d a5bd 10b5 583d 4acd e73e ce7b edbe
00000070: 81d4 b1be 6aa6 1cbe 4a2f 1ebe 9ae8 cf3e
00000080: 1aef a5be c0b0 6bbe 1ada b2be 76c2 efbe
00000090: 4f7f 69be ecae 363f 3f3e ac3e f4aa 8d3e
000000a0: 73db f53c 7f9c 6cbe 8c18 a5bd a03e dfbe
000000b0: 8541 25be a784 a5be 3c52 4c3e c9fb b63e
000000c0: 7e67 60be a547 0fbe c213 9a3e 6c43 f43e
000000d0: 8726 4d3e 7203 d03d 532e 0d3e 956b 80be
000000e0: 36a7 c83d 564f b6be b751 ccbe b2f7 5ebe
000000f0: 3c27 603e c785 513e 312d 5abe 0de2 d93d

fc1.bias f4 [16]
0.274486 -0.031380106 0.036206726 0.102323905 0.2670797 0.49921668 -0.38531178 -0.2091962
0.19650495 0.43681476 0.46588758 0.50797814 0.08118387 -0.39124212 0.086491026 -0.35797876
00000000: 6e89 8c3e 6d88 00bd 814d 143d 328f d13d
00000010: acbe 883e 5499 ff3e 9647 c5be 8737 56be
00000020: 9838 493e 2fa6 df3e d188 ee3e db0a 023f
00000030: bb43 a63d e350 c8be 3522 b13d fe48 b7be

fc2.weight f4 [16, 16]
-0.23298854 0.25750288 0.21232383 -0.21885312 0.10783906 0.0006094065 -0.041140288 -0.091688335
0.09613904 -0.12657236 0.09164783 0.15067832 0.21021684 0.015072141 -0.36451936 -0.116153434
0.124828756 0.08855472 -0.15860379 -0.108903505 0.22931792 0.16205415 -0.109006286 -0.03839549
-0.23814952 0.043765564 -0.18564482 -0.17308412 0.01535801 0.03216897 -0.10695204 0.14215375
-0.15213478 0.27042124 0.21936525 -0.1595607 0.065413564 0.060837105 0.03647527 0.083597705
0.09810707 0.078375675 -0.12198219 0.13465294 -0.2080591 -0.15787059 -0.32993156 -0.07463835
-0.08745834 -0.15243134 0.19360182 0.10322856 -0.15881453 -0.006953284 0.17896271 -0.005123252
0.006948054 -0.19283839 0.045802433 0.28369036 0.28959572 0.1621883 0.23990916 -0.013189426
-0.22458038 -0.118519306 0.1702263 -0.0016206205 -0.12426159 -0.19157794 -0.23396301 -0.21100205
-0.050709188 0.1371015 0.13516027 -0.24110797 0.15594551 -0.19562736 -0.05285257 -0.10136816
-0.048153818 -0.023021067 -0.17636783 -0.17176996 -0.04602675 -0.0047953776 -0.11356872 0.10672287
-0.2250146 0.0391213 0.22104394 -0.09810211 0.24127913 0.08411072 -0.23130074 0.15072443
-0.028848618 -0.07060072 0.24203655 -0.120145366 0.020983271 -0.059506383 0.17852816 0.097257994
0.12012634 0.18224567 -0.057431847 -0.028063685 -0.17118013 0.13015185 0.19398761 0.16461448
-0.17634457 0.05464182 -0.109934196 -0.07213211 -0.15207219 0.079149865 -0.1489783 0.018394018
0.010517031 0.24609956 -0.18745911 -0.16213305 -0.11567418 0.16901308 -0.095107764 0.20432408
0.09040189 -0.21100824 -0.001861006 -0.049420387 0.036227454 -0.050779834 -0.0017566085 0.03189826
-0.19555128 -0.13103285 0.19780265 -0.20288667 -0.033957936 0.25157005 0.09371843 0.01258081
-0.21665248 0.09958604 -0.18300453 -0.08163378 -0.09013798 -0.065865666 0.0027345717 0.18401085
0.031209707 0.22315562 0.15292811 -0.18554464 0.08584874 -0.09644522 -0.01894507 0.040292025
0.08254802 0.1757013 -0.080478966 0.0004002154 0.12870589 -0.2535514 0.18074515 -0.21858063
0.0034456253 -0.05433867 -0.13166824 0.021133626 0.19489633 -0.073079884 -0.14842352 -0.10406193
-0.24778709 0.064445466 -0.23090598 -0.2792282 -0.1401923 0.14120512 0.13239342 0.19477697
0.09068078 -0.31933364 -0.06986204 0.17735131 0.2254269 0.12009241 -0.21275054 -0.05756657
-0.23636726 0.044867743 -0.13092928 -0.21454509 0.21110263 -0.1715951 -0.028440386 0.060348853
0.007964581 -0.17941216 -0.20306167 0.18804352 0.02948795 0.19969316 -0.09088133 0.06501142
-0.05716905 -0.038588572 -0.18845671 -0.024181837 0.069747806 -0.014246582 -0.05622554 0.05009544
0.1728862 -0.37161398 0.09757774 0.30155274 0.13910179 0.035964403 -0.13836703 0.048839554
0.049095213 -0.19216381 0.041624635 0.1064823 0.08377852 -0.046658244 -0.2049469 -0.038538516
0.08682692 -0.091219276 0.07814219 0.16649064 -0.13698305 -0.01307011 0.08763131 0.0043784385
0.020882875 -0.0037133498 -0.23168005 -0.022233317 0.1772505 0.2300766 0.14693773 0.010808161
0.11675355 -0.16971895 -0.21214862 -0.2299329 0.22219123 0.16226071 -0.170121 0.10231945
00000000: 8c94 6ebe 6bd7 833e 6b6b 593e 081b 60be
00000010: bada dc3d 94c0 1f3a b882 28bd 18c7 bbbd
00000020: 8ce4 c43d 2f9c 01be dcb1 bb3d 6b4b 1a3e
00000030: 1543 573e 24f1 763c 48a2 babe dae1 edbd
00000040: 38a6 ff3d 2d5c b53d 0869 22be cd08 dfbd
00000050: 51d2 6a3e 86f1 253e b03e dfbd 9744 1dbd
00000060: 78dd 73be 8543 333d ad19 3ebe f73c 31be
00000070: 2aa0 7b3c 9cc3 033d ac09 dbbd c190 113e
00000080: 38c9 1bbe a774 8a3e 49a1 603e e163 23be
00000090: 8cf7 853d 5430 793d 1867 153d 4635 ab3d
000000a0: 5cec c83d 6d83 a03d ccd1 f9bd 76e2 093e
000000b0: 720d 55be d4a8 21be caec a8be fedb 98bd
000000c0: 5c1d b3bd f616 1cbe 8e3f 463e 7f69 d33d
000000d0: 47a0 22be 60d8 e3bb 0042 373e f4e0 a7bb
000000e0: 80ac e33b 6d77 45be 559b 3b3d dd3f 913e
000000f0: e445 943e b114 263e bfaa 753e 7618 58bc
00000100: 66f8 65be 40ba f2bd ce4f 2e3e 006b d4ba
00000110: dc7c febd 022d 44be 0094 6fbe ec10 58be
00000120: 70b4 4fbd 5664 0c3e 7467 0a3e 02e5 76be
00000130: 2eb0 1f3e 8a52 48be f07b 58bd 1c9a cfbd
00000140: f03c 45bd ad96 bcbc c599 34be 77e4 2fbe
00000150: 8c86 3cbd 8b22 9dbb b896 e8bd 8591 da3d
00000160: 3a6a 66be a83d 203d 5859 623e c2e9 c8bd
00000170: e011 773e 3e42 ac3d 1ada 6cbe 8157 1a3e
00000180: f053 ecbc 1c97 90bd 6ed8 773e c60e f6bd
00000190: 1ce5 ab3c f7bc 73bd 16d0 363e 332f c73d
000001a0: cc04 f63d 9c9e 3a3e a83d 6bbd d0e5 e5bc
000001b0: d849 2fbe 8746 053e b0a4 463e b390 283e
000001c0: ac93 34be 1ad0 5f3d 2e25 e1bd 00ba 93bd
000001d0: d0b8 1bbe 5319 a23d c48d 18be 0daf 963c
000001e0: a04f 2c3c 8601 7c3e 48f5 3fbe 3506 26be
000001f0: 96e6 ecbd c411 2d3e dcc7 c2bd 553a 513e
00000200: a024 b93d 8b12 58be 00ed f3ba 086d 4abd
00000210: 3d63 143d 84fe 4fbd 003e e6ba c0a7 023d
00000220: 983e 48be 7a2d 06be c78c 4a3e 86c1 4fbe
00000230: 7a17 0bbd cacd 803e 73ef bf3d be1f 4e3c
00000240: 26da 5dbe c4f3 cb3d 8a65 3bbe 9c2f a7bd
00000250: 439a b8bd 94e4 86bd 8036 333b 576d 3c3e
00000260: 80ab ff3c e882 643e 3099 1c3e 6aff 3dbe
00000270: 77d1 af3d 1285 c5bd b132 9bbc 4009 253d
00000280: f00e a93d 0beb 333e 28d2 a4bd 00d4 d139
00000290: 7acb 033e 7dd1 81be 4215 393e 9ad3 5fbe
000002a0: 00d0 613b 3a92 5ebd 0ad4 06be 6d20 ad3c
000002b0: e792 473e e8aa 95bd 56fc 17be 6c1e d5bd
000002c0: e6bb 7dbe fcfb 833d 9e72 6cbe 00f7 8ebe
000002d0: 928e 0fbe 1398 103e 2492 073e 9d73 473e
000002e0: d8b6 b93d b37f a3be d413 8fbd 959b 353e
000002f0: 4fd6 663e 02f3 f53d 47db 59be ecca 6bbd
00000300: 420a 72be 3dc7 373d 5312 06be b5b1 5bbe
00000310: 4a2b 583e a0b6 2fbe d0fb e8bc 5c30 773d
00000320: e07d 023c d2b7 37be 66ef 4fbe 7b8e 403e
00000330: b790 f13c 5d7c 4c3e fe1f babd b524 853d
00000340: 182a 6abd 0d0f 1ebd ccfa 40be fd18 c6bc
00000350: f0d7 8e3d 7f6a 69bc c04c 66bd e030 4d3d
00000360: 1409 313e 3044 bebe d7d6 c73d 1f65 9a3e
00000370: b370 0e3e 694f 133d 16b0 0dbe fc0b 483d
00000380: 1018 493d 97c6 44be 987e 2a3d 6413 da3d
00000390: 1394 ab3d b71c 3fbd 9add 51be 90da 1dbd
000003a0: 50d2 b13d 2cd1 babd 0309 a03d 867c 2a3e
000003b0: 4945 0cbe 0424 56bc 0b78 b33d 0179 8f3b
000003c0: 9012 ab3c ac5b 73bb 893d 6dbe a522 b6bc
000003d0: 2881 353e 3399 6b3e d876 163e b714 313c
000003e0: 7c1c ef3d ceca 2dbe 7d3d 59be 8873 6bbe
000003f0: 1986 633e ac27 263e 3334 2ebe dc8c d13d

fc2.bias f4 [16]
0.22637825 0.23325449 0.2523823 0.24817945 -0.057314813 -0.13024996 0.16497993 0.13267422
-0.10830596 0.19333759 0.10896713 0.2158842 -0.19385736 0.110407375 -0.10341844 0.21265033
00000000: b3cf 673e 44da 6e3e 4138 813e c122 7e3e
00000010: f0c2 6abd 3f60 05be 80f0 283e c0db 073e
00000020: 84cf ddbd 4afa 453e 292a df3d bf10 5d3e
00000030: 8b82 46be 431d e23d 0ccd d3bd 02c1 593e

fc3.weight f4 [16, 16]
0.002822447 0.042256948 0.00039399165 0.46307284 -0.084956884 0.1355529 -0.14578368 -0.10070572
-0.1728759 -0.32198176 -0.20076394 0.27670905 0.12142479 0.5072868 0.20028031 -0.19399594
-0.18854986 -0.03418518 -0.18786953 0.17381603 -0.18900195 -0.1168094 -0.23617148 -0.13511355
0.20849799 0.17850402 0.16867541 0.17062427 0.22788514 -0.057547733 0.11420975 0.22808269
0.11671121 0.24337764 0.18410599 0.15488236 -0.08749804 0.11467459 0.022969212 -0.06681797
-0.14426035 -0.10874955 -0.18213333 0.19594567 0.17175251 -0.035241373 -0.14926791 0.18750922
0.13673191 0.024624746 -0.16553581 0.22904587 0.10223517 -0.18440567 0.24396537 0.19664079
-0.08900542 0.11851645 -0.15240921 -0.057979006 0.21722667 0.016059551 -0.1732815 -0.07830829
-0.15796082 -0.041604076 -0.035851263 0.23135526 0.013385087 -0.14831634 0.018213712 0.12722832
0.12693797 -0.2567134 -0.04473561 -0.2263053 -0.10103514 0.09637453 -0.17328185 0.09882472
0.5222794 -0.24665245 -0.40712264 0.46288177 0.05459103 -0.12784539 -0.0666339 -0.630656
-0.24032333 -0.5574 -0.050715834 0.5429526 -0.23661974 0.5730298 -0.100005716 0.32010606
0.04390473 -0.1422209 0.26628125 0.10950911 0.24849892 0.16702855 -0.124431185 0.3264965
0.013436109 0.16348593 -0.18959427 -0.042576864 -0.23526987 -0.21231662 0.053932786 -0.14367205
0.12275279 0.12720339 0.105057016 -0.1685854 -0.19382992 -0.08324859 0.10355436 0.23906608
0.13989651 0.015752114 0.087654114 -0.21063626 -0.21991748 0.10950761 -0.14665917 0.11397496
-0.15902138 -0.13101235 -0.18986595 0.12958519 -0.025473773 0.18597507 0.14866571 0.13047324
0.004344557 -0.06086061 -0.04835642 0.050774843 0.11766083 -0.18201521 0.20490508 -0.033634424
-0.17595045 -0.14338161 0.27718136 0.22587372 -0.23156992 0.16938542 0.11786329 0.13937129
0.20630115 -0.10458832 0.08899294 0.12921563 -0.08144568 0.07550042 -0.07816755 0.14709882
-0.06936365 -0.093198925 0.06293726 0.08867341 -0.12214291 0.022099584 0.14488393 -0.02487418
0.07608348 -0.060296744 0.08762491 -0.18109855 -0.1470072 -0.12689763 0.22975272 -0.067271024
0.050844386 -0.077532604 0.22190696 0.3663308 -0.18854666 -0.1852768 -0.2168141 -0.05700531
-0.06372598 -0.22280452 -0.089668036 0.14103855 -0.13062268 0.18938914 -0.05732897 -0.02268898
-0.008193288 0.21174036 -0.2367881 0.011447311 -0.092191935 0.25057328 -0.2319967 -0.23278527
0.24905403 -0.18666787 0.047930837 -0.05370582 -0.047225494 -0.049714815 0.16292128 0.017291687
-0.27740827 -0.14138956 -0.13921513 0.1259351 -0.16178343 0.24066707 -0.050274145 -0.038108815
0.19883575 0.09398009 0.20175302 0.1163398 -0.070193194 -0.15937714 -0.0143309925 0.21225621
-0.08390495 -0.23184249 0.10248211 0.24336785 -0.07117081 -0.20700589 -0.22676492 0.062649846
-0.018929929 -0.12624681 0.050532967 0.09493971 0.19882974 0.19409555 -0.03742093 -0.22044179
-0.1920345 0.22673957 0.16472656 0.108215585 -0.21630526 0.22605072 0.23091373 0.21847558
-0.21444112 -0.06304872 -0.16172609 0.26470295 -0.11355936 -0.121062994 0.1261902 -0.12152103
00000000: cef8 383b 9f15 2d3d aa90 ce39 e217 ed3e
00000010: e0fd adbd 61ce 0a3e 5148 15be cd3e cebd
00000020: 6106 31be cbda a4be 1095 4dbe cfac 8d3e
00000030: 8fad f83d 8cdd 013f 4816 4d3e dfa6 46be
00000040: 3713 41be c205 0cbd df60 40be d4fc 313e
00000050: ba89 41be c439 efbd f0d6 71be 355b 0abe
00000060: 7f80 553e c2c9 363e 3fb9 2c3e 21b8 2e3e
00000070: b95a 693e 2cb7 6bbd cde6 e93d 828e 693e
00000080: 4906 ef3d fd37 793e 4886 3c3e 7b99 1e3e
00000090: 2c32 b3bd 83da ea3d ee29 bc3c dcd7 88bd
000000a0: fcb8 13be 16b8 debd 2981 3abe fba5 483e
000000b0: e4df 2f3e 4259 10bd b0d9 18be 6b02 403e
000000c0: 7303 0c3e d6b9 c93c 3882 29be 008b 6a3e
000000d0: ac60 d13d d7d4 3cbe 0fd2 793e 345c 493e
000000e0: 7948 b6bd c1b8 f23d 2911 1cbe 657b 6dbd
000000f0: ab70 5e3e 528f 833c b570 31be 1960 a0bd
00000100: 7bc0 21be 0969 2abd c6d8 12bd 65e8 6c3e
00000110: 204d 5b3c 3de0 17be ec34 953c 2448 023e
00000120: 07fc 013e f06f 83be b03c 37bd 94bc 67be
00000130: 83eb cebd 0260 c53d cc70 31be 9d64 ca3d
00000140: 1ab4 053f 7692 7cbe 6172 d0be d7fe ec3e
00000150: d89a 5f3d e7e9 02be 5b77 88bd ac72 21bf
00000160: 5217 76be c4b1 0ebf 68bb 4fbd f1fe 0a3f
00000170: 724c 72be 15b2 123f cccf ccbd f1e4 a33e
00000180: 72d5 333d 5ba2 11be 0456 883e 5046 e03d
00000190: 8076 7e3e 8809 2b3e c7d5 febd 8d2a a73e
000001a0: 2023 5c3c db68 273e 0025 42be 1465 2ebd
000001b0: 96ea 70be 8769 59be a0e8 5c3d c41e 13be
000001c0: d165 fb3d 9b41 023e 2228 d73d a7a1 2cbe
000001d0: 5a7b 46be 3d7e aabd 4f14 d43d bdcd 743e
000001e0: 0841 0f3e 940a 813c 0084 b33d 08b1 57be
000001f0: 0c32 61be 8745 e03d d22d 16be b46b e93d
00000200: 80d6 22be 1a28 06be 386c 42be fbb1 043e
00000210: 60ae d0bc 4070 3e3e d33b 183e c79a 053e
00000220: c95c 8e3b fa48 79bd 6211 46bd 48f9 4f3d
00000230: 29f8 f03d 3262 3abe a3d2 513e 40c4 09bd
00000240: 5b2c 34be a1d2 12be b7ea 8d3e 714b 673e
00000250: aa20 6dbe 5f73 2d3e 4f62 f13d 59b7 0e3e
00000260: 9c40 533e 6732 d6bd ee41 b63d 1a51 043e
00000270: fecc a6bd f79f 9a3d 4f16 a0bd 13a1 163e
00000280: 880e 8ebd 14df bebd 40e5 803d 689a b53d
00000290: 1026 fabd 300a b53c 745c 143e f0c4 cbbc
000002a0: a8d1 9b3d b8f9 76bd b074 b33d e671 39be
000002b0: 0e89 16be 74f1 01be 4c44 6b3e 64c5 89bd
000002c0: 3442 503d 6ac9 9ebd 943b 633e b68f bb3e
000002d0: 6012 41be 34b9 3dbe 8404 5ebe 667e 69bd
000002e0: c482 82bd de26 64be e0a3 b7bd 696c 103e
000002f0: f4c1 05be 3aef 413e c8d1 6abd 3dde b9bc
00000300: 243d 06bc 77d2 583e 9478 72be 818d 3b3c
00000310: 20cf bcbd 244b 803e 8b90 6dbe 435f 6ebe
00000320: 0508 7f3e dd25 3fbe 2053 443d a2fa 5bbd
00000330: 856f 41bd c3a1 4bbd d6d4 263e 4ca7 8d3c
00000340: 7508 8ebe 6dc8 10be 698e 0ebe 21f5 003e
00000350: 8eaa 25be 6e71 763e 43ec 4dbd fd17 1cbd
00000360: 999b 4b3e a278 c03d 5898 4e3e 9043 ee3d
00000370: 73c1 8fbd c333 23be 8acc 6abc b159 593e
00000380: 5cd6 abbd 1e68 6dbe 24e2 d13d 6c35 793e
00000390: 00c2 91bd 5af9 53be 1035 68be 904e 803d
000003a0: f012 9bbc d846 01be a8fb 4e3d c06f c23d
000003b0: 069a 4b3e fcc0 463e b046 19bd 7ebb 61be
000003c0: b1a4 44be 6b2e 683e 14ae 283e 22a0 dd3d
000003d0: 207f 5dbe d779 673e a674 6c3e 10b8 5f3e
000003e0: 7496 5bbe b01f 81bd 869b 25be 2587 873e
000003f0: cf91 e8bd e0ef f7bd 0138 013e 05e0 f8bd

fc3.bias f4 [16]
-0.07156745 -0.0052417405 -0.03727679 -0.15019464 0.2487658 0.2203629 0.13052674 0.19343883
0.083369516 0.01890476 0.21271425 0.109065145 -0.09085274 0.24892311 0.059170127 -0.25703079
00000000: f591 92bd e8c2 abbb 8caf 18bd a0cc 19be
00000010: 76bc 7e3e d0a6 613e cda8 053e d414 463e
00000020: a3bd aa3d 28de 9a3c c4d1 593e 8c5d df3d
00000030: 0011 babd b3e5 7e3e 605c 723d 8a99 83be

fc4.weight f4 [1, 16]
-0.28827193 -0.17156646 0.21277189 -0.04637102 -0.23038857 -0.5256546 0.23376931 0.05780411
0.073536105 0.018575942 0.09320468 -0.19774726 -0.10082198 -0.23352057 -0.18833423 0.100786984
00000000: 6198 93be 1eaf 2fbe e0e0 593e 8aef 3dbd
00000010: fbea 6bbe 4d91 06bf 3961 6f3e 01c4 6c3d
00000020: 199a 963d 932c 983c 18e2 be3d 427e 4abe
00000030: c17b cebd 0420 6fbe b0da 40be 6869 ce3d
