best_model.pth (torch, 4815 bytes, 7 tensors)

fc1.weight f4 [16, 4]
00000000: 0054 75bb 5e54 893e 16b3 d2be 8066 bcbe
00000010: 5573 2ebe 5b1c 8b3e b1e7 f4bd 4dce 073f
00000020: ca04 7cbd 39ad 943e 00eb 79be 33d6 5e3d
00000030: 8ece c7be 6b24 c2be 1826 20be 68d5 eabc
00000040: dd1e 373e d1b6 903e e11d c2be 9a5e 70be
00000050: 065d 223e 8599 0d3f e4e6 1fbe 41e4 013f
00000060: 400d a5bd 10b5 583d 4acd e73e ce7b edbe
00000070: dbc4 94be ab8e 4ebe 71be 17be 869c b73e
00000080: 1aef a5be c0b0 6bbe 1ada b2be 76c2 efbe
00000090: 1983 89be 9730 b13e 77d4 6a3e c4ba 233e
000000a0: 656e e43b dc30 85be 74fb a43d f1b7 f0be
000000b0: c667 b1be 0702 32be 7992 803e b91e c03e
000000c0: c384 47be 9992 d8bd e3c5 c03e 7b0c d33e
000000d0: 6f48 413e be45 633d ae89 b03e 5941 9cbe
000000e0: 6dc6 bb3d 9e4a cbbe 4223 b4be d65c 88be
000000f0: 7b10 423e 605a 4b3e d4e1 b4be 1d6a 173e
-0.00374341 0.2682218 -0.41152257 -0.3679695 -0.17036183 0.2717007 -0.11958254 0.53049165
-0.061528005 0.29038408 -0.24406052 0.054403495 -0.39024776 -0.3791841 -0.15639532 -0.028666213
0.17882867 0.28264478 -0.3791342 -0.23473588 0.15855798 0.5531238 -0.15615422 0.5073891
-0.08059168 0.05290705 0.4527381 -0.46383518 -0.2905644 -0.20171611 -0.14818741 0.35861605
-0.32408983 -0.23016644 -0.34932023 -0.4682805 -0.26857832 0.34607384 0.22932611 0.15989214
0.006971168 -0.2601384 0.080557734 -0.47015336 -0.34649485 -0.17383586 0.2511175 0.3752344
-0.19484238 -0.10574836 0.37650976 0.4122046 0.18875287 0.055486433 0.3448004 -0.30518606
0.09168706 -0.39705366 -0.3518315 -0.26633328 0.189516 0.19858694 -0.35328543 0.14786573

fc1.bias f4 [16]
00000000: 6e89 8c3e 8e1b 913d afb6 2f3e bba1 8c3d
00000010: cc2e 963e 48f1 1c3f 9647 c5be ad60 83be
00000020: 9838 493e 6ae5 a93e 7a14 dd3e 51f2 053f
00000030: 65c1 703c 3924 e4be e97b 1b3d 06c6 a1be
0.274486 0.07085334 0.17159532 0.06866785 0.29332578 0.61305666 -0.38531178 -0.25659695
0.19650495 0.33182842 0.43179685 0.5232287 0.014694546 -0.44558886 0.037959967 -0.31596392

fc2.weight f4 [16, 16]
00000000: 8c94 6ebe 3a46 5e3e 09b7 183e 85c3 01be
00000010: b0c9 a13d 58a3 0cbd b882 28bd 2863 dbbd
00000020: 8ce4 c43d 47b9 08be dcb1 bb3d 8165 023e
00000030: 1e70 323e 4871 bf3d bcff 3cbe 5d47 1fbe
00000040: 38a6 ff3d 149e ac3d 61fc 48be 9c6f 47bd
00000050: f103 5c3e de4d 1a3e b03e dfbd d28c 2abd
00000060: 78dd 73be 11b5 af3c 11b2 2dbe 1d2d 3bbe
00000070: b247 8d3c 8909 fb3c 6a13 d4bd b06f 043e
00000080: 38c9 1bbe 31ec 593e 68c9 243e 7115 e9bd
00000090: 2974 dabc 1dbe e23c 1867 153d 67be 503d
000000a0: 5cec c83d a354 5f3c ccd1 f9bd 5658 d83d
000000b0: c499 81be 18b1 e8bd 2b15 dabd 33b9 d9bd
000000c0: 5c1d b3bd f11b 7abe 00d2 59bd b34b 493d
000000d0: 4c84 28be e045 4ebc 0042 373e b341 85bd
000000e0: 80ac e33b 110f 7bbd afbf 0a3d ced7 ef3d
000000f0: 79b8 4a3e d427 203e fe51 703e c892 92bc
00000100: 66f8 65be 40ba f2bd ce4f 2e3e 006b d4ba
00000110: dc7c febd 022d 44be 0094 6fbe ec10 58be
00000120: 70b4 4fbd 5664 0c3e 7467 0a3e 02e5 76be
00000130: 2eb0 1f3e 8a52 48be f07b 58bd 1c9a cfbd
00000140: f03c 45bd 1924 9bbc b743 5fbe 72fd 9ebd
00000150: 77cd 1bbd 1a30 18bc b896 e8bd 295f 003e
00000160: 3a6a 66be bdb2 b73c 491e 813e edd0 94bd
00000170: 29b7 823e 1313 b43d 8ee9 68be 1f16 143e
00000180: f053 ecbc 9c40 71bc 251d 8e3e a272 bfbd
00000190: b16d 24bb 944c 9bbd 16d0 363e f1ad 993d
000001a0: cc04 f63d 0ee7 e63d 2325 2abd b938 8fbd
000001b0: 3520 dfbd 6d7e 033e f42e 4a3e 9c7b 163e
000001c0: ac93 34be 68d4 2c3d 8145 45be 18aa 85bd
000001d0: 9623 30be ea09 873d c48d 18be d601 4c3c
000001e0: a04f 2c3c 4b17 3c3e c77b 34be ede6 2bbe
000001f0: 3813 ecbd 46c6 283e aeae bdbd 42b8 423e
00000200: a024 b93d 5a10 9c3c 00ed f3ba 086d 4abd
00000210: 3240 033d 6f4e 68bd 003e e6ba c0a7 023d
00000220: 983e 48be 7a2d 06be e5d4 373e 86c1 4fbe
00000230: 5c45 1cbd 6d68 7d3e 8c10 b73d 13d1 f63b
00000240: 26da 5dbe f3d1 bf3d 5a5e 3abe f7b5 23be
00000250: 75ca 1ebd 71f9 22bc 8036 333b 34c5 3c3e
00000260: 80ab ff3c 4ab2 4a3e 3099 1c3e c9f0 2dbe
00000270: 6cad a83d 79e3 c2bd faa4 5fbd 6fa1 d03d
00000280: f00e a93d 8017 323e 28d2 a4bd 00d4 d139
00000290: 7acb 033e eaaa 69be 4215 393e a8a4 61be
000002a0: 00d0 613b 1ce8 65bd 0ad4 06be e70f 9f3c
000002b0: 8fb9 453e e8aa 95bd 56fc 17be af7f a1bd
000002c0: e6bb 7dbe d836 053e da80 52be 9e88 78bd
000002d0: 1e0d 1dbe 40f3 073e 2492 073e 9d87 193e
000002e0: d8b6 b93d 1515 e5bd d413 8fbd 3a0d 0a3d
000002f0: a9dc 623e 920a 5c3d c3cd 0cbe c74f 06be
00000300: 420a 72be 9792 5b3d 9db3 05be 7dd1 59be
00000310: f8cf 5b3e 612e 2abe d0fb e8bc 2199 753d
00000320: e07d 023c 5941 38be ede9 2bbe 630f 3f3e
00000330: 49c6 ee3c 3242 503e b621 b1bd a973 8e3d
00000340: 182a 6abd 67d9 0a3d a44e e8bc ac28 ad3d
00000350: 2f60 5f3d 9843 f4bc c04c 66bd 8f23 12be
00000360: 1409 313e 9492 3ebe 7a07 193d 6c29 acbd
00000370: f709 9abd cf58 b03c df6b 13be f74f 073d
00000380: 1018 493d cde3 36be 987e 2a3d 6413 da3d
00000390: ba4b aa3d d7f0 3cbd 9add 51be 90da 1dbd
000003a0: 50d2 b13d 2cd1 babd 9acc 163e 867c 2a3e
000003b0: 77fc fcbd fb15 5dbc 6317 b23d db96 8b3b
000003c0: 9012 ab3c 1328 743b 1a60 3fbe 4e20 89bd
000003d0: f6ae 413e 23c5 723e d876 163e 83a6 9c3c
000003e0: 7c1c ef3d 4faa 0fbe 0acd 6bbe 0f4e 5ebe
000003f0: 8772 643e 7762 263e 716e 32be 16c3 e23d
-0.23298854 0.21706477 0.14913572 -0.12672241 0.07899797 -0.034335464 -0.041140288 -0.10712272
0.09613904 -0.13351928 0.09164783 0.12734033 0.17425582 0.093477786 -0.1845693 -0.15554567
0.124828756 0.084285885 -0.19627525 -0.048690423 0.21485879 0.15068766 -0.109006286 -0.041638203
-0.23814952 0.021448644 -0.16962458 -0.18278928 0.017246101 0.030644195 -0.103552654 0.1293323
-0.15213478 0.21281506 0.16092455 -0.11381043 -0.026666718 0.027678544 0.03647527 0.05096283
0.09810707 0.013631019 -0.12198219 0.10563724 -0.25312626 -0.11361903 -0.10648569 -0.10631027
-0.08745834 -0.24424721 -0.053178787 0.049144458 -0.16456717 -0.012589902 0.17896271 -0.06506672
0.006948054 -0.061293665 0.03387421 0.11711083 0.19796933 0.15640193 0.23468778 -0.017892256
-0.22458038 -0.118519306 0.1702263 -0.0016206205 -0.12426159 -0.19157794 -0.23396301 -0.21100205
-0.050709188 0.1371015 0.13516027 -0.24110797 0.15594551 -0.19562736 -0.05285257 -0.10136816
-0.048153818 -0.018938111 -0.21803175 -0.077631846 -0.038037743 -0.009288812 -0.11356872 0.125363
-0.2250146 0.022424096 0.25218418 -0.07266412 0.25530365 0.087927006 -0.22745344 0.14461564
-0.028848618 -0.014724877 0.2775661 -0.09348036 -0.0025089795 -0.075829655 0.17852816 0.0750388
0.12012634 0.11274539 -0.041539323 -0.06993241 -0.10894815 0.12841196 0.19744474 0.1469559
-0.17634457 0.042194754 -0.19264795 -0.065265834 -0.17201075 0.06593688 -0.1489783 0.01245161
0.010517031 0.1836826 -0.17625342 -0.1678731 -0.11527103 0.16481885 -0.09261833 0.19015601
0.09040189 0.019050766 -0.001861006 -0.049420387 0.032043643 -0.056715425 -0.0017566085 0.03189826
-0.19555128 -0.13103285 0.17952307 -0.20288667 -0.038152084 0.24746867 0.08938703 0.007532248
-0.21665248 0.093662165 -0.18200055 -0.15987383 -0.038767297 -0.009947167 0.0027345717 0.18434602
0.031209707 0.19794574 0.15292811 -0.16986383 0.082362026 -0.09516043 -0.054600693 0.10187041
0.08254802 0.17391777 -0.080478966 0.0004002154 0.12870589 -0.22819105 0.18074515 -0.22035468
0.0034456253 -0.05612956 -0.13166824 0.019416763 0.19309066 -0.073079884 -0.14842352 -0.07885682
-0.24778709 0.13009202 -0.20556965 -0.060677163 -0.15337035 0.13276386 0.13239342 0.14993139
0.09068078 -0.11185662 -0.06986204 0.03370402 0.22154488 0.053721018 -0.13750367 -0.1311637
-0.23636726 0.053606596 -0.13056798 -0.2127132 0.21466053 -0.16619255 -0.028440386 0.05996049
0.007964581 -0.17993678 -0.16788454 0.18658213 0.029147284 0.20337752 -0.08649008 0.06955654
-0.05716905 0.033898737 -0.028357811 0.08455023 0.054535087 -0.029817387 -0.05622554 -0.14271377
0.1728862 -0.18610603 0.037360646 -0.08406338 -0.07521432 0.021526722 -0.14396618 0.033035245
0.049095213 -0.17860337 0.041624635 0.1064823 0.08315225 -0.04612812 -0.2049469 -0.038538516
0.08682692 -0.091219276 0.14726487 0.16649064 -0.12352841 -0.01349401 0.08695867 0.0042599267
0.020882875 0.0037255331 -0.18689004 -0.06695615 0.18914399 0.23708014 0.14693773 0.019122368
0.11675355 -0.14029811 -0.23027435 -0.21709464 0.22309314 0.16248499 -0.17424943 0.11072366

fc2.bias f4 [16]
00000000: 8a93 953e 1d94 ac3e ddd1 ae3e 01ce 413e
00000010: f0c2 6abd eb22 41bc 3abf 663e f6e6 6b3e
00000020: 5e12 25be eba6 013e 9333 d73d 1bdf 983e
00000030: 3369 0ebe 63e0 ef3c c159 4abd 45b6 fe3d
0.29214126 0.3370675 0.34144488 0.1892624 -0.057314813 -0.01178811 0.22533885 0.23037323
-0.16120288 0.1266133 0.10507884 0.29857716 -0.13907318 0.0292818 -0.049402002 0.12437109

fc3.weight f4 [16, 16]
00000000: 0f63 81bd a922 ef3d f184 d73c beaf c33d
00000010: e0fd adbd 4dda d13d fece 32be 0b37 b83d
00000020: 2035 2dbe fe2b 87be 1095 4dbe 065a 383e
00000030: c94c 173e e82e 703e 4816 4d3e b775 50be
00000040: 14f7 1dbe 1130 cfbc f74f 1cbe ec8e 213e
00000050: ba89 41be 1134 0ebe 74cf 5bbe 0087 05be
00000060: daf3 503e 7b65 323e be78 293e e616 2e3e
00000070: 6cdc 673e f108 4dbd 0532 e43d 20a9 6e3e
00000080: aed1 803d bd11 703e cf8b f23d 8d27 2f3e
00000090: 2c32 b3bd 7978 0d3e e599 01bb 08b2 91bd
000000a0: 867c 0ebe ea12 ddbd 3234 37be dae6 433e
000000b0: 972e 313e a9dd 2cbd 7c61 15be 72eb 3a3e
000000c0: c153 3c3e 5f9a bb3c 8501 dfbd e82c 5d3e
000000d0: ac60 d13d 0cb1 3dbe 928c 753e 50f6 443e
000000e0: 7959 c1bd fee7 f33d 9050 1fbe 3f79 e7bc
000000f0: 365f 5c3e 8cba 233c c259 35be ef43 a3bd
00000100: 2e5f d0bc 6e6c 37bd a46f 343e a22d 653e
00000110: 204d 5b3c a11c 1dbe 8e7f 913c e0da 003e
00000120: 92ea f83d 71dd 82be b03c 37bd c598 44be
00000130: cd97 d1bd 0c2a ca3d 353d 35be 2a6e c13d
00000140: c6fb 523e 96ba c33c 39af 2ebe ff02 4bbd
00000150: d89a 5f3d 9b1f 57be ec5d fe3d 81b5 5fbe
00000160: 5217 76be 0178 7fbe 58f6 4fbd a39e 253e
00000170: 84f8 57be aec8 543e cccf ccbd 8719 a63d
00000180: c4c2 48bb 66d0 58be be70 453e fd58 f93d
00000190: 8076 7e3e 19e8 d83d 48fa 28be 24ef 653e
000001a0: 2023 5c3c 4a74 d73d 4ff1 3ebe 33d1 afbd
000001b0: aea1 70be 906b c7bd a0e8 5c3d c530 3abe
000001c0: e67b d23d 8c07 d63d 3662 703d 2e8a 19be
000001d0: 5a7b 46be deee 68bd ea2d b63d 5175 5f3e
000001e0: 1b9f 133e 0c9a a23c 0084 b33d 7212 4bbe
000001f0: 6bda 5ebe 0859 d13d 3d81 13be d0f1 c13d
00000200: 442d 17be d191 14be a301 3fbe 9c38 213e
00000210: 60ae d0bc 6abf 4e3e 4928 183e 2759 f03d
00000220: a2da 153c ef7c 2ebd 3850 43bd 5590 843d
00000230: 97f9 f23d 50a9 39be 100c 553e 64fd 3fbd
00000240: ea14 6cbe bce3 1abe 9d80 583e 2bcb 793e
00000250: aa20 6dbe f208 443e 1f3d bb3d 8865 0b3e
00000260: aa44 573e 71d7 d1bd dcee bc3d bff2 fd3d
00000270: 9235 a8bd f64b 913d a4d6 9bbd b315 113e
00000280: 880e 8ebd 14df bebd 40e5 803d 689a b53d
00000290: 1026 fabd 300a b53c 745c 143e f0c4 cbbc
000002a0: a8d1 9b3d b8f9 76bd b074 b33d e671 39be
000002b0: 0e89 16be 74f1 01be 4c44 6b3e 64c5 89bd
000002c0: 00f0 32ba cc0f f8bd f08f 7f3e 0e07 7a3e
000002d0: 6012 41be 1088 4fbe d40b 42be 0008 9eba
000002e0: c482 82bd 4e90 27be e0a3 b7bd 1877 413d
000002f0: f4c1 05be 88e6 623d c8d1 6abd b018 f8bd
00000300: c6c8 bb3d 2c93 523e 0976 cbbd 1f97 8bbc
00000310: 20cf bcbd ec81 6e3e 7259 57be 6e15 78be
00000320: c858 793e f40e 37be 2053 443d c5cb 0cbd
00000330: 974f 48bd 4d1d 2abd c1ca 223e 7c10 dd3a
00000340: 6f33 67be a991 07be 637d 99bd 8e56 e13d
00000350: 8eaa 25be dc8f 5f3e b8c0 e1bc 07ee 08bd
00000360: f6d4 463e 4a92 c13d 1a55 4b3e 9ab3 f83d
00000370: 8fa1 92bd a5a1 1bbe 57ee 8dbc 0f85 5e3e
00000380: 5cd6 abbd 1e68 6dbe 24e2 d13d 6c35 793e
00000390: 00c2 91bd 5af9 53be 1035 68be 904e 803d
000003a0: f012 9bbc d846 01be a8fb 4e3d c06f c23d
000003b0: 069a 4b3e fcc0 463e b046 19bd 7ebb 61be
000003c0: 4fef 7bbe d62f 5f3e b9ef cb3d fa71 ff3d
000003d0: 207f 5dbe a643 7f3e 9179 523e 9f74 5b3e
000003e0: 8582 56be 86f5 7dbd 084c 22be 43fe 843e
000003f0: 2191 e6bd 2a9b 02be 7b7c 043e 7ea7 01be
-0.06317722 0.11676533 0.026308509 0.095550045 -0.084956884 0.10246716 -0.17461774 0.089948736
-0.16914797 -0.2640075 -0.20076394 0.18003091 0.14775385 0.23455393 0.20028031 -0.20357405
-0.15426284 -0.025291475 -0.15264879 0.15777177 -0.18900195 -0.1388705 -0.21465856 -0.1303978
0.20405522 0.17421524 0.16549966 0.17000923 0.22642678 -0.050057355 0.11142353 0.23306704
0.06289993 0.23444267 0.118430726 0.17104931 -0.08749804 0.13815488 -0.0019775566 -0.07114035
-0.1391469 -0.10794623 -0.17891005 0.19131032 0.17302929 -0.04220358 -0.14587969 0.18253878
0.18391325 0.022900758 -0.10888962 0.21599162 0.10223517 -0.1852457 0.23979405 0.19234586
-0.09440894 0.119094834 -0.15558076 -0.028256057 0.21520695 0.009993207 -0.17710021 -0.07971942
-0.02543601 -0.04478114 0.17620713 0.22380689 0.013385087 -0.15342952 0.017761018 0.12583494
0.12154116 -0.2555957 -0.04473561 -0.19198902 -0.10234032 0.09871301 -0.1769913 0.0944484
0.20603856 0.023892682 -0.1705903 -0.049563404 0.05459103 -0.2100815 0.12420258 -0.21846582
-0.24032333 -0.24948122 -0.05077204 0.16173796 -0.21090895 0.20779678 -0.100005716 0.08110338
-0.0030633667 -0.21173248 0.19281289 0.12175176 0.24849892 0.10591144 -0.16501725 0.22454506
0.013436109 0.10520227 -0.1864674 -0.085848235 -0.23499176 -0.09737313 0.053932786 -0.18182667
0.10277538 0.10450658 0.05868741 -0.14994118 -0.19382992 -0.056868427 0.08895476 0.21822096
0.14416163 0.019848846 0.087654114 -0.19831255 -0.21763007 0.102220595 -0.14404769 0.0946995
-0.14763361 -0.1450875 -0.18652968 0.15744251 -0.025473773 0.20190206 0.14859118 0.117357545
0.009146364 -0.042599615 -0.047683924 0.06472842 0.11864012 -0.18130994 0.20805383 -0.04687251
-0.23054853 -0.15125936 0.21142812 0.24393909 -0.23156992 0.19144037 0.09142517 0.1361295
0.21022287 -0.1024617 0.09225246 0.12399816 -0.08213343 0.070945665 -0.07609299 0.14168434
-0.06936365 -0.093198925 0.06293726 0.08867341 -0.12214291 0.022099584 0.14488393 -0.02487418
0.07608348 -0.060296744 0.08762491 -0.18109855 -0.1470072 -0.12689763 0.22975272 -0.067271024
-0.0006825924 -0.12112388 0.24957252 0.24416754 -0.18854666 -0.20266747 -0.18949825 -0.0012056828
-0.06372598 -0.16363642 -0.089668036 0.047232717 -0.13062268 0.055395633 -0.05732897 -0.12114084
0.09169154 0.20563954 -0.09934623 -0.017039834 -0.092191935 0.23291749 -0.21030214 -0.24226925
0.24350274 -0.17876798 0.047930837 -0.034374017 -0.048904028 -0.04153185 0.15897657 0.0016865875
-0.22578214 -0.13239159 -0.07494619 0.11002837 -0.16178343 0.21832222 -0.027557716 -0.033430126
0.19417176 0.094517305 0.19856682 0.12143631 -0.07159721 -0.15198381 -0.017325563 0.21730445
-0.08390495 -0.23184249 0.10248211 0.24336785 -0.07117081 -0.20700589 -0.22676492 0.062649846
-0.018929929 -0.12624681 0.050532967 0.09493971 0.19882974 0.19409555 -0.03742093 -0.22044179
-0.24603008 0.21795592 0.09957833 0.12472911 -0.21630526 0.2492815 0.20554186 0.21431206
-0.20948227 -0.062001728 -0.15849316 0.25975236 -0.1125815 -0.12754503 0.1293811 -0.1266155

fc3.bias f4 [16]
00000000: 9b9a 0cbe f384 d2bd 8768 8a3d b4c7 59be
00000010: 69d4 433e 6054 4dbe b340 e83d 8512 8c3e
00000020: 0685 383e ab60 133e c4d1 593e 08a7 093d
00000030: 42b7 3fbe 44ad 1b3e 605c 723d 60db 18be
-0.13730852 -0.10279264 0.06758218 -0.21267587 0.19123997 -0.20051718 0.113404654 0.2735788
0.18019494 0.14392345 0.21271425 0.03360656 -0.18722251 0.15202814 0.059170127 -0.14927435

fc4.weight f4 [1, 16]
00000000: 9081 7fbd da3a e4bd 2959 453e 35c6 23bd
00000010: 1f5f 68be 4f6b fb3b c3ef 113e 9298 a73c
00000020: 7419 943d 61e5 d13c 18e2 be3d e87f 79bd
00000030: c74e 9fbd 36bf 2ebe b0da 40be 89a6 d53d
-0.06237942 -0.111440375 0.19272293 -0.039983947 -0.22692536 0.0076727043 0.14251618 0.020458493
0.07231417 0.025622072 0.09320468 -0.060912997 -0.077786975 -0.17065129 -0.18833423 0.10432155
