model_weights.pth (torch, 8263 bytes, 9 tensors)

0.weight f4 [20, 1]
000000 18 91 c1 bc a8 cc 0d 3f 8e 0a 57 bf b4 d5 40 bf
       -0.023628756 0.55390406 -0.8400048 -0.75326085
000010 04 b8 ce be 26 af 81 3e 53 59 d3 bc f1 50 49 3f
       -0.40374768 0.2532894 -0.025799429 0.7863913
000020 0d f0 94 bd 93 04 81 3e d8 15 a2 be 3e 44 37 be
       -0.072723486 0.25198802 -0.3165729 -0.17897126
000030 14 4d 79 bf 4e 11 2e bf 97 90 ca be e4 11 40 3d
       -0.97383237 -0.67995155 -0.39563438 0.04689206
000040 7b f8 c1 3e 14 34 1e 3f 76 ca 30 bf 5a 88 e8 be
       0.37884888 0.61798215 -0.6905893 -0.45416528

0.bias f4 [20]
000000 b6 b3 b1 3e 95 0c 59 3f d4 19 64 be c9 21 3b 3f
       0.3470742 0.84784824 -0.22275478 0.7309843
000010 ee 17 38 be f3 46 ba 3d 27 36 66 3f 48 16 6f bf
       -0.17977878 0.09095564 0.8992638 -0.93393373
000020 94 0f 1d bf 30 1d 88 be df cc ce be 1c b0 61 3f
       -0.61351895 -0.26584768 -0.4039068 0.88159347
000030 64 aa 2a bf 9e bc f4 be 15 9b 2e bf 4a 3a 6d bf
       -0.66666245 -0.47800153 -0.68205386 -0.9266707
000040 0c a8 19 bf 22 a7 60 3f a4 fd dd 3e 6e 93 ee 3e
       -0.60022044 0.87755024 0.43357575 0.46596855

2.weight f4 [20, 20]
000000 01 37 e7 3c 2d ab c8 bd 94 72 ad 3c 06 ec 66 be
       0.02822447 -0.09798274 0.0211728 -0.22550973
000010 d4 8b 36 be 74 2c ca bd 3c 7b 21 3e 23 35 17 3e
       -0.17826778 -0.0987176 0.15769666 0.14766364
000020 3f 13 ed bd 10 fe 07 3c 17 5d 01 3e cb cb 74 3e
       -0.115759365 0.008300319 0.12633167 0.23905866
000030 ab a5 93 3d ab fb 5d 3c 7a 7d 08 3e fd d3 17 be
       0.07209333 0.013548772 0.13329116 -0.14826961
000040 5a 89 6c 3d 2c 78 20 be cb c6 2f be 7e 86 07 be
       0.057748176 -0.15670842 -0.17165677 -0.13234898
000050 45 59 f0 3d 76 b0 d9 3d 4c 65 18 be 64 4d 51 3d
       0.11735777 0.106293604 -0.14882392 0.051099196
000060 74 ca d9 3d 1c ad 43 bc 7b ad cb 3c 52 7c 8b 3d
       0.10634318 -0.011943128 0.024862995 0.068108216
000070 f0 b4 fa 3d 93 5c 6c 3e a7 3c 41 be 12 1b 86 bd
       0.12241542 0.2308219 -0.18870793 -0.06548132
000080 60 77 92 3d cc f3 2c 3e d9 83 36 3e 04 53 39 3e
       0.07151675 0.16889876 0.17823733 0.18098074
000090 df 5f 77 3d 36 5a 36 be be b7 88 3b 6a 35 20 be
       0.060394164 -0.1780785 0.0041722944 -0.15645376
0000a0 57 d7 43 be 75 2c 5d 3e 6e 5e 1c 3e b3 32 76 be
       -0.19125114 0.2159899 0.15270397 -0.24042778
0000b0 3a b7 c8 3c 47 7f a7 bc 16 e1 9f bc 62 60 ae bd
       0.024501432 -0.020446433 -0.019516509 -0.08514477
0000c0 15 c4 8c 3d a2 5b ec bd b3 5f 84 3d 3c a1 05 3e
       0.06873337 -0.11540915 0.06463566 0.13049787
0000d0 dc 2f 12 3e 55 c3 87 3d 6f 55 74 be 64 39 26 be
       0.1427607 0.066290535 -0.23860715 -0.1623283
0000e0 56 71 03 3e a9 4f 83 3d 1e 5e 44 be 4d bc 15 be
       0.12836203 0.06411678 -0.19176528 -0.14622612
0000f0 45 59 6a 3e 84 42 2d 3e a1 9f ed bd 1d 39 99 bd
       0.22885616 0.16919905 -0.116027124 -0.074815966
000100 5e 19 6d be 63 82 6d 3c 32 75 19 be 62 a6 1d be
       -0.23154208 0.014496419 -0.14986113 -0.15395501
000110 28 a4 fc bc 3e 43 55 3d 0a 81 e1 bd 19 db 1a 3e
       -0.030839995 0.05206608 -0.110109404 0.15122642
000120 e8 4f 1e be 2e ca 3c 3e f8 f1 09 3e 21 0f 54 be
       -0.1546017 0.184365 0.1347121 -0.20708896
000130 df 7f 18 bd ff 70 ea 3c 82 c7 66 3c 46 3e 0d 3d
       -0.037231322 0.028618334 0.014085652 0.034483217
000140 aa a6 d2 3d ca e8 ea 3c e3 be fe bd c6 3a b9 3d
       0.10285695 0.028675456 -0.124387525 0.09044413
000150 03 55 6b be a0 4d f0 bd 73 db 26 bd b9 ec bf bd
       -0.22981648 -0.11733556 -0.040736627 -0.09371323
000160 39 61 bf bd 5c 45 2c be cb bf 80 bd 07 5f 81 3d
       -0.093447156 -0.16823334 -0.062865816 0.06316953
000170 c9 cf 24 be 41 36 db bc 70 48 14 3e 78 8e 1c bd
       -0.16094889 -0.026759269 0.14480758 -0.038221806
000180 f0 70 ac 3c 64 6b 83 bb 08 56 f5 3c b5 bf 01 3e
       0.021049947 -0.0040106047 0.02994825 0.12670787
000190 60 a0 48 3e 83 f2 00 3e 39 db 69 3e 00 f6 d4 b5
       0.19592428 0.12592511 0.22837533 -1.5866826e-06
0001a0 99 2e 3d be 31 d8 f9 bd bf 7d 0b 3e b0 fe 8e bc
       -0.18474807 -0.12199438 0.13622187 -0.017455429
0001b0 7e d3 c2 bd d0 a9 3f be 18 cc 45 be ac d1 51 be
       -0.09512995 -0.18717122 -0.19316137 -0.2049014
0001c0 06 e3 ef bc 72 09 0e 3e e1 3b 0c 3e 9e 6a 4c be
       -0.029283058 0.1387079 0.13694717 -0.19962546
0001d0 09 bb fd 3d b3 a2 43 be a9 4b ff bc c3 54 98 bd
       0.1238919 -0.19105034 -0.031164007 -0.07438042
0001e0 88 52 77 bd db 66 7b bd 09 93 3b be d5 bc 33 be
       -0.060381442 -0.061377387 -0.18317808 -0.17552502
0001f0 41 31 8f bc ab a9 6d bc 2b c0 f3 bd 6d d7 88 3d
       -0.01747954 -0.014505784 -0.119018875 0.06681714
000200 72 40 3c be a0 7b 04 bd 7f 47 5b 3e 6a bf de bd
       -0.18383959 -0.03234446 0.21413992 -0.10876353
000210 12 a7 60 3e 5a a3 c9 3d cc c3 3c be 4a b9 22 3e
       0.21938732 0.0984561 -0.18434066 0.15890995
000220 82 75 2f bd c3 36 f0 bd 9c 05 49 3e 99 f8 26 be
       -0.042836674 -0.11729195 0.19631046 -0.1630577
000230 75 48 12 3c d3 4d 7e bd d7 25 33 3e 9e 2a 9f 3d
       0.008928408 -0.062085938 0.17494904 0.077718005
000240 09 62 fb 3d 06 b8 82 3d 11 4e 8d bd b7 61 7e bd
       0.12274558 0.06382756 -0.068996556 -0.062104907
000250 ed 21 2d be 31 a9 d9 3d d4 72 45 3e 66 e3 0c 3e
       -0.16907473 0.10627974 0.19282085 0.1375862
000260 5f e1 11 be 58 ca ce 3c 96 cd 11 be 8b eb dc bd
       -0.14246128 0.02524297 -0.14238581 -0.10787114
000270 4a 39 14 be 70 76 7a 3d a1 a6 f1 bd 82 67 2c 3c
       -0.14474979 0.061148107 -0.1179936 0.010522725
000280 3c 24 e5 3c bf ab 26 3e c9 27 40 be db 48 30 be
       0.02797138 0.16276453 -0.18765177 -0.17215292
000290 a5 09 18 be d3 4e 33 3e 94 fc 7c bd 27 30 54 3e
       -0.14847429 0.17510538 -0.061764315 0.20721494
0002a0 35 fe 7e 3d 08 ed 3f 3d 2a 44 a6 bc c3 54 d1 bc
       0.06225415 0.04685691 -0.020296175 -0.025553113
0002b0 11 91 1a 3c bb b5 8e bd bc 5f a5 bc 96 84 22 3c
       0.009434001 -0.06968256 -0.020187251 0.009919306
0002c0 f6 3e 20 be ea e2 c9 bd da cf 25 3e a2 f1 4c be
       -0.15649018 -0.098577335 0.1619257 -0.2001405
0002d0 1c 3d 0e bd 1a 5f 4f 3e 06 b4 cb 3d 62 03 cd 3c
       -0.034726247 0.20251122 0.09946446 0.025026027
0002e0 fa 49 33 be af 98 bc 3d 56 3b 36 be 1a 46 a8 bd
       -0.17508689 0.092088096 -0.17796072 -0.08216496
0002f0 df c4 66 bd 30 19 54 bd 41 2d ad 3c a5 b6 29 3e
       -0.056340095 -0.051781833 0.021139743 0.1657358
000300 8a e3 3e 3d 55 3a 60 3e a8 33 1f 3e 6e 3f fb bd
       0.046603717 0.21897252 0.15547049 -0.12267958
000310 41 46 a7 3d 82 ff 34 be 6f cc 9b bd 95 fe ac 3d
       0.08167697 -0.17675593 -0.07607352 0.08446995
000320 33 a8 b9 3d 24 32 3d 3e 52 40 b6 bd aa 08 89 bc
       0.090652846 0.18476158 -0.08898987 -0.016727764
000330 8c d9 c8 3d b6 1d 4c be 57 ea 36 3e 94 01 2c be
       0.09807119 -0.19933209 0.17862831 -0.16797477
000340 4c 19 63 bc d8 3c ae bc ff 07 0a be 26 1b 3f 3d
       -0.013861012 -0.021269247 -0.13479613 0.04665675
000350 f9 ee 2b 3e f8 b2 a8 bd 0f 55 19 be 70 19 cc bd
       0.1679038 -0.082372606 -0.14973854 -0.09965789
000360 94 0c 52 be cc 89 f1 3d de d1 fe bd 65 68 2a be
       -0.2051261 0.11793861 -0.12442373 -0.16641386
000370 ca fa 15 be 66 db e2 3d 16 7b 0b 3e 28 07 42 3e
       -0.1464645 0.11077003 0.13621172 0.18948042
000380 12 9e ca 3d f2 3b bd bd 56 5a a4 bd d1 ea 45 3d
       0.09893431 -0.09239949 -0.08025043 0.04831964
000390 ed 64 4e 3e 29 f8 30 3d 12 31 b4 bd 39 de fb bd
       0.20155688 0.043205414 -0.08798422 -0.12298245
0003a0 18 45 46 be 7e 62 87 3d 5a 95 dc bd 54 f6 39 be
       -0.19362295 0.06610583 -0.10770674 -0.18160373
0003b0 11 fb 36 3e e9 ea 26 be 61 9d f9 bb 82 f0 a7 3d
       0.17869212 -0.16300549 -0.007617638 0.0820017
0003c0 b5 39 d1 3c d4 30 07 be 2d f7 4b be 5c 9f 23 3e
       0.025540212 -0.1320222 -0.19918509 0.1597876
0003d0 23 33 93 3c 7e d5 50 3e 12 84 67 bd 08 a8 ac 3d
       0.01796872 0.20393941 -0.056522436 0.08430487
0003e0 67 78 8e bd 82 c8 0a 3c a7 57 1e be e9 a8 c0 3d
       -0.06956559 0.008470656 -0.15463124 0.09407217
0003f0 13 0d 56 3d cf d6 bc bc 44 c0 8c bd 8b 06 20 be
       0.052258562 -0.023051647 -0.06872609 -0.15627496

2.bias f4 [20]
000000 97 0f 4b be 3e bb 4d be 8a c9 e5 bc 18 f1 2c 3e
       -0.19830166 -0.20090958 -0.028050203 0.16888845
000010 dc 13 49 be 3c dd 2d 3e 70 f6 da bd 42 b9 4d 3d
       -0.19636482 0.16978925 -0.106915355 0.050225504
000020 d3 12 ec 3c 5d 9b 61 be f8 4c 4f 3e d2 25 d2 3d
       0.02881757 -0.22031923 0.20244205 0.1026112
000030 a4 7a 76 3e 90 13 05 3e 55 1f 29 be dd 2b 2f 3e
       0.24070221 0.12995744 -0.16515858 0.17106576
000040 49 3d f1 3c f7 ee b6 3d 19 79 49 be 0d bd a6 bd
       0.029448168 0.08932298 -0.19675101 -0.08141527

4.weight f4 [20, 20]
000000 a6 2b 54 be 18 1e 8f bd 6f b4 f2 3c e1 1c 46 be
       -0.20719776 -0.06988162 0.029627053 -0.19346954
000010 d0 01 a9 3d 53 05 d4 3d 93 da 49 3d cd 19 2a be
       0.08252299 0.10352578 0.049280714 -0.16611405
000020 1c 0b 44 be 66 ea 4f bd 28 85 a4 3d a4 41 5a 3e
       -0.19144863 -0.05076065 0.0803321 0.21314102
000030 2b 3e e2 3d ce f5 dd bc 7b 8c c6 3d c1 e3 71 be
       0.11047014 -0.027094748 0.09694763 -0.23622037
000040 38 b2 55 be fb 90 b3 3d 38 88 dd bd e1 73 00 3e
       -0.20868766 0.08767887 -0.10816997 0.12544204
000050 a1 1f 15 be 5a fe c0 bd 33 60 4f be aa 81 cb 3d
       -0.14562847 -0.09423514 -0.20251541 0.09936841
000060 0b a1 3c bc 29 0e 20 3e 4a bd 1f 3e ac 15 dd 3d
       -0.011513005 0.15630402 0.15599552 0.10795149
000070 dc a6 29 bc 56 86 52 bd 95 d7 86 bd 32 e3 b0 3c
       -0.010354724 -0.051397644 -0.06584088 0.02159271
000080 d2 00 bf 3d aa 80 21 be c5 d3 52 3e 30 a6 25 bd
       0.09326328 -0.15771738 0.20588596 -0.040441692
000090 58 5b 51 be 8c 35 0c be c7 7e 5d 3e 39 17 63 3e
       -0.20445001 -0.13692302 0.21630393 0.22176827
0000a0 9b 79 60 be 3f 25 11 3e f3 2e 05 3e 59 bb 18 3e
       -0.21921389 0.14174365 0.13006191 0.14915217
0000b0 1d 35 36 3e a6 91 d7 bd e3 1b 5b 3d 1a 9f da 3d
       0.17793699 -0.10525827 0.05349339 0.106748775
0000c0 85 ce 48 bd 10 ce 6b 3d 60 25 43 bd 22 6a 16 3e
       -0.049025077 0.057569563 -0.047643065 0.14688924
0000d0 dc 23 38 bd 58 27 aa bd c2 7c 1d 3d a6 57 c2 3d
       -0.044956073 -0.083082855 0.038449056 0.09489374
0000e0 cc dd bd bd ac 0e 10 3d 02 e1 e3 3d 13 bd 1f bd
       -0.0927082 0.035170242 0.11126901 -0.038998675
0000f0 6d 93 a4 3d d8 0e 11 bd d5 c1 75 3d d0 e5 38 be
       0.08035932 -0.035414547 0.059999306 -0.18056417
000100 85 a0 f7 bd 58 f7 06 be 3d 71 65 3e 83 b6 a0 bd
       -0.120911635 -0.13180292 0.22406478 -0.07847311
000110 36 28 9d bc d8 de b7 bd c6 8d 51 3e a6 af 5a 3e
       -0.019184213 -0.08978051 0.20464239 0.21356067
000120 d1 b5 3f be d8 ed 3d be b9 af 1a be 78 d6 9f bc
       -0.18721701 -0.18547761 -0.15106095 -0.019511446
000130 6c c9 9a bd f1 a9 28 be 5c 7d 7f bd f9 27 79 3d
       -0.075579494 -0.16471078 -0.06237541 0.060829137
000140 e9 a4 d7 bd d0 57 88 3d 57 54 8f bd c5 36 01 be
       -0.10529501 0.06657374 -0.069985084 -0.12618549
000150 32 e8 28 3d b8 ad 2b 3e 7f 44 08 be be 75 be bb
       0.041237064 0.16765487 -0.13307379 -0.005812376
000160 79 d6 cd bd 7e 58 73 3e b5 68 6b be eb 7f 62 be
       -0.10050673 0.23764226 -0.22989161 -0.2211911
000170 ed 1d 4f 3e ff 5d 12 be 00 dc 7b 3d a5 0b 13 bd
       0.2022626 -0.14293669 0.061489105 -0.035899777
000180 08 85 84 bd 34 d6 87 bd 9e a0 24 3e ec 51 e9 3c
       -0.06470686 -0.06632653 0.16076896 0.028481446
000190 19 43 53 be 78 6c f1 bd 29 21 be bd c9 d3 c7 3d
       -0.20631064 -0.11788267 -0.092836685 0.09757192
0001a0 ec 13 09 be b8 12 4a 3e 5d 3c 0d bd 21 c3 5b bd
       -0.13386506 0.19733703 -0.034481395 -0.053652886
0001b0 b0 d0 23 3e 42 f3 02 3e e6 ff 32 3e 68 d5 f5 3d
       0.15997577 0.12788108 0.1748043 0.12003595
0001c0 15 33 aa bd 86 29 15 be f8 79 9c b9 ca 65 2f 3e
       -0.083105244 -0.14566621 -0.00029845512 0.17128673
0001d0 ad c2 b7 bd 3c 4e 62 be 52 26 e0 3d 0b 28 6e 3e
       -0.08972678 -0.22100157 0.10944809 0.23257463
0001e0 fc e3 9a bd c3 b2 4c be 24 77 3e be ef 7c 92 3d
       -0.07563016 -0.19990067 -0.18600136 0.071527354
0001f0 76 c4 e7 bc 9e 41 ca bd 67 be f0 3c 8d e5 ca 3d
       -0.028291922 -0.09875797 0.029387666 0.099070646
000200 2d 38 46 3e 43 6f 21 3e 0c 10 94 bc 2a 0a 40 be
       0.19357367 0.15765099 -0.018074058 -0.18753877
000210 35 c2 3e be db bf 53 3e e4 64 a8 3d 7e 28 e5 3d
       -0.18628772 0.20678656 0.08222368 0.11189364
000220 3b 7e 36 be 68 a9 62 3e 0e fd 46 3e 81 e9 3e 3e
       -0.1782159 0.22134936 0.1943247 0.18643762
000230 c2 b8 34 be 6c 8c 8b bd a2 1a 30 be 18 5c 47 3e
       -0.17648605 -0.06813893 -0.1719766 0.19468725
000240 25 ba ad bd 93 d0 f0 bd d7 c0 09 3e fe 91 f3 bd
       -0.0848277 -0.117585324 0.13452469 -0.1189308
000250 fe 7d 02 be 45 4e 06 bb 81 7f 1d bd ab eb 3a be
       -0.12743375 -0.002049343 -0.038451675 -0.18253963
000260 b2 21 2d 3e bc 67 cb bd fb 68 c7 3d 5c f0 36 3e
       0.16907385 -0.09931895 0.0973682 0.17865127
000270 4d 86 c4 3d 32 21 83 3c de ae 55 3e b0 ce 40 3d
       0.09595928 0.01600704 0.20867488 0.047072113
000280 d1 e1 ec bd 35 e2 47 3e b4 b0 91 3d 95 da 4d be
       -0.115665086 0.19519885 0.071137816 -0.20102914
000290 28 91 99 bd 58 fc 0b be c4 e4 36 3e bb b4 ae bc
       -0.074983895 -0.1367048 0.17860705 -0.021326413
0002a0 28 ec 3e be fd 8d 01 bd 79 3f 21 3e b6 0b 88 3d
       -0.18644774 -0.03162955 0.15746869 0.06642859
0002b0 35 76 b4 3d 86 ea b0 3c dd b0 85 3d 26 d8 1d bd
       0.08811609 0.021596204 0.065278746 -0.038536213
0002c0 9c 91 93 bd 4d e2 45 be 51 54 3f be c9 76 a3 3d
       -0.07205507 -0.19324608 -0.18684508 0.07981641
0002d0 d0 72 14 be a9 03 5e 3c 36 e8 b7 3d d7 18 0d 3d
       -0.14496922 0.013550677 0.089798376 0.034447517
0002e0 9e 51 1f be 06 b6 6d 3e bd 32 18 be 39 12 4f 3e
       -0.15558478 0.23213968 -0.14863105 0.20221795
0002f0 f9 17 23 be fa 3d 94 bd 86 9c 0f 3e 19 f4 b0 bd
       -0.15927114 -0.072383836 0.14024553 -0.08640308
000300 1b 68 53 3e 88 47 19 be 4a 35 53 be eb bc a8 bd
       0.20645182 -0.14968693 -0.20625797 -0.08239158
000310 68 44 60 3d 41 9e 65 3e 10 3a ff bd a0 4f 7b 3d
       0.054752737 0.2242365 -0.124622464 0.061355233
000320 cd 35 34 bd de 66 fd bc 71 26 15 3e 92 15 44 be
       -0.04399662 -0.03093284 0.14565445 -0.19148853
000330 b3 c7 0d 3d 4c 11 46 3e a1 17 4a bc a6 87 20 3e
       0.034614276 0.19342536 -0.012334735 0.15676746
000340 e4 9c b2 bd f2 3a 4b 3e b8 0d 70 be 55 3a 1f bd
       -0.08721331 0.19846705 -0.23442733 -0.03887399
000350 a9 23 6c bd 97 be 8f 3d b4 01 da 3d b2 31 1e 3e
       -0.057651196 0.07018774 0.10644856 0.15448645
000360 65 44 52 bd 3a fc d3 bc 6c ca 2f 3e e2 69 2d bd
       -0.051334757 -0.025877107 0.17167062 -0.042337306
000370 9b 2f 3c 3e fd a3 29 be c4 0a bc bb cf 95 b5 3b
       0.18377535 -0.16566463 -0.005738588 0.00554154
000380 28 46 b5 3d 9c fb 2c 3e d0 2b 5a bd ad 44 2d be
       0.08851272 0.16892856 -0.05326444 -0.16920729
000390 1f a5 03 3e 8b 7f 48 3d 08 b7 db 3d 67 37 05 be
       0.12855957 0.04894976 0.1072827 -0.13009416
0003a0 03 97 25 3e 0f 53 5a 3e 56 83 88 3a 17 14 45 be
       0.16170888 0.21320747 0.0010415118 -0.19245945
0003b0 83 7a 32 3e cd 2c 19 be 9b da 06 3d 82 7d 75 3c
       0.17429547 -0.14958496 0.032923322 0.014983537
0003c0 51 b2 bc bd c2 0e c2 3d da b1 5f be 08 6e 08 3d
       -0.09213699 0.09475471 -0.21845189 0.03330806
0003d0 1c 9a 05 be 97 58 25 bd 1f 05 3f 3d ff 7d 32 3e
       -0.1304707 -0.04036769 0.046635743 0.17430876
0003e0 1f fc fe bd b0 19 25 3e 56 2b 3c bd 9a a5 e9 bd
       -0.12450432 0.1612308 -0.045939766 -0.11408539
0003f0 cc aa 59 be 11 c4 53 be 78 6c 72 3e 1f 0e 94 bd
       -0.2125656 -0.20680262 0.2367419 -0.07229256

4.bias f4 [20]
000000 65 cc f1 3d aa 46 51 3e a5 1d 7c 3d e2 14 09 bd
       0.11806563 0.20437112 0.06155171 -0.03346718
000010 2c 98 4f 3e 20 48 e1 bd ab a5 3c bb 39 7c ea bd
       0.20272893 -0.11000085 -0.002878527 -0.11449475
000020 87 9b 68 bc f3 99 89 3d da ed 44 3c 50 cb cd bc
       -0.014197237 0.067188166 0.012019599 -0.025121361
000030 5e 8e 76 be d5 2e f2 3c 05 37 30 3c d8 a8 50 3d
       -0.24077746 0.029563347 0.010755305 0.050942272
000040 f6 af 40 3e 26 4d 4d 3e 56 33 ee bd 82 dd b7 bc
       0.18817124 0.20048961 -0.11630885 -0.02244449

6.weight f4 [20, 20]
000000 25 43 91 bd bd be 56 be de 7c 14 be c6 c5 69 3e
       -0.07092885 -0.20971198 -0.14500758 0.22829351
000010 e6 5d 0c 3e e7 86 e9 3d 82 25 12 3e 8f c5 3d be
       0.13707694 0.11402684 0.1427212 -0.18532394
000020 60 79 27 3d 82 cf 42 3e b1 3e e4 bd 1a e4 3b 3e
       0.040887237 0.1902447 -0.1114477 0.18348733
000030 5b cf 9d 3d 35 24 0e 3e a8 88 ea bd 7b 08 ad 3d
       0.077055655 0.13881 -0.11451846 0.08448883
000040 e7 fe 4a be 35 21 d6 bc 1b 9f 93 3d c8 ca ae 3d
       -0.198238 -0.026138881 0.07208081 0.08534771
000050 69 68 41 3e 25 5a 6f 3e 2c 16 4f 3e ce de 19 3e
       0.18887486 0.23374231 0.20223302 0.150264
000060 b6 ec 2f 3e 47 1c 7f bc 3a 70 31 be f8 02 90 bd
       0.17180142 -0.015570707 -0.17327967 -0.07031816
000070 c4 90 db bc bb 96 f5 bd ee 3c fd 3d a0 83 94 3d
       -0.026802428 -0.1199164 0.12365137 0.07251668
000080 1f 64 13 3d 2c f8 5b 3d dd be 47 3e 63 7a a5 3d
       0.035984155 0.053703472 0.19506402 0.08079984
000090 7a d4 57 be 81 04 1c be 87 5e ab 3d b8 b0 f7 3c
       -0.21077147 -0.15236093 0.08367639 0.030235633
0000a0 e4 2f b9 3d 7e 22 60 be 19 e6 64 be 24 cb f3 3d
       0.090423375 -0.21888158 -0.223534 0.119039804
0000b0 29 06 0c 3e 19 33 48 be 15 b3 88 3d ec 58 2a be
       0.13674225 -0.19550742 0.06674782 -0.16635484
0000c0 f0 28 1c 3e 3b 45 b3 3d 14 d5 54 3e c5 f8 51 be
       0.15249991 0.08753439 0.20784408 -0.20505054
0000d0 73 c2 6e be 23 71 2d 3e 94 5c 5e 3e 66 14 1f 3e
       -0.23316364 0.1693769 0.21715003 0.15535125
0000e0 9f 79 17 3e 41 af 34 be 69 a0 27 3e 41 75 6a be
       0.14792489 -0.17644979 0.16369785 -0.22896291
0000f0 60 67 00 3d 6c 4e 11 be 1b ea d8 bd 67 b7 b0 3c
       0.031348586 -0.14190072 -0.10591527 0.021571828
000100 41 d9 c0 bd 6c 37 e9 bc 6e 88 6b be e3 58 4f be
       -0.09416438 -0.02846881 -0.23001263 -0.20248751
000110 06 10 8f 3d 60 6b 9e bd a7 df 18 be 8e 20 95 bd
       0.06985478 -0.07735324 -0.14929067 -0.072816
000120 ed 77 4d be 31 77 24 be ae 0d 1c 3e a5 1d 07 3e
       -0.2006528 -0.16061093 0.15239593 0.13194902
000130 b4 0a ed 3c 54 c2 e1 bd 20 f8 9b 3d 36 75 fd bb
       0.028935768 -0.11023393 0.076156855 -0.00773492
000140 05 bc 36 be b8 a7 56 3d d5 cb 3e 3e a8 cf 73 be
       -0.17845161 0.052406043 0.18632443 -0.23809683
000150 38 36 6a be 73 a1 10 3d 93 c8 19 3e 9c ff 02 be
       -0.22872245 0.03531022 0.15017919 -0.1279282
000160 24 35 04 3d 34 da 32 3e 09 f1 63 3d ef b9 82 3d
       0.03227724 0.1746605 0.05564979 0.0638312
000170 b2 09 52 3e d6 df 27 3e e8 59 db bd b0 91 1a 3d
       0.20511511 0.1639398 -0.10710508 0.037736595
000180 a3 b8 e8 3d d4 1e 56 3e 53 cb 61 be 45 3d d3 3d
       0.11363342 0.20910197 -0.22050218 0.103144206
000190 ce 20 ab bd 11 8a 5b be ad 5c 05 3d 68 1c 0f be
       -0.083558664 -0.21439387 0.032559086 -0.1397568
0001a0 34 03 d1 3c de 9f 0d be ed d1 3e be 58 2b 2f bc
       0.025514223 -0.13830516 -0.18634768 -0.010691486
0001b0 f9 18 bc bd 82 9b 17 3e 40 43 c5 3b 32 8b 42 3e
       -0.09184451 0.14805415 0.0060199797 0.18998411
0001c0 8e 29 c5 3c e6 31 5c bd 2a 29 2e 3e b5 22 fa 3c
       0.024067666 -0.053758524 0.1700789 0.030534128
0001d0 91 37 28 3d b9 1f 76 bd 9b 4f 23 3b 1d d5 78 bd
       0.041068617 -0.060088847 0.0024919275 -0.060750116
0001e0 40 b4 bb b9 f7 db 36 be c0 d9 82 3c 46 6b 2b be
       -0.00035801716 -0.17857347 0.015972972 -0.1674014
0001f0 00 be 2a bd a4 ef fb 3d 7a 88 0c be 69 9a 22 be
       -0.041685104 0.12301567 -0.13723937 -0.15879215
000200 f0 ec 19 bd d0 72 a1 bd 87 8a 51 3d ef 99 b1 3c
       -0.037579477 -0.07883227 0.0511575 0.021679847
000210 2b 94 06 3e dc 7b 30 be 86 1e 0d bd eb 5a da 3d
       0.13142459 -0.17234749 -0.034452938 0.106618725
000220 15 92 46 3e b4 24 e7 bc a0 96 06 be 5f 81 a8 3d
       0.19391663 -0.028215744 -0.13143396 0.082278006
000230 10 76 15 3e 39 c1 13 be f4 c5 e6 bd be 4c ef 3d
       0.14595819 -0.14429177 -0.11268225 0.11684559
000240 7c ef 1a bc 4a 58 5f be 26 0c e3 bd 57 a7 a8 3d
       -0.009456512 -0.21811023 -0.110863015 0.082350425
000250 53 1d 72 bd a9 5b 0c 3e 08 97 42 3e 0b 0d 8c 3c
       -0.059109997 0.1370684 0.19002926 0.017096063
000260 1c 1c 18 39 7b 80 b6 bd c9 08 f5 bc 45 81 b7 3c
       0.00014506321 -0.089112245 -0.029911416 0.022400508
000270 5e fb 2d be 93 c7 85 bd a3 37 40 be 00 b8 1e 3e
       -0.1699042 -0.065322064 -0.18771224 0.15499878
000280 99 82 fd bd 7e 76 4c 3e 58 2b 26 bd e9 76 e1 bd
       -0.12378425 0.19967076 -0.04056868 -0.110090084
000290 f4 bd e8 3d b3 5a d8 3c c5 0c 31 3e 9b 18 ae 3d
       0.11364356 0.026410436 0.17290027 0.08500787
0002a0 a0 72 4b be c4 47 fe 3d 63 4f ec bc e0 00 ea bd
       -0.19867945 0.12416032 -0.028846448 -0.11425948
0002b0 71 a9 23 3e 58 6e 14 3e da 4c 5c be a4 c3 1d bd
       0.15982606 0.14495218 -0.21513692 -0.038516656
0002c0 a9 f5 3c 3e 35 04 99 3d f4 26 3f 3e f6 23 71 bd
       0.18453087 0.074715056 0.18667203 -0.058872186
0002d0 96 13 0c be a9 22 4f 3e 6f de a4 3d e5 7a 4e 3e
       -0.13679346 0.20228066 0.08050238 0.20164068
0002e0 b1 f2 b9 bd 3d 34 08 be 69 08 21 bd b3 69 4c be
       -0.09079493 -0.13301177 -0.03931466 -0.19962196
0002f0 ee b6 99 3d 51 ee 35 3e 9c fa 3d 3d 3d 0f 45 bc
       0.07505594 0.17766692 0.046381578 -0.012027559
000300 2f 59 c8 3d b5 f8 03 be b1 b7 6d 3e 9d 1f 56 be
       0.097826354 -0.12887843 0.23214604 -0.20910497
000310 8e 40 64 be 66 f2 28 bd f1 c3 33 3e 9f bf 23 3c
       -0.2229025 -0.041246794 0.17555214 0.0099944165
000320 44 ba 89 3d 6f 44 23 be 75 d9 83 3d 08 60 30 bd
       0.067249805 -0.15944074 0.06437961 -0.043060333
000330 85 ac aa 3d 68 b0 28 3e 8a f1 a1 3d f1 4f 30 bc
       0.08333687 0.16473544 0.07907398 -0.010761247
000340 4c b3 fa bc f2 a9 fb bd 0d d3 c0 bd e9 98 24 3e
       -0.030603074 -0.12288274 -0.09415255 0.16073956
000350 5e 48 dc bd 0b d4 20 3e 3b 73 8f bd 24 2b 0a bd
       -0.107559904 0.15705888 -0.070044 -0.03373255
000360 5c f5 82 3b da ed 45 be f4 88 cf b9 5a 65 25 bd
       0.0039965343 -0.19329014 -0.00039584155 -0.04037986
000370 d7 c0 cf ba b6 e7 4c bd ff 7d 45 3e f6 05 3b 3e
       -0.0015850317 -0.050025664 0.19286345 0.18263993
000380 3f 41 15 be 06 63 c5 3d 42 7c 21 be 14 e8 4b be
       -0.1457567 0.09638028 -0.15770057 -0.1991275
000390 0a 34 ad 3d cf 1e 5d bc 22 b0 ba bd 82 97 6c be
       0.08457191 -0.013496115 -0.09115626 -0.2310467
0003a0 d9 9f 8d bd c1 20 69 3d a3 cd 66 be f1 db 70 be
       -0.06915254 0.056916002 -0.22539382 -0.23521401
0003b0 ea e8 f5 3c c4 11 31 be 26 ac 49 be ae 0a 8d bd
       0.030018289 -0.17291933 -0.19694576 -0.068868026
0003c0 b6 dd 8e bc 75 bd 52 be 0c 34 06 be 66 94 08 3d
       -0.017439704 -0.20580085 -0.13105792 0.03334465
0003d0 b6 81 50 be 99 e1 15 bd c4 b7 00 be 89 d2 25 be
       -0.20361981 -0.0365921 -0.12570101 -0.16193594
0003e0 a8 ee d8 3d b2 0c 43 be 2e cf 1f be ec bd e5 3d
       0.10592395 -0.19047812 -0.15606377 0.11217865
0003f0 60 67 77 3d 31 5c 3d 3e 93 b0 a0 bd dc c6 01 be
       0.06040132 0.184922 -0.07846179 -0.12673515

6.bias f4 [20]
000000 7d 24 3d be e9 f6 c9 bc 4c f5 4b 3d 8f 0f 9a 3d
       -0.1847095 -0.024653869 0.04979448 0.07522499
000010 d8 67 07 3e 1a 52 93 bd 8d 8c ad bd 72 24 2e 3e
       0.13223207 -0.07193394 -0.084740736 0.1700609
000020 87 cc 9d bd bc 12 12 be f3 cb 2c 3e a7 1d 0a 3e
       -0.07705026 -0.14264959 0.16874675 0.13487874
000030 cf f1 b4 bd 43 6a 7d bd d3 b2 17 be a7 98 2d be
       -0.08835184 -0.061868917 -0.1481431 -0.16952763
000040 8e 39 89 3d bc e0 e6 bd 58 bd 47 3e 9a 2f 26 be
       0.06700431 -0.112733334 0.19505823 -0.16229096

8.weight f4 [1, 20]
000000 d5 aa 40 bd 7a fa 59 bc 1f 5e 04 3e 64 f0 48 3e
       -0.047037918 -0.013304347 0.1292653 0.19622952
000010 57 dd 2c 3e 7b cc d4 3d 0a 13 f4 bd bc c4 12 be
       0.1688131 0.10390564 -0.11917694 -0.1433286
000020 f0 0f 42 be b8 d4 c1 bb da db 70 3e 14 24 e2 bc
       -0.18951392 -0.0059152506 0.23521367 -0.027605094
000030 cf fd bc bc b4 40 39 be 8e e2 6d 3d 7c e6 00 3e
       -0.023070244 -0.18091089 0.058077388 0.12587923
000040 62 f3 6e be 1c 60 33 be 3a 83 33 3e 10 fc 2f 3d
       -0.2333503 -0.17517132 0.17530528 0.042964995
