model.pth (torch, 36815 bytes, 7 tensors)

fc1.weight f4 [64, 3]
000000 f5 7f 64 3e 0a 74 3f be dc ab af be 0a 25 96 be
       0.22314437 -0.18696609 -0.34310806 -0.29325134
000010 d3 ed 5b 3d ef 66 4d be eb c2 1c 3f 8d 7d 83 be
       0.053693604 -0.20058797 0.6123492 -0.25681725
000020 99 c7 95 be e8 f5 a5 bd c5 41 f6 3e 62 9e bd be
       -0.29253843 -0.081035435 0.48097053 -0.370349
000030 62 16 0b 3f ad a5 b1 3c 9b 0a 2c bd 58 2a 01 bf
       0.5433103 0.021685446 -0.0420023 -0.50455236
000040 94 6e 53 be ca c7 d9 3e 86 75 03 3f 91 83 25 3e
       -0.20647651 0.4253524 0.513512 0.1616347
000050 80 96 cf 3e 3b 34 d3 3e 80 8a 05 be 51 b8 de 3c
       0.4054451 0.41250786 -0.13041115 0.027187498
000060 b9 54 af be de e0 ba 3e f3 ce 40 3b 5d dd ea 3d
       -0.34244326 0.36499685 0.0029420226 0.11468003
000070 24 14 05 3e b2 27 a8 be 11 c4 66 3d 18 b5 53 bd
       0.12995964 -0.32842785 0.056339327 -0.051686376
000080 3c 93 71 be 82 a8 b7 3e a8 ae 79 be 11 d5 94 bd
       -0.23591322 0.3587075 -0.24383032 -0.07267202
000090 a9 d5 b5 be 17 c3 7a 3e 8e d6 13 3f 6f e9 4e be
       -0.35514572 0.24488483 0.5774926 -0.20206235
0000a0 87 aa b4 be cb c4 9a 3e 44 64 7b be a7 76 a8 3e
       -0.35286352 0.30228266 -0.24549967 0.32903025
0000b0 4d 53 96 3e 44 38 1a be 1c 88 e6 be 83 6e e3 3e
       0.29360428 -0.15060526 -0.45025718 0.4442025
0000c0 3b 92 6e bc 7b bf 54 3e f3 3b 70 3e 38 0d 0f 3e
       -0.014561231 0.20776169 0.23460369 0.13969886
0000d0 51 68 dc 3e a6 8e 89 be 01 74 28 3e 20 6e 45 be
       0.43048337 -0.26866645 0.16450502 -0.1928029
0000e0 b8 02 ea be 45 4d 9e 3e 5a 76 a8 be b6 49 fb be
       -0.457052 0.30918327 -0.32902795 -0.49079674
0000f0 0c 84 1c 3f 66 c3 e3 be df 4e 6a bd 9d 33 cd 3e
       0.6113899 -0.44485015 -0.057204124 0.4007844
000100 9c a3 0a bd 0e 0d c2 3d 12 7e 28 be bc c7 b0 3e
       -0.033847436 0.09475146 -0.16454342 0.34527385
000110 3c 30 13 3e 93 8e ef be f5 3f e1 3e f2 b5 d8 3e
       0.14373869 -0.46788463 0.43994108 0.42326313
000120 47 ed d3 bd 70 a7 d2 3d 15 a1 c2 be 58 d5 88 3e
       -0.103479914 0.102858424 -0.3801352 0.26725268
000130 73 f4 c8 3e 4d f6 ae bc 40 82 f4 3e ff ad b8 3e
       0.39249 -0.02135768 0.47755623 0.36070248
000140 c7 ed bf be 39 76 1b 3e 65 8e ec be 3e f9 44 be
       -0.37486097 0.15181817 -0.46202388 -0.19235703
000150 ca 7b 32 bd 3b a0 30 3e 19 84 d7 be 22 19 1b bf
       -0.043575086 0.17248623 -0.4209297 -0.60585225
000160 bd d6 43 be b4 af 23 3e da 8f 00 bd 09 e4 0f bf
       -0.19124885 0.15984994 -0.031387188 -0.5620733
000170 0c de fd be 8f b6 6f 3c 62 3e db 3e 29 a7 ae be
       -0.4958347 0.014630928 0.42821032 -0.34111908
000180 9e fb 65 be 49 11 e4 3e 93 6a a3 be 4c f9 6a 3e
       -0.22459266 0.44544438 -0.31917247 0.22946662
000190 75 35 a1 be 5c 7c 6a 3e bf a6 c7 3d 69 f6 2d 3e
       -0.31486097 0.22899002 0.09748601 0.1698853
0001a0 15 14 b4 3e 28 61 97 be e4 93 88 be 59 8c e1 3e
       0.3517157 -0.29566312 -0.26675332 0.4405239
0001b0 4a 74 fb be 32 aa d1 3e b6 3a 03 bd ed 14 aa be
       -0.4911216 0.4095016 -0.032038413 -0.3321909
0001c0 76 44 89 3d 31 b4 6a be ba 66 dd bd c1 51 6d be
       0.06702511 -0.229203 -0.10810609 -0.23175718
0001d0 c9 f0 dc be 2e dd 9b 3d cf 30 e1 be 66 1c d2 3e
       -0.43152454 0.07610546 -0.4398255 0.4103729
0001e0 4f 94 b1 3e d5 94 83 be ae a4 d7 be f7 a8 b8 be
       0.34683463 -0.25699487 -0.42117828 -0.3606641
0001f0 f9 d8 ac be 22 33 5d 3d 06 cc b8 bc 81 d7 80 3e
       -0.33759287 0.054003842 -0.022558223 0.25164416
000200 27 bf 06 3f bf 12 a3 3e 8b 56 be bc 37 dc fb 3e
       0.52635425 0.3185024 -0.023234626 0.49191448
000210 e7 05 1d 3f a6 18 f3 bd da a5 dd bc 92 65 f4 3e
       0.6133713 -0.11869936 -0.027056623 0.47733742
000220 08 6c eb 3e 2d c4 13 bf 28 35 96 be ae f4 e6 be
       0.4598086 -0.57721215 -0.2933743 -0.4510855
000230 68 b7 26 be 21 d5 08 bf 1b 82 1f bd 8f 4a c7 be
       -0.16280901 -0.5345021 -0.038942438 -0.3892407
000240 da 77 02 bf 67 49 07 be d2 c9 89 be fb af 0c 3f
       -0.5096413 -0.13211595 -0.2691179 0.54956025
000250 0f ad 0f 3e e8 22 38 bd 16 c5 80 be f7 9d 53 be
       0.1403086 -0.044955164 -0.25150365 -0.20665728
000260 39 ee 0f bf 1e 87 14 3f a0 4e fc bd ad 43 0c bd
       -0.56222874 0.5801867 -0.12319684 -0.03424423
000270 31 7e 1e be 7e 39 3f 3e f2 e2 3e be e2 70 0b 3f
       -0.15477826 0.18674275 -0.1864126 0.5446912
000280 92 49 8f be 35 65 08 bf da 7f d2 3e 91 12 cd 3d
       -0.27985817 -0.5327943 0.41113168 0.10013307
000290 a0 60 a5 be da 88 83 3e d9 29 b7 be 6a b9 b6 3d
       -0.32300282 0.25690347 -0.35774115 0.08922084
0002a0 c0 a5 a6 3e 29 3d 2b bc 06 09 d4 3d 75 52 17 3e
       0.32548332 -0.010451593 0.103532836 0.14777549
0002b0 e1 66 b5 3e 5a eb bd 3b 8a 5c fe be 16 ff b2 3e
       0.35430053 0.0057958784 -0.49679977 0.3496024
0002c0 3b 14 ae 3e 7b e9 8a be c4 06 b1 be 02 0d 0f 3f
       0.3399981 -0.27131256 -0.34575474 0.55879223
0002d0 75 c3 be 3e eb 7b 9f be 96 06 3c be 2c 22 ef be
       0.37258497 -0.3114923 -0.18361887 -0.4670576
0002e0 70 ed 1a bf eb 88 ef 3e 1e da c0 be dd f3 b1 3e
       -0.6051855 0.46784148 -0.3766641 0.34756365
0002f0 d5 ab 1f 3e f5 d5 86 3e f1 8a 79 3d 9f 8a ff bd
       0.15592892 0.2633511 0.06092352 -0.12477612

fc1.bias f4 [64]
000000 92 77 ec 3d c9 3d 0d bd 6f 07 af 3e a7 94 36 3e
       0.11546244 -0.03448275 0.3418536 0.17830144
000010 66 e6 18 be 49 8d d1 bd c1 76 bb 3e 7d 55 0d be
       -0.1493164 -0.10232026 0.3661404 -0.13802142
000020 97 e0 26 bd 99 18 a2 3e 62 93 df 3e 11 7b 3a be
       -0.04074153 0.31659392 0.43667132 -0.18211009
000030 bc 8b 89 be 68 bc f7 be 7d e4 6f 3e 49 91 e6 bd
       -0.2686442 -0.4838593 0.23427005 -0.1125818
000040 8a 9f d8 be f5 11 93 be 1c 2b 22 3e 7c 9b ad be
       -0.4230922 -0.28724638 0.15836757 -0.33907688
000050 f4 e2 dd 3e 08 42 df 3e 7a 4e db 3c 75 0f 54 3e
       0.43337214 0.43605065 0.026770819 0.20709021
000060 c3 61 96 be 8a 4c 7c bd 51 b9 0d bf f2 16 b0 3d
       -0.2937146 -0.06159643 -0.55360895 0.085981265
000070 05 86 99 be ff 39 8f be 99 31 c9 be 53 57 d7 3e
       -0.2998506 -0.27973935 -0.39295653 0.4205881
000080 aa 4c da 3e 12 c0 c5 3e f6 99 b4 3e 0d e3 ad 3e
       0.42636615 0.386231 0.35273713 0.33962288
000090 6c 35 f9 bd 74 ad e0 3e ea 98 0a bf 7a fb 99 bd
       -0.121683925 0.43882334 -0.5413958 -0.075186685
0000a0 b3 ba f1 3e 38 2d e2 be b3 c8 69 3e 78 af 91 3e
       0.47212753 -0.44175124 0.22830467 0.28454185
0000b0 5b 7c 10 bf 81 c3 98 3e 6b 36 93 3e 11 7f aa bd
       -0.5643975 0.29836658 0.28752455 -0.08325017
0000c0 70 ec 75 3d 00 2c ba 3e fa 9f 46 be 70 e2 d9 bd
       0.060039937 0.36361694 -0.19396964 -0.10638893
0000d0 54 9c 75 bc ef 9b a0 be 2e 9c 07 be 24 85 9e be
       -0.014990885 -0.31368968 -0.13243172 -0.30960953
0000e0 65 20 04 bf 2f b4 08 3f 87 4d 83 be 57 16 90 3d
       -0.5161193 0.5339994 -0.25645086 0.07035511
0000f0 1f 6b 15 3e cc 6f 03 bf fa 94 48 3d b9 0b 2c 3e
       0.14591645 -0.51342463 0.0489702 0.16801347

fc2.weight f4 [64, 64]
000000 40 a2 58 bc 50 09 70 3c ea ed d2 3d fc 8e c6 bd
       -0.013222277 0.014650658 0.10299285 -0.09695241
000010 d8 67 3f 3d 20 99 33 3d 60 c6 5f 3c 52 37 92 bd
       0.046729892 0.043847203 0.013658136 -0.07139458
000020 f8 21 23 bd e4 a4 38 bd fc f4 20 3d e0 83 95 bb
       -0.039827317 -0.045079127 0.039296135 -0.00456284
000030 d6 89 f8 bd f2 ba 9a 3d 80 96 9b bd e2 65 ee 3d
       -0.12135665 0.07555188 -0.07597065 0.11640526
000040 60 52 70 bd f0 98 b2 3d 54 ea 77 bd 00 d8 9f ba
       -0.05867231 0.08720577 -0.060526207 -0.001219511
000050 6a ca cf bd 14 4f 8e bd 28 6f ab 3d 70 c0 34 3c
       -0.10146029 -0.06948677 0.08370811 0.011032209
000060 d4 1a 08 3d fc 8f 7c 3d 1e 0d ac bd 26 c0 88 3d
       0.03322871 0.06166075 -0.084009394 0.066772744
000070 60 7a f4 3b 0c d9 d1 bd f8 c6 b9 bd 1a 59 c2 3d
       0.0074608773 -0.102464765 -0.090711534 0.09489651
000080 20 f4 c0 bb 4a 84 e5 bd 48 e9 aa bc ba ad b0 bd
       -0.005888477 -0.11206873 -0.02086319 -0.08626886
000090 ea fa 9c bd 7c ba a9 bd 78 c2 a1 3d b4 ff 84 bd
       -0.076650456 -0.08287522 0.0789842 -0.06494084
0000a0 ac 74 cd bd 78 ba f5 bd 9c d6 e3 bd f8 b5 f4 3d
       -0.10032019 -0.11998457 -0.11124918 0.1194877
0000b0 2e f5 c1 bd 80 61 2e bd 50 a1 98 bd 30 7a 8d bc
       -0.094705924 -0.042573452 -0.07452643 -0.017270178
0000c0 80 40 40 bd 98 63 b0 bc 98 92 45 3d 80 1f e2 bd
       -0.046936512 -0.021531865 0.048235506 -0.110411644
0000d0 3c 2e 9c 3d b0 e4 f4 bd 3c f8 bd bd a4 09 43 bd
       0.07626006 -0.11957681 -0.092758626 -0.047616616
0000e0 7e 06 bd bd b0 2a 83 bc dc 5d 2c bd 78 30 39 bd
       -0.09229754 -0.016011566 -0.0420817 -0.04521224
0000f0 24 e2 2c bd 8c 7a 27 3d 86 03 fd bd bc 1c c5 bd
       -0.042207852 0.040888354 -0.12354188 -0.09624621
000100 b8 11 cf 3d 80 38 fb 3a 9b e5 c5 bd 00 b8 b9 3a
       0.101108015 0.0019166619 -0.096629344 0.0014169216
000110 e5 83 0b be d2 b4 22 bd c8 26 47 bb 5a 5c 15 3d
       -0.13624533 -0.039723225 -0.0030388106 0.036465026
000120 15 ea e4 bc 38 e2 9f bd b4 79 0b 3d d0 7d 0b bd
       -0.02794365 -0.0780682 0.034051612 -0.03405553
000130 bd 6e 6e 3d 09 35 e0 bd 81 bf 29 bd 17 34 a4 bd
       0.058211077 -0.10947616 -0.041442398 -0.08017748
000140 90 87 c4 3d d4 ee 39 bd 60 21 4a bc 10 c9 1f bd
       0.09596169 -0.04539378 -0.012337059 -0.039010108
000150 12 72 11 3d 48 6a 60 3c 40 55 b2 3d ed 9a 88 3b
       0.035509177 0.013697214 0.087076664 0.004168859
000160 18 50 fb bd 46 4a a3 bd a0 cc a3 bb bc 47 66 bd
       -0.12271136 -0.07973151 -0.0049987584 -0.056220755
000170 c0 9e 04 3d eb 67 8b 3c dc 39 2e 3d 50 af 94 bc
       0.03237796 0.017017325 0.042535648 -0.018150002
000180 6c a9 b0 3d d8 fa c8 bc 8f 2d d2 bd b3 b4 2b bc
       0.08626065 -0.024533674 -0.10262596 -0.010480094
000190 4c e2 9f bd 6a fe c1 3d 68 6e b3 bd 9f 57 73 bd
       -0.078068346 0.09472354 -0.08761293 -0.059409734
0001a0 1e e4 b0 3d 86 a0 c3 bc 9e 4c 46 3d a5 5e 60 3a
       0.0863726 -0.023880254 0.04841291 0.0008559025
0001b0 d6 8c 01 3d 4a ce 9a 3d 55 d4 5f 3d 80 ee aa 3a
       0.031628452 0.07558878 0.054645855 0.0013041049
0001c0 08 98 88 bd 4d 6e 3b bb 88 84 45 3d 90 88 c6 3d
       -0.06669623 -0.002859968 0.048222095 0.09694016
0001d0 58 bd d9 bc 7c 1d f2 3d 84 d2 08 3d 5a e6 2d bc
       -0.026579544 0.1182203 0.03340389 -0.010614002
0001e0 ff 55 ad 3d ed 7d 92 3d 93 50 01 bd cd e9 48 3b
       0.08463668 0.07152925 -0.031570982 0.0030656934
0001f0 51 d3 a7 3c dd ec bf 3d 80 3b 6a 3d 60 97 34 3c
       0.020486506 0.0937135 0.05718565 0.011022419
000200 8a 3b fb 3d da cc ad 3d a6 34 20 bd a8 20 e2 3c
       0.122672155 0.08486338 -0.03911271 0.027603462
000210 a7 24 e0 3c 7c 03 e0 bc 7f cb 81 3c 2c f9 cb 3c
       0.027361227 -0.027345411 0.015844105 0.024899088
000220 16 f7 1a bd 18 79 82 bc 92 b7 f1 3d f3 22 e2 3d
       -0.037833296 -0.015926883 0.118025914 0.11041822
000230 eb 5f b9 bd 15 2b ab 3d f0 c8 d4 3d a8 be 42 3d
       -0.09051498 0.083578266 0.10389888 0.047545105
000240 9d 4e 8b 3b 4a e6 80 bd ce 62 d4 bd 4c 91 c7 3d
       0.004251315 -0.06293924 -0.10370408 0.0974451
000250 ed 50 b3 bd b4 e8 3e bd e8 1f fb bd 99 da 7f 3c
       -0.0875567 -0.04660864 -0.12261945 0.015616083
000260 40 29 0c 3c b9 6c ca 3c 1c 22 da bd 1c 23 c5 bc
       0.008554757 0.024710046 -0.10651037 -0.024064593
000270 7e 5d b7 3d dc 9c c0 3d 50 32 ac 3d 78 5a e0 bd
       0.08953379 0.094049186 0.08408034 -0.109547555
000280 c2 90 c2 bd c3 09 27 3d 35 50 33 3d 72 02 dd bd
       -0.095002666 0.040780794 0.043777663 -0.10791482
000290 9e 6f e0 3d 46 43 b8 bd b4 19 62 bd a9 03 2f bd
       0.10958789 -0.089972064 -0.055200294 -0.0427281
0002a0 30 c2 82 bc 1b ba bc bd b1 af 1d bd ce 0e b2 3d
       -0.015961736 -0.09215184 -0.03849763 0.0869423
0002b0 69 9b 84 3c c8 e1 62 bd 85 43 5b bd 68 e2 40 bd
       0.016187387 -0.055391103 -0.05353119 -0.047090918
0002c0 ac 12 3e 3d a0 3f 2c 3c 38 31 b0 3d 90 82 e8 bc
       0.046404526 0.010513216 0.08603138 -0.02838257
0002d0 16 eb e7 3d 94 5a a0 bd fe 6d e0 3d 3b 9d da 3c
       0.11324136 -0.078297764 0.10958479 0.026686301
0002e0 9b 4c 7a 3c d5 36 c8 bd a4 60 cb bd fe e2 00 3d
       0.015277053 -0.097760834 -0.09930542 0.031466477
0002f0 ac 76 d6 3d 91 12 0d be 3d 2e 7e 3d 58 0f f7 3c
       0.104718536 -0.13776614 0.062055815 0.030158684
000300 08 f1 e7 3d 10 f4 a1 bc 42 85 cc bd fa c1 ae bd
       0.1132527 -0.019769698 -0.099863544 -0.08533092
000310 37 50 6c 3d f6 71 23 3c ca 35 53 3c 2e ba 0f 3d
       0.057693686 0.009975901 0.012891242 0.035089664
000320 5d 5a d4 bd e4 15 a7 3d f6 cc df 3d 3c 59 9d bd
       -0.10368798 0.08158472 0.10927765 -0.07683036
000330 5a 62 98 bd af e4 cd 3d d6 5a 4e bd fd 1b a2 3d
       -0.07440634 0.100533836 -0.050379597 0.079154946
000340 12 3a 0d 3d c8 ee 8d 3d fc 0b 06 3d c4 60 a7 bd
       0.03447921 0.069303095 0.032726273 -0.081727535
000350 3b 15 b1 bd c8 51 b9 3c 50 43 8b bd 4d f7 01 bd
       -0.086466275 0.022622004 -0.06799948 -0.031729985
000360 d0 0a 60 bc 01 bf 3d 3d 90 d6 70 bd 53 69 93 bd
       -0.013674453 0.046324734 -0.058798373 -0.071978234
000370 40 fa f9 3c 0d 22 09 bd a0 3a 71 bc 48 95 68 bd
       0.030514836 -0.03347974 -0.01472345 -0.05678299
000380 d0 f4 44 3c 0e 74 75 bd 0c 48 83 3d 54 49 fc bc
       0.0120212585 -0.05992513 0.06410226 -0.030796684
000390 c8 78 82 bd 34 96 66 bd 30 95 6a bc 6a e6 44 bb
       -0.063706934 -0.05629559 -0.014317796 -0.0030044564
0003a0 a0 ad df bd 8a 85 95 bd 83 1a e1 3d 4b a8 9e bd
       -0.10921788 -0.07300861 0.10991385 -0.07746943
0003b0 94 f8 2d 3d d4 0e 7a bd 61 9c dd bc 58 45 ba 3c
       0.04247339 -0.061049297 -0.027052106 0.022738144
0003c0 b0 b1 98 3d d7 23 e4 3d 58 29 64 bd 5e 86 73 3d
       0.07455766 0.111396484 -0.05570349 0.059454314
0003d0 ee 29 9b 3d 80 b6 20 3c 2c 93 d3 3d cf 57 9d bd
       0.07576357 0.009809136 0.10330805 -0.07682764
0003e0 6c 73 67 bd 9a 72 96 3d 9d 8d d1 bc 48 0b c0 3d
       -0.05650656 0.07346077 -0.025580222 0.09377152
0003f0 7e 0b a2 3c 8a 13 02 be 9d 3f 3e 3d f0 db 68 3c
       0.01978087 -0.12702766 0.046447385 0.014212593

fc2.bias f4 [64]
000000 30 b0 8b bd 86 9a a8 bc dc e5 4b 3d 62 f3 69 3c
       -0.068207145 -0.020581495 0.049779758 0.014279218
000010 02 8c c4 bd 52 21 e2 bc bb c2 6a bd 38 15 ec bc
       -0.09597017 -0.027603779 -0.057314616 -0.028818712
000020 b4 48 b4 3d 85 a3 59 bd 04 b3 c3 bd 46 b0 77 3c
       0.088029295 -0.05313446 -0.09555629 0.01511771
000030 af 2c 27 bd 2c 39 50 bd 3a 08 d0 bd 59 b8 64 bc
       -0.040814098 -0.050835773 -0.10157819 -0.0139599675
000040 14 22 db 3d 63 c0 98 bd 50 76 9c bd 87 50 87 3d
       0.10699859 -0.0745857 -0.07639754 0.06607156
000050 3e 5e f5 3d 15 7f ab bd 2c e3 33 bd fd 71 f7 3d
       0.11980866 -0.08373848 -0.04391782 0.120822884
000060 7c bf 47 3d d3 25 e6 3d 1e bd 79 3c 80 35 66 bb
       0.048766598 0.11237683 0.015242843 -0.0035127103
000070 17 85 41 bd b9 a2 9e bd 6e a4 f9 3b 8f 49 40 bd
       -0.047246065 -0.07745881 0.0076184785 -0.04694515
000080 bf ac e1 bd 3a 41 7f bd 67 02 e5 3c 5b c4 b9 bd
       -0.11019277 -0.062318064 0.027955247 -0.09070655
000090 e0 e7 34 3b 2a 57 cd bd 80 83 c1 3c 5a be d8 3d
       0.0027604029 -0.10026391 0.023622274 0.10583182
0000a0 a8 55 14 3d dc 70 b2 3d 0f dd 40 3d ef ed cc bc
       0.0362145 0.087129325 0.047085818 -0.0250158
0000b0 59 97 b9 3d b8 05 66 3d e0 5c 0d 3d 29 4c a8 bd
       0.090620704 0.056157798 0.0345124 -0.082176514
0000c0 0e 8f dc bd 2f c1 48 3c aa 25 08 be 2e 33 01 be
       -0.10769473 0.01225309 -0.13295618 -0.1261718
0000d0 d8 ed ff 3d b3 40 3a bd 8e a6 85 3d 9a 86 8b 3c
       0.12496537 -0.04547186 0.065259084 0.017031956
0000e0 78 37 ab bd 42 ef b0 3d 2d 63 04 be 50 64 81 bc
       -0.08360189 0.08639385 -0.12928458 -0.015794903
0000f0 28 dc 0a bd aa ac 4d 3d 29 cd 69 bc b9 cc 7e 3c
       -0.033901364 0.050213493 -0.014270105 0.015551739

fc3.weight f4 [64, 64]
000000 78 f4 ba 3d c0 30 1f bb 5c 29 be bd e0 da f8 bc
       0.0912866 -0.0024290532 -0.092852324 -0.030377805
000010 20 d0 88 3b 40 55 22 bc 02 d5 90 3d 28 f1 cb bd
       0.004175201 -0.0099080205 0.07071878 -0.09958106
000020 f8 b2 6d bd c4 12 f9 bd 9e 6a a3 3d 84 97 12 3d
       -0.058032006 -0.121617824 0.0797932 0.035789028
000030 3a 12 93 bd ec 77 4d 3d 70 d5 1a 3d e8 44 d6 bd
       -0.07181211 0.050163195 0.037801206 -0.104623616
000040 68 84 df bc b4 6e 29 3d f0 b4 57 bc 00 e7 c7 3c
       -0.027284816 0.04136534 -0.013165697 0.024402142
000050 e6 5e 9f 3d 36 a5 a5 bd fc 2c e9 3d c0 f8 fc bd
       0.07781772 -0.08088152 0.11385533 -0.12352133
000060 28 b7 81 bd 08 af af 3c f0 62 d6 bc e6 04 83 3d
       -0.063337624 0.021445766 -0.026170224 0.06397419
000070 8c b6 62 bd e8 a2 36 3d 24 fa 56 3d 54 37 08 3d
       -0.05534987 0.044588953 0.052484646 0.03325589
000080 a8 33 0f bd f0 22 36 3d 14 31 31 3d 28 34 b2 3c
       -0.034961373 0.044466913 0.043259695 0.021753386
000090 60 20 fc 3c 00 34 0d bd ca 05 a0 bd 4c 03 ad 3d
       0.030777156 -0.03447342 -0.07813604 0.084478945
0000a0 88 25 a8 bc 2a 92 d5 bd 1e c1 a6 bd 6a 87 fb bd
       -0.020525709 -0.10428269 -0.08142303 -0.122816876
0000b0 d0 79 bc 3c dc c7 4a bd 34 80 19 bd 9c 49 71 bd
       0.023007303 -0.049507007 -0.03747578 -0.05890809
0000c0 24 0a b9 3d da 99 c0 3d d8 83 d3 3d 6a 22 87 bd
       0.09035137 0.09404345 0.103278816 -0.06598361
0000d0 ac b4 b3 3d 2a 78 86 3d 80 1f ab 3c 90 83 c1 3d
       0.08774695 0.06565888 0.020889044 0.09448922
0000e0 ee 64 e6 3d c0 dc 69 bd 94 a1 ae 3d 10 4b 3c bc
       0.112497196 -0.05709529 0.08526912 -0.011492506
0000f0 b4 b4 22 bd 90 30 9f 3d 40 66 51 3c 60 ab 07 bd
       -0.039723113 0.077729344 0.012780726 -0.03312242
000100 bc 52 5e 3d 0b 5e dc bc 93 cd e7 3d 41 50 4a bd
       0.05427812 -0.026900312 0.11318507 -0.049392942
000110 f0 1d 0f 3c 35 73 36 3c f0 7b 1b bd 00 03 1a bb
       0.008735165 0.011135866 -0.037959993 -0.0023500323
000120 db 3b 1e 3d c3 ed 99 bd 48 8f ce 3d 30 d6 a6 bd
       0.0386313 -0.075160526 0.100859225 -0.08146322
000130 15 dd d0 3d 39 d9 e6 3b e0 ec d6 bd 50 57 8f 3d
       0.10198418 0.007044938 -0.10494399 0.069990754
000140 5a 87 a3 bd c4 62 9e bd 3a 04 cd bd 6a de ce 3d
       -0.07984801 -0.07733682 -0.10010572 0.10101016
000150 a8 2b 67 bd 83 d5 41 bc de 0c a4 bd c3 68 b9 3d
       -0.05643812 -0.01183069 -0.08010267 0.09053185
000160 88 ba e9 3c 2f 8c 29 bb 98 a0 db 3d 00 f0 02 b8
       0.028531328 -0.002587091 0.1072399 -3.1217933e-05
000170 e1 d9 a1 bd 34 fb 63 3d 10 e0 19 bd e3 95 8a 3d
       -0.07902885 0.055659488 -0.0375672 0.0676687
000180 83 e0 6f 3d 77 3a 87 3d 9b 48 b0 bc d4 b7 c4 bd
       0.05856372 0.06602948 -0.021518996 -0.09605375
000190 e7 0f b7 bd 7e 5e dd bd de 91 a7 3d c2 1e 8d bd
       -0.0893858 -0.108090386 0.08182119 -0.06890632
0001a0 e5 f7 a3 bd 67 c9 03 bd 74 f8 38 bd 8c 62 a6 bc
       -0.080062665 -0.032174494 -0.04515882 -0.020310663
0001b0 68 12 a4 3c 17 83 9d bd d8 3b 82 3c bd 43 8a bd
       0.020028308 -0.07691019 0.015897676 -0.06751201
0001c0 0c b6 2e bd 3f f7 d3 3d bf 77 ad bd 1f e2 00 be
       -0.042654082 0.10349893 -0.084701054 -0.12586258
0001d0 00 4d 57 3a 8a ab 06 bd bc ef 3b 3d ba 28 25 3d
       0.0008213073 -0.032878436 0.045882925 0.040322043
0001e0 a8 97 0b 3d a6 b3 34 3c cc e4 99 3d 44 8d c3 3d
       0.034080178 0.01102916 0.07514343 0.09548429
0001f0 dc 7a 0b 3d da cc 74 3c 1b c1 af 3d 55 b1 34 bd
       0.034052715 0.014941419 0.08581754 -0.04411443
000200 88 f9 d7 bc e0 e5 05 be 7f 28 e9 bd f7 34 ff bd
       -0.026364103 -0.13075972 -0.11384677 -0.12461274
000210 30 5e ac 3d 86 0c bf 3d 75 51 02 bd 30 ac 29 bc
       0.08416402 0.093285605 -0.031815965 -0.010355994
000220 6e cf 6d 3c f7 0a 70 3d e8 d2 d1 bc f6 f2 e6 bd
       0.014514787 0.058604207 -0.025613263 -0.1127681
000230 50 b8 4e bc 95 be 96 bc 98 c4 e1 bd 2a c7 8c 3d
       -0.012617186 -0.018401423 -0.110238254 0.06873925
000240 6c 01 d0 bd e2 55 06 3c f3 35 3c bd 7a 27 1e 3d
       -0.10156521 0.008199187 -0.045949887 0.038611867
000250 7a ac bd 3d 15 66 73 bd a0 31 0f bd 55 28 93 bd
       0.09261413 -0.059423525 -0.034959435 -0.07185427
000260 c2 df f7 3d fe 3c e1 3d 6f b7 6e bd d4 a2 ee 3d
       0.12103225 0.109979615 -0.058280405 0.11652151
000270 03 fc ce bd 59 93 1a bd 99 0f df 3d 50 f7 0c bd
       -0.10106661 -0.037738178 0.10891647 -0.034415543
000280 51 c3 0f 3d a5 86 f1 3c 3f 7a a7 bd 03 aa 92 3d
       0.035098378 0.029483149 -0.081776135 0.071613334
000290 db 4e e6 bd 76 7a db 3d 60 e0 cb bc e0 95 33 bc
       -0.11245509 0.10716717 -0.024887264 -0.010961026
0002a0 07 6b 18 3d d0 f0 d9 3d f1 a0 a1 3d af 87 51 3d
       0.037211444 0.106416345 0.07892025 0.05115479
0002b0 25 8c aa 3d 93 0f 80 3d 9e 66 f6 3d f9 b4 94 3d
       0.08327512 0.062529705 0.120312914 0.0726108
0002c0 70 ec b2 bc 71 43 76 3d 86 00 51 be e9 d8 31 3d
       -0.021841258 0.06012291 -0.20410356 0.043419752
0002d0 a4 26 98 bd ac da a8 3c 82 53 87 bd 62 f0 c8 bd
       -0.07429245 0.020612083 -0.06607725 -0.098114744
0002e0 80 eb 32 3d 53 96 4b 3d b6 d5 c3 bd 50 db 5f 3c
       0.04368162 0.049703907 -0.095622465 0.013663128
0002f0 38 29 b5 bc 6f 73 20 bb a0 26 c0 3d 75 c4 6c 3d
       -0.022114381 -0.0024482866 0.09382367 0.057804544
000300 c4 fd 92 bd 91 26 f0 bd 4e 9d 01 bd fd d9 95 bd
       -0.07177308 -0.11726106 -0.031644158 -0.073169686
000310 74 e0 fc bd e7 69 6e bc ad 37 2b 3d 76 8a f0 3d
       -0.123474985 -0.014551616 0.041801143 0.11745159
000320 96 51 b5 3d 51 d7 87 3d 40 c8 3c bc 71 c5 99 bc
       0.08853452 0.06632865 -0.011522353 -0.018770905
000330 f6 2a 24 bd de ef eb bd 54 20 95 bd af de 33 bd
       -0.040080033 -0.115203604 -0.07281557 -0.04391354
000340 48 84 3e bd d4 2d 61 bd 11 83 7e bd b7 b7 30 3d
       -0.046512872 -0.054975346 -0.062136713 0.043143954
000350 00 be cd ba f8 5f 63 3b 30 62 04 bd 3b 47 9c bc
       -0.0015696883 0.0034694653 -0.0323202 -0.019076934
000360 44 4f 5b 3d 72 74 89 3d 26 4e a7 3d ac 97 2f bd
       0.05354239 0.06711663 0.081692025 -0.042869255
000370 68 94 9b bd 99 7c c5 bb ce 80 be bd 08 4e 88 3d
       -0.075966656 -0.006026816 -0.09301911 0.06655508
000380 38 e4 09 bd bf 03 af 3d c9 64 af bd 6c f7 36 bd
       -0.033664912 0.085456364 -0.08564145 -0.044669554
000390 09 3e ac 3d 2e 99 88 3d 52 ce d6 3d f6 65 a4 bd
       0.0841027 0.06669842 0.10488571 -0.0802726
0003a0 60 20 bb 3d fb 87 ba 3c d8 2a 04 be aa 6b 1d bd
       0.091370344 0.022769919 -0.12906969 -0.038432755
0003b0 40 3c d6 3c d4 50 c5 3d 4c b0 79 b8 d8 00 5f 3c
       0.026151776 0.09634557 -5.9530415e-05 0.013611041
0003c0 68 b2 c4 bc ed 6a f5 3c ed d2 07 3e 96 2c f2 bd
       -0.024010852 0.029958213 0.13264056 -0.1182491
0003d0 90 cc 69 bd 25 9b 46 3c d4 bc 5a 3d 94 3a ba 3c
       -0.05707985 0.01212195 0.053402737 0.02273301
0003e0 48 4a 6d 3d 8c fd 95 bc ea 9f 83 3d 91 f0 fa 3d
       0.05793217 -0.018309377 0.064269856 0.12252916
0003f0 50 5a 6a 3c 6b 8e eb 3d 4d c0 a5 3d bd 61 9d 3d
       0.014303759 0.115017734 0.08093319 0.07684658

fc3.bias f4 [64]
000000 a6 a8 e3 bd a7 66 8c bd 57 4a 8c 3c e4 71 3b bb
       -0.111161515 -0.06855517 0.017125292 -0.002860182
000010 7f 1e 61 bc 0c 30 4b 3c 42 e6 b0 3d 9a 92 8d bd
       -0.013740181 0.012401592 0.08637668 -0.06912728
000020 10 6c 7c 3c 9d 31 a0 bc 56 0d de bd cb e3 e3 3d
       0.0154066235 -0.019554907 -0.108423874 0.111274324
000030 20 ec 99 3d 8e 98 87 bd 40 58 69 3d 28 02 0e 3d
       0.075157404 -0.06620894 0.056968927 0.034670025
000040 c4 45 b8 3d 29 b1 d8 3c 5c af ea bd 51 03 c5 3d
       0.08997682 0.026451664 -0.114592284 0.09619773
000050 12 06 91 3d 7c 6c 35 bd 19 66 fb bc 90 88 38 3c
       0.07081236 -0.044292912 -0.030688332 0.011263028
000060 66 38 ee 3b 4a 2c 89 3d 3f cb b4 3d 17 b0 82 bd
       0.007269907 0.066979006 0.088278286 -0.06381243
000070 75 e7 b2 3c c0 be f3 bc 41 ac e1 3d ab 97 af 3b
       0.021838883 -0.029754043 0.11019183 0.0053586564
000080 19 b5 1c 3c f2 61 9f 3d 92 e5 fb 3d d3 be 37 bd
       0.009564661 0.077823535 0.122996464 -0.04485972
000090 d2 00 89 3d 50 fc 11 bd 90 46 ce bd 66 6c be bd
       0.066896096 -0.035641015 -0.100720525 -0.09298019
0000a0 c5 33 96 3c 98 17 97 bd e1 11 4a bd ea 11 b4 bd
       0.018335233 -0.07377547 -0.049333457 -0.08792479
0000b0 d7 c7 a4 3c ec 9a 01 be 78 1d 52 bd 68 37 ce bd
       0.020114822 -0.12656754 -0.051297635 -0.10069162
0000c0 55 99 86 3d dc 6c c1 3d 88 81 00 be d8 b0 02 3d
       0.065722145 0.094445914 -0.12549412 0.031906933
0000d0 43 40 87 bd 5f 5c 6a bd f0 97 27 3c 41 02 80 3d
       -0.06604054 -0.057217 0.010229096 0.0625043
0000e0 48 26 91 bc 80 d0 3e bd ae df d0 bd f5 12 26 bb
       -0.01771845 -0.04658556 -0.101989135 -0.002534089
0000f0 f4 74 44 bd 08 85 63 3d 84 a5 6b bd 7e 03 82 bd
       -0.047963098 0.05554679 -0.057530895 -0.06348322

fc4.weight f4 [1, 64]
000000 a0 a1 50 3d 4f 65 c0 bc 4e 29 e3 bd 6d 5e 35 3d
       0.050935388 -0.023485808 -0.110918626 0.044279505
000010 13 00 ed 3c 7e b1 c7 bd 87 c7 85 bd 64 23 b1 3d
       0.0289307 -0.09750651 -0.065321974 0.08649328
000020 b6 10 ac bd 8d a1 dd 3d e0 1b fa bb ea 4c cf 3d
       -0.08401625 0.10821829 -0.0076327175 0.10122092
000030 e8 0b 82 bd 7a 18 64 bc 30 54 a7 3c 52 0b b7 3d
       -0.06349927 -0.013921851 0.020425886 0.08937706
000040 48 1d 40 3d b9 67 8a 3d 54 e8 e0 3c ff 10 9a 3e
       0.046902925 0.06758065 0.027454533 0.30091092
000050 5a e2 7f bd 02 26 d1 3d 19 9d 9a 3d d0 50 87 bc
       -0.062471725 0.102123275 0.07549495 -0.016518027
000060 59 d7 1e 3c a8 c8 d8 bc 4b 0e 59 3d 3c ce d9 3d
       0.009694898 -0.026462868 0.052992146 0.10635039
000070 d2 be fc 3d d0 d8 34 bd 57 0c 8c bd 50 0d da bd
       0.123410836 -0.04415208 -0.06838291 -0.106470704
000080 b3 05 8c bc 20 63 8a bb d0 ca e3 3d fa 50 08 bd
       -0.017092561 -0.0042232424 0.11122668 -0.03328035
000090 60 4e cc bd 5b ee 00 3e 2e 38 c8 bd 3c 03 6c 3d
       -0.09975886 0.12590925 -0.097763404 0.057620272
0000a0 10 34 02 3e be ac db bd 64 2e 61 bd c0 f1 59 3d
       0.12715173 -0.10726307 -0.054975882 0.053209066
0000b0 a6 36 ab 3d fb 0a ac bd 12 51 e1 3d a0 16 5a bc
       0.08360033 -0.08400532 0.11001791 -0.013311058
0000c0 b4 27 86 bd 0b 84 a4 3c d1 71 1c 3d 68 44 c1 3d
       -0.065505415 0.020082494 0.03819448 0.094368756
0000d0 e4 d8 58 3d bc 56 47 bd 00 3c d5 b9 90 d3 cf 3d
       0.052941218 -0.0486667 -0.0004067123 0.10147774
0000e0 b4 ff 25 3e 80 38 5b 3b 34 82 27 bd cc ee 50 bc
       0.16210824 0.0033450425 -0.040895656 -0.012752246
0000f0 6c da ec 3d e2 59 a0 3d 80 32 3f bd f6 af d8 3d
       0.11565098 0.07829644 -0.04667902 0.10580437
