pth_models/best_model.pth (torch, 4815 bytes, 7 tensors)

fc1.weight f4 [16, 4]
000000 00 54 75 bb 5e 54 89 3e 16 b3 d2 be 80 66 bc be
       -0.00374341 0.2682218 -0.41152257 -0.3679695
000010 2b 1d 38 bd 0c 55 62 3e 36 1b 92 bc 7a 42 eb 3e
       -0.04494969 0.22102755 -0.01783524 0.45949155
000020 70 bf 35 bd 4c 7b 07 3e ac bb 1a be 70 48 c9 bd
       -0.044372022 0.13230628 -0.15110654 -0.098282695
000030 b8 91 f4 be 52 8b a9 be e8 0e 53 be 00 bb 97 3c
       -0.47767425 -0.33114105 -0.20611155 0.018521786
000040 a8 a9 41 3e 0f 14 94 3e de ad 15 be 8e ec 74 be
       0.18912375 0.28921553 -0.14617106 -0.23918363
000050 d2 39 2e 3e d0 db ce 3e ca 29 39 3d 66 2f b5 3e
       0.17014244 0.4040208 0.04520587 0.35387725
000060 40 0d a5 bd 10 b5 58 3d 4a cd e7 3e ce 7b ed be
       -0.08059168 0.05290705 0.4527381 -0.46383518
000070 89 06 d1 bc 5d 7f 56 be 5d 92 e8 be d3 a7 ef 3e
       -0.025515812 -0.20947023 -0.45424166 0.46807727
000080 1a ef a5 be c0 b0 6b be 1a da b2 be 76 c2 ef be
       -0.32408983 -0.23016644 -0.34932023 -0.4682805
000090 25 d6 cd bc 59 6d 90 3f cf a1 c6 be 55 35 9c 3e
       -0.025126526 1.128337 -0.38795325 0.3050944
0000a0 41 3d fe 3c 9c be 7e be 03 49 3d be e2 4f e4 be
       0.031035068 -0.24877399 -0.18484883 -0.44592196
0000b0 fd f2 46 bb d8 51 d2 be c6 f5 10 be ea 44 e5 3e
       -0.0030357235 -0.41078067 -0.14156255 0.4477914
0000c0 76 a6 db bc e9 f0 e0 bd e2 3f da 3c db ea 07 3f
       -0.026812773 -0.1098345 0.02664179 0.53092736
0000d0 7a b0 4c 3e 38 e1 93 3d 89 ac ab 3c ae 12 8c be
       0.19989195 0.072206914 0.020956295 -0.27358
0000e0 1e 3c c8 3d 15 dd c2 be bb 0c 1b bf b5 e6 72 be
       0.097770914 -0.38059297 -0.605663 -0.2372082
0000f0 75 b3 60 3e b4 52 44 3e a8 ff f5 bc 0b 84 04 3e
       0.21943457 0.19172174 -0.030029133 0.12940995

fc1.bias f4 [16]
000000 6e 89 8c 3e e7 08 3e 3d 40 64 9c 3c 00 44 ed 3d
       0.274486 0.04639521 0.019090772 0.115852356
000010 77 51 95 3e 6f be ec 3e 96 47 c5 be 73 65 fd bd
       0.29163715 0.4623904 -0.38531178 -0.123728655
000020 98 38 49 3e 05 06 c7 3e 68 a5 e7 3e fa 5a 27 3f
       0.19650495 0.3887178 0.45243382 0.65373194
000030 cf 47 27 3e 67 32 d6 be 88 93 81 3d ff 8d a9 be
       0.16335987 -0.4183533 0.063269675 -0.33116147

fc2.weight f4 [16, 16]
000000 8c 94 6e be 0f 34 89 3e f0 a6 42 3e fe 5d 7f be
       -0.23298854 0.2679753 0.19008994 -0.24938199
000010 ff 75 db 3d f6 e2 03 bc b8 82 28 bd 8c e2 a2 bd
       0.10715865 -0.008049717 -0.041140288 -0.07953367
000020 8c e4 c4 3d 4c c2 a9 bd b5 43 ab 3d 1c b8 24 3e
       0.09613904 -0.08289012 0.083625235 0.16085857
000030 ed 78 6a 3e 40 11 f4 3d 53 a0 81 be d2 5c fe bd
       0.22897692 0.11917353 -0.2531763 -0.12420048
000040 38 a6 ff 3d 49 55 bc 3d 96 b3 47 be e8 68 13 be
       0.124828756 0.09195954 -0.195021 -0.14395487
000050 f0 d7 6a 3e 4c 3d 26 3e b0 3e df bd 82 cd 6b bc
       0.22933936 0.1623432 -0.109006286 -0.014392259
000060 78 dd 73 be 75 49 39 3d 00 cb 43 be 69 0c f0 bd
       -0.23814952 0.04523607 -0.19120407 -0.11721117
000070 61 75 01 3d 91 7e 03 3d 2e 35 dc bd 97 c9 11 3e
       0.031606082 0.032103125 -0.10752331 0.14237057
000080 38 c9 1b be 3d d2 71 3e d0 6f 2f 3e 64 e1 57 be
       -0.15213478 0.23615356 0.17132497 -0.21082073
000090 37 de 08 3e c3 c4 c4 3c 18 67 15 3d f3 60 ae 3d
       0.13366018 0.024019605 0.03647527 0.08514585
0000a0 5c ec c8 3d 0a 33 80 3d 74 a4 81 3d 46 da e1 3d
       0.09810707 0.06259735 0.06330195 0.110279605
0000b0 ea 3f 5d be 02 95 12 bd 8c b2 29 be 52 1f 0f be
       -0.21606413 -0.035786636 -0.16572016 -0.13976792
0000c0 5c 1d b3 bd 17 02 85 be 00 d2 59 bd f8 e2 5a 3d
       -0.08745834 -0.25978157 -0.053178787 0.05343911
0000d0 7d dc 22 be 86 e2 0e bc 00 42 37 3e e4 8b 32 bd
       -0.15904422 -0.008721 0.17896271 -0.04359044
0000e0 80 ac e3 3b de 36 8c bc a8 13 52 3d c9 97 0b 3e
       0.006948054 -0.017116006 0.051288277 0.1363212
0000f0 37 1e 64 3e c8 00 26 3e a8 24 76 3e 3d 7a 67 bc
       0.22277151 0.16211236 0.24037421 -0.014128265
000100 66 f8 65 be 40 ba f2 bd ce 4f 2e 3e 00 6b d4 ba
       -0.22458038 -0.118519306 0.1702263 -0.0016206205
000110 dc 7c fe bd 02 2d 44 be 00 94 6f be ec 10 58 be
       -0.12426159 -0.19157794 -0.23396301 -0.21100205
000120 70 b4 4f bd 56 64 0c 3e 74 67 0a 3e 02 e5 76 be
       -0.050709188 0.1371015 0.13516027 -0.24110797
000130 2e b0 1f 3e 8a 52 48 be f0 7b 58 bd 1c 9a cf bd
       0.15594551 -0.19562736 -0.05285257 -0.10136816
000140 f0 3c 45 bd 61 39 67 bd ba b8 65 be 44 0a 5d be
       -0.048153818 -0.056451205 -0.22433749 -0.21585947
000150 97 99 3c bd 86 b2 80 bb b8 96 e8 bd 0d 17 b2 3c
       -0.046044912 -0.0039275317 -0.11356872 0.021739507
000160 3a 6a 66 be 75 c7 90 3c 4c bb 5c 3e 9b 6b 2f bd
       -0.2250146 0.017673234 0.21555823 -0.04282723
000170 6e c5 5d 3e b3 fb ab 3d b6 7c 6d be 95 c1 1a 3e
       0.21657345 0.08397617 -0.23192105 0.15112908
000180 f0 53 ec bc e9 b5 0b be 14 b6 4c 3e 54 df 4e be
       -0.028848618 -0.13643612 0.19991332 -0.2020238
000190 be f4 ad 3c b6 69 6e bd 16 d0 36 3e 4e bf 94 3d
       0.021234866 -0.058206283 0.17852816 0.07263051
0001a0 cc 04 f6 3d f3 0e 19 3f 79 8c 80 bd dd d0 a7 be
       0.12012634 0.59788436 -0.06276793 -0.32776538
0001b0 94 f3 11 be 95 6b 05 3e a2 44 46 3e 7b 4d 29 3e
       -0.14253074 0.1302932 0.19362119 0.16533463
0001c0 ac 93 34 be 52 65 22 3d 90 76 34 be 88 ec 0c be
       -0.17634457 0.039647408 -0.17623353 -0.13762105
0001d0 0b c5 1b be ca 46 a1 3d c4 8d 18 be b1 61 35 bb
       -0.15211885 0.0787483 -0.1489783 -0.0027676637
0001e0 a0 4f 2c 3c 7b e9 71 3e 56 4e 45 be 2f c4 05 be
       0.010517031 0.23624222 -0.19268164 -0.1306312
0001f0 ba 86 f4 bd d6 fa 2c 3e a7 e5 c3 bd e2 35 51 3e
       -0.119397596 0.16892561 -0.09565287 0.20430711
000200 a0 24 b9 3d ac a2 76 3e 00 ed f3 ba 08 6d 4a bd
       0.09040189 0.24085492 -0.001861006 -0.049420387
000210 84 e8 13 3d 3b 3b 55 bd 00 3e e6 ba 77 29 7f 3e
       0.036110416 -0.05205844 -0.0017566085 0.24918161
000220 98 3e 48 be af f5 c1 be 9d 6a 50 3e dc 31 f7 3d
       -0.19555128 -0.37882754 0.2035317 0.12070057
000230 cc 63 8d 3c 7c d1 80 3e 29 18 c1 3d c9 e3 43 3c
       0.0172595 0.25159824 0.09428436 0.011956164
000240 26 da 5d be c5 d1 9d 3d 08 58 36 be a8 56 91 bd
       -0.21665248 0.07706026 -0.17807019 -0.070966065
000250 36 f2 76 3c 8d b2 fb bd 80 36 33 3b 6b 03 35 3e
       0.015072396 -0.12289915 0.0027345717 0.17677085
000260 80 ab ff 3c 27 ff 3f 3e be 02 05 3e 75 09 5a be
       0.031209707 0.18749677 0.12989327 -0.2129267
000270 dd d5 96 3d 1e f6 ad 3d d8 29 00 be 41 45 17 bd
       0.0736501 0.08494209 -0.12515962 -0.03693128
000280 f0 0e a9 3d f2 0e 40 3e 28 d2 a4 bd 00 d4 d1 39
       0.08254802 0.18755701 -0.080478966 0.0004002154
000290 7a cb 03 3e 5a 93 77 be 42 15 39 3e 30 b1 53 be
       0.12870589 -0.24177304 0.18074515 -0.2067306
0002a0 00 d0 61 3b e0 18 2e bd 0a d4 06 be d8 57 07 3d
       0.0034456253 -0.04250419 -0.13166824 0.03304276
0002b0 f2 b0 53 3e e8 aa 95 bd 56 fc 17 be 84 5b bd bd
       0.20672968 -0.073079884 -0.14842352 -0.09245971
0002c0 e6 bb 7d be da b4 af 3d 20 e5 f5 bd d0 d6 2a be
       -0.24778709 0.085794166 -0.12006593 -0.16683507
0002d0 65 84 e3 bd b8 fd 41 3e 24 92 07 3e 6b d3 e0 3d
       -0.11109237 0.18944442 0.13239342 0.10977825
0002e0 d8 b6 b9 3d 32 9a 5e be 6c d8 bd bd 39 75 3a 3e
       0.09068078 -0.21738508 -0.09269795 0.1820878
0002f0 1b 38 6f 3e ee 02 bd 3d fb 02 ea bd ba 33 a0 bd
       0.23361246 0.092290744 -0.1142635 -0.07822366
000300 42 0a 72 be f8 5e 88 3e a8 a9 0f be 50 3e 64 be
       -0.23636726 0.26634955 -0.14029562 -0.22289395
000310 b0 36 58 3e 1b b9 2e be d0 fb e8 bc 03 9a 32 3e
       0.21114612 -0.170628 -0.028440386 0.17441563
000320 e0 7d 02 3c 47 6d b5 be b0 db 54 be da 3a cf 3e
       0.007964581 -0.35434934 -0.20786929 0.40474588
000330 c1 cc 78 3e e4 6a 4c 3e e6 1e bb bd ca 0f 86 3d
       0.24296857 0.1996265 -0.09136753 0.0654598
000340 18 2a 6a bd 8b c7 f4 3d 52 ea 1b be ac 28 ad 3d
       -0.05716905 0.11952122 -0.15226105 0.08455023
000350 1f be 90 3d ea 65 60 bc c0 4c 66 bd 02 e2 b0 bd
       0.07067513 -0.013696173 -0.05622554 -0.086368576
000360 14 09 31 3e d2 da 7a 3e e2 11 c4 3d 74 37 c7 be
       0.1728862 0.24497536 0.095737234 -0.38909495
000370 cb 0f 76 bb 6a 9d 16 3d 10 2d 0d be 8a 48 49 3d
       -0.0037546034 0.036771215 -0.13786721 0.049141444
000380 10 18 49 3d 4e 3c e4 3d 98 7e 2a 3d 64 13 da 3d
       0.049095213 0.11144315 0.041624635 0.1064823
000390 b6 a5 a4 3d f2 3a 4c bd 9a dd 51 be d6 05 be be
       0.08039419 -0.049860902 -0.2049469 -0.37113827
0003a0 50 d2 b1 3d 19 2e 03 3d 73 34 97 3d 87 ff 05 3f
       0.08682692 0.032026384 0.07383051 0.5234303
0003b0 85 b8 8c be c0 d3 87 bc 40 fe ab 3d 9c e2 83 3a
       -0.27484527 -0.016580462 0.08398104 0.0010062042
0003c0 90 12 ab 3c 82 a5 4c 3a fa 40 49 be e0 f2 a0 3c
       0.020882875 0.0007806645 -0.19653693 0.019647062
0003d0 a3 75 35 3e 6c 2b 6b 3e d8 76 16 3e 5c 49 dd 3c
       0.17720656 0.22965783 0.14693773 0.02701252
0003e0 7c 1c ef 3d 13 ec 22 be d2 32 53 be 19 b8 71 be
       0.11675355 -0.15910368 -0.20624855 -0.23605384
0003f0 37 e0 66 3e e0 35 26 3e 1b 96 2d be ca f7 d0 3d
       0.22546469 0.16231489 -0.16951792 0.10203512

fc2.bias f4 [16]
000000 d0 5a 6e 3e 4b 25 6d 3e d8 62 a1 3e b2 d2 57 3e
       0.2327683 0.23158757 0.31520724 0.21076468
000010 f0 c2 6a bd e8 3b d9 bd ba 72 3f 3e 62 b7 f9 3d
       -0.057314813 -0.10607129 0.18696108 0.121931806
000020 28 a1 07 be f8 3d 17 3e 90 60 f7 3d bf 79 95 3e
       -0.1324507 0.14769733 0.12078965 0.29194447
000030 4e 23 33 be c9 c5 64 3d c6 04 d2 bd a6 25 5a 3e
       -0.17493936 0.055852685 -0.10254817 0.21303424

fc3.weight f4 [16, 16]
000000 da 47 cb bd 42 6d 40 3e 92 41 ac 3b 07 65 ad 3e
       -0.09925814 0.18791679 0.00525684 0.3386614
000010 e0 fd ad bd a5 62 62 3e 54 65 64 bf df 94 53 3e
       -0.084956884 0.22107942 -0.89217114 0.20662259
000020 d0 02 a9 3d a8 83 e1 be 10 95 4d be 41 07 cf 3e
       0.082524896 -0.44045758 -0.20076394 0.40435222
000030 07 48 47 3d b0 2d 9a be a2 77 26 3f de a8 82 bc
       0.048652675 -0.30112982 0.65026295 -0.015949663
000040 6e c3 55 be db 2e 0e bd fa 9d 51 be f9 34 33 3e
       -0.20875332 -0.034712654 -0.2047042 0.17500676
000050 ba 89 41 be 96 7a ed bd 73 f8 71 be 87 37 0b be
       -0.18900195 -0.11595647 -0.23629932 -0.13595401
000060 17 43 56 3e 12 87 2a 3e 24 41 37 3e 7f b7 1b 3e
       0.2092403 0.16653088 0.17895943 0.15206717
000070 97 4e 69 3e 6c c2 6c bd d5 9a eb 3d 6a 1a 69 3e
       0.22783886 -0.057802603 0.11504141 0.22763982
000080 50 ba 12 3e 73 b2 79 3e 2c bb 65 3e 77 38 1d 3e
       0.14328885 0.24384479 0.22434682 0.15353571
000090 2c 32 b3 bd 26 97 e8 3d 13 36 bd 3c 20 4f 87 bd
       -0.08749804 0.11356954 0.023097074 -0.06606889
0000a0 bc 79 14 be f9 31 c0 bd b2 fc 44 be f0 14 60 3e
       -0.14499563 -0.093845315 -0.1923702 0.21882987
0000b0 7f ec 2f 3e 45 6d 0f bd ca b0 19 be 2a 69 40 3e
       0.1718006 -0.035016317 -0.15008846 0.18790117
0000c0 75 85 08 3e e6 a8 c1 3c e4 23 80 be 0f f9 6b 3e
       0.1333216 0.023640107 -0.25027382 0.23044227
0000d0 ac 60 d1 3d 63 c9 3c be e4 b1 79 3e bf e6 47 3e
       0.10223517 -0.18436198 0.24384266 0.19521616
0000e0 4e a9 b4 bd 24 1f 02 3a d6 74 11 be 0b b6 ae bd
       -0.08821355 0.0004963747 -0.14204726 -0.08530816
0000f0 1c 67 5e 3e 38 d9 82 3c ba 84 30 be aa 70 a2 bd
       0.2171902 0.015972719 -0.17238131 -0.07931645
000100 7d b4 ed bd 5c 15 2e bd 63 d1 da be 10 42 6e 3e
       -0.11606691 -0.04250084 -0.42737874 0.23267388
000110 20 4d 5b 3c b2 da 17 be 04 2c 94 3c 44 ec 00 3e
       0.013385087 -0.1482952 0.018087395 0.12590128
000120 6f c0 02 3e f2 84 a2 be b0 3c 37 bd 5f 67 90 be
       0.1276872 -0.31742054 -0.04473561 -0.28203866
000130 14 03 cf bd ca 48 c5 3d c6 94 30 be f6 7a c8 3d
       -0.10108009 0.09633024 -0.17244253 0.09789078
000140 86 49 59 3e 82 7c 1b 3c a1 86 28 be 20 71 b7 bd
       0.21219453 0.009490134 -0.16457607 -0.08957124
000150 d8 9a 5f 3d 3e af 49 be ca 6f f1 3d 99 57 6f be
       0.05459103 -0.19695756 0.117889 -0.2337326
000160 bc 6e 73 be c0 be 78 be 68 bb 4f bd a6 75 25 3e
       -0.2377271 -0.24291515 -0.050715834 0.1615816
000170 72 4c 72 be a3 91 4e 3e cc cf cc bd ff ca 87 3d
       -0.23661974 0.20172743 -0.100005716 0.06630515
000180 fe 21 15 3d fd 95 25 be 2d 86 62 3e d2 8a 67 3c
       0.03640937 -0.16170497 0.22121496 0.014132218
000190 80 76 7e 3e e8 ba 00 3e 58 64 47 3f 8d db 6a 3e
       0.24849892 0.12571299 0.7788749 0.22935314
0001a0 27 e9 21 bf 50 1f 11 3e ac 44 4d be c0 0a c5 bd
       -0.6324639 0.14172101 -0.20045727 -0.09621191
0001b0 bb ac bd be 9c cf 3b 3f cf d3 0b 3e 62 ba 2b be
       -0.37045845 0.7336366 0.13655017 -0.16770318
0001c0 d0 8a 25 3e f9 c9 02 3e 13 b7 26 3e f4 bd 2d be
       0.16166234 0.12772359 0.16280775 -0.16966993
0001d0 5a 7b 46 be c7 d1 ab bd 83 5a d4 3d 67 9a 75 3e
       -0.19382992 -0.08389621 0.10368826 0.23984681
0001e0 06 8c 0e 3e f3 84 5a 3d 00 84 b3 3d cb 15 34 be
       0.13920602 0.053349447 0.087654114 -0.17586438
0001f0 56 23 61 be be b9 e0 3d 4b f6 16 be d0 84 ea 3d
       -0.21986136 0.109729275 -0.14742391 0.11451113
000200 21 fa 40 be 2a 4f 05 be cf 7a a8 bd ae 4a 03 3e
       -0.18845417 -0.1301848 -0.08226549 0.12821457
000210 60 ae d0 bc 8f 34 3e 3e 84 5c 18 3e 5f dc 06 3e
       -0.025473773 0.18574737 0.14879042 0.13170002
000220 11 f5 6d 3b ae 1e 4e bd 68 a6 5e bd 1d 78 97 3d
       0.00363094 -0.050322227 -0.054357916 0.07395957
000230 a5 12 f1 3d 9f 54 3a be 18 03 51 3e 88 69 06 bd
       0.11771134 -0.18196343 0.20411336 -0.032815486
000240 e6 bd 18 be 17 5b 12 be e1 75 a2 3e ac 02 66 3e
       -0.1491619 -0.1429256 0.3173056 0.22461957
000250 aa 20 6d be 76 81 2c 3e 46 a8 f1 3d 7e 71 0f 3e
       -0.23156992 0.1684626 0.11799674 0.14008138
000260 2b 95 52 3e c5 82 b8 bd 5c ad a1 3d a2 99 1b 3e
       0.20564716 -0.09009317 0.07894394 0.15195325
000270 be ae a6 bd fe 0d 9b 3d fc 8e a1 bd 92 0b 17 3e
       -0.08138798 0.07571028 -0.078886 0.14750507
000280 88 0e 8e bd 14 df be bd 40 e5 80 3d 68 9a b5 3d
       -0.06936365 -0.093198925 0.06293726 0.08867341
000290 10 26 fa bd 30 0a b5 3c 74 5c 14 3e f0 c4 cb bc
       -0.12214291 0.022099584 0.14488393 -0.02487418
0002a0 a8 d1 9b 3d b8 f9 76 bd b0 74 b3 3d e6 71 39 be
       0.07608348 -0.060296744 0.08762491 -0.18109855
0002b0 0e 89 16 be 74 f1 01 be 4c 44 6b 3e 64 c5 89 bd
       -0.1470072 -0.12689763 0.22975272 -0.067271024
0002c0 00 f0 32 ba cc 0f f8 bd f0 8f 7f 3e 0e 07 7a 3e
       -0.0006825924 -0.12112388 0.24957252 0.24416754
0002d0 60 12 41 be 10 88 4f be d4 0b 42 be 00 08 9e ba
       -0.18854666 -0.20266747 -0.18949825 -0.0012056828
0002e0 c4 82 82 bd 4e 90 27 be e0 a3 b7 bd 18 77 41 3d
       -0.06372598 -0.16363642 -0.089668036 0.047232717
0002f0 f4 c1 05 be 88 e6 62 3d c8 d1 6a bd b0 18 f8 bd
       -0.13062268 0.055395633 -0.05732897 -0.12114084
000300 98 b5 04 3d 87 29 58 3e 62 52 b1 be 87 67 52 3c
       0.032399744 0.21109591 -0.34633166 0.012842066
000310 20 cf bc bd 26 9e 80 3e e4 b1 6d be d7 71 6f be
       -0.092191935 0.25120658 -0.23212391 -0.2338327
000320 c3 ca 7f 3e 57 5c 50 be 20 53 44 3d 8f a9 c6 bd
       0.24979691 -0.20347725 0.047930837 -0.097003095
000330 0b a1 41 bd f1 d0 4b bd e0 af 27 3e c0 c1 88 3c
       -0.047272723 -0.04975981 0.16375685 0.01669395
000340 e5 94 99 be ca 41 11 be 4c 32 30 be 04 55 02 3e
       -0.2999641 -0.14185253 -0.17206687 0.12727743
000350 8e aa 25 be 47 9a 77 3e aa 72 4e bd c7 27 1f bd
       -0.16178343 0.24179946 -0.05040232 -0.038856294
000360 0a 5d 4c 3e ad f0 b1 3d 6a 1e 59 3e 9d d5 ac 3d
       0.19957367 0.086884834 0.21203008 0.08439181
000370 ac da 8f bd 8e 6f 23 be 19 46 5d bc 85 f5 58 3e
       -0.0702413 -0.15960523 -0.013505482 0.21187408
000380 5c d6 ab bd 1e 68 6d be 24 e2 d1 3d 6c 35 79 3e
       -0.08390495 -0.23184249 0.10248211 0.24336785
000390 00 c2 91 bd 5a f9 53 be 10 35 68 be 90 4e 80 3d
       -0.07117081 -0.20700589 -0.22676492 0.062649846
0003a0 f0 12 9b bc d8 46 01 be a8 fb 4e 3d c0 6f c2 3d
       -0.018929929 -0.12624681 0.050532967 0.09493971
0003b0 06 9a 4b 3e fc c0 46 3e b0 46 19 bd 7e bb 61 be
       0.19882974 0.19409555 -0.03742093 -0.22044179
0003c0 f3 b5 29 be 65 a6 68 3e 32 66 51 3e 2a ec da 3d
       -0.16573314 0.22719724 0.2044914 0.10689576
0003d0 20 7f 5d be b9 5f 66 3e f1 96 6c 3e 0e 78 60 3e
       -0.21630526 0.22497453 0.23104455 0.21920797
0003e0 af 50 5c be af 30 46 bd 4a 11 30 be 7a 1c 93 3e
       -0.21515153 -0.048386272 -0.17194095 0.28732663
0003f0 91 75 e8 bd 3f 7a f7 bd 58 68 00 3e 67 17 f8 bd
       -0.11350549 -0.120838635 0.12539804 -0.12113839

fc3.bias f4 [16]
000000 b5 d7 66 3e a5 c5 73 bb f8 bc 2d bd 37 f9 34 be
       0.22543223 -0.0037196663 -0.042416543 -0.17673193
000010 c0 03 68 3e 4e ae ee bd 75 b2 ad 3d 22 e0 4b 3e
       0.2265768 -0.1165434 0.084813036 0.19909719
000020 68 98 dc 3d ad 4c 87 3c c4 d1 59 3e 08 a7 09 3d
       0.10771257 0.016516054 0.21271425 0.03360656
000030 76 03 c8 bd 3c 5e 82 3e 60 5c 72 3d 53 37 86 be
       -0.09766285 0.2546252 0.059170127 -0.26214084

fc4.weight f4 [1, 16]
000000 d5 a5 f4 be 7a ca 30 be 39 2b 5a 3e df 00 3c bd
       -0.4778277 -0.17264739 0.2130555 -0.04589927
000010 91 1a 6b be 3c ff c1 bb 1b 90 f9 3e 9e 5a 70 3d
       -0.22959353 -0.005920319 0.48742756 0.05868017
000020 91 6c 95 3d 19 b5 95 3c 18 e2 be 3d e8 7f 79 bd
       0.07296098 0.01827483 0.09320468 -0.060912997
000030 4a e0 d0 bd 09 cc 70 be b0 da 40 be 08 e2 ce 3d
       -0.1019903 -0.23515333 -0.18833423 0.10101706
