pth_models/best_model.pth (torch, 6287 bytes, 7 tensors)

fc1.weight f4 [20, 4]
-0.037883267 0.22489096 -0.38529694 -0.40660265 -0.17179199 0.1574353 -0.028454518 0.41843733
-0.07845639 0.09314533 -0.064857535 -0.13175221 -0.77287906 -0.42662746 1.0551267 0.1612244
0.17473525 0.27318355 -0.3244404 -0.2428944 0.20070517 0.43680418 -0.113689594 0.3938316
-0.10646988 0.027951026 0.47080073 -0.48698977 -0.29031825 -0.100315616 -0.21717113 0.45750576
-0.3061615 -0.20636977 -0.3553152 -0.44032156 -0.3008627 0.43624303 0.26111662 0.24240297
0.006411764 -0.27936083 0.091059044 -0.49405223 -0.3945065 -0.2672994 0.4012888 0.273892
-0.24653904 -0.037251048 0.33912605 0.4733864 0.22510004 0.096017525 0.27871895 -0.26826563
0.27561674 -0.26007336 -0.5768422 -0.105428174 0.20094138 0.17565766 -0.26497462 0.1267618
0.3002538 -0.038388707 -0.20965123 0.138214 0.28281033 0.44671568 -0.37138146 -0.21370341
0.21470667 0.43712035 0.42922527 0.46623784 0.21261534 -0.3615391 -0.04985657 -0.2090313
00000000: 7c2b 1bbd d149 663e a445 c5be 392e d0be
00000010: 3dea 2fbe b836 213e 7319 e9bc 6b3d d63e
00000020: bead a0bd fbc2 be3d 07d4 84bd 0dea 06be
00000030: 67db 45bf ea6e dabe 640e 873f 0218 253e
00000040: cced 323e b7de 8b3e 0d1d a6be 4fb9 78be
00000050: a885 4d3e cca4 df3e 17d6 e8bd 4ca4 c93e
00000060: e10c dabd 8df9 e43c cb0c f13e b956 f9be
00000070: 98a4 94be 4672 cdbd 1c62 5ebe 323e ea3e
00000080: 33c1 9cbe 9952 53be e0eb b5be d471 e1be
00000090: ad0a 9abe 3f5b df3e 14b1 853e 7c38 783e
000000a0: c619 d23b 6208 8fbe 2a7d ba3d 6af4 fcbe
000000b0: c2fc c9be 78db 88be ba75 cd3e 923b 8c3e
000000c0: bb74 7cbe 8e94 18bd eea1 ad3e b45f f23e
000000d0: a080 663e d6a4 c43d 40b4 8e3e 1d5a 89be
000000e0: a31d 8d3e 5628 85be eeab 13bf baea d7bd
000000f0: 94c3 4d3e 9adf 333e c1aa 87be d8cd 013e
00000100: deba 993e 7a3d 1dbd d0ae 56be f987 0d3e
00000110: 84cc 903e ebb7 e43e b625 bebe 11d5 5abe
00000120: 11dc 5b3e 3dce df3e 6ac3 db3e bab6 ee3e
00000130: d6b7 593e a71b b9be 6736 4cbd 4d0c 56be

fc1.bias f4 [20]
-0.50460345 0.4657615 0.34580356 -0.4003847 0.06829967 -0.06866871 -0.10262565 -0.20391998
0.2056847 -0.29534262 0.16850309 0.23429765 0.33865732 0.21342973 -0.35462198 -0.34889108
0.27257898 0.07390498 -0.37512213 -0.20541091
00000000: b12d 01bf 4b78 ee3e 2a0d b13e 39ff ccbe
00000010: b3e0 8b3d 2ea2 8cbd 662d d2bd 66d0 50be
00000020: 039f 523e 2637 97be 138c 2c3e b9eb 6f3e
00000030: 7e64 ad3e 538d 5a3e 0391 b5be daa1 b2be
00000040: 798f 8b3e 7f5b 973d 0210 c0be 3d57 52be

fc2.weight f4 [20, 20]
0.18657795 0.17445034 -0.120903656 -0.085468456 -0.23670967 0.019760689 -0.19216917 -0.14870061
-0.036100492 0.05735685 -0.115353234 0.15644757 -0.112294056 0.1791311 0.12945218 -0.16471075
-0.03185223 -0.010245494 0.05640432 0.029253628 0.11034064 -0.009197108 -0.087484516 0.13793735
-0.19208126 -0.15512453 -0.033384226 -0.1315131 -0.055633895 -0.205868 -0.024973335 0.025231583
-0.16826348 0.011098085 0.18266714 -0.0456911 -0.016396811 -0.0027641966 0.022662636 0.1647698
0.192728 0.16108498 0.190028 -0.02171893 -0.22041424 -0.08692487 0.13317287 0.017632762
-0.13022505 -0.15227681 -0.22834502 -0.16963972 -0.026273698 0.10351517 0.10182241 -0.19677882
0.15859033 -0.20799853 -0.028190797 -0.10974756 -0.040273916 -0.046698723 -0.19341105 -0.23686175
-0.031418867 9.655355e-05 -0.098783754 0.081436835 -0.19846404 -0.017874777 0.19943929 -0.09407979
0.19912247 0.08382137 -0.19902545 0.13909769 -0.028558226 -0.07680903 0.17601278 -0.17790203
0.0016622131 -0.024484377 0.13695872 0.0392282 0.085071936 0.10130061 -0.076103635 -0.024693822
-0.2066023 0.1434935 0.1552068 0.17531718 -0.13539527 -0.012352297 -0.17996155 -0.10074379
-0.107942544 0.054058474 -0.11091837 -0.02721047 0.032630138 0.12091869 -0.14543036 -0.12743771
-0.10658986 0.13328646 -0.05715539 0.16538636 0.10408132 0.00508954 0.021558799 -0.06740781
0.004831765 -0.02784313 0.021653749 0.005282605 -0.1981584 -0.09441875 0.15733746 -0.15824386
-0.04017295 0.24531725 0.056969035 -0.022925286 -0.21783146 0.1348866 -0.18338758 -0.0393573
-0.0991404 -0.008992908 -0.021670816 0.20853528 0.0520315 0.17618288 0.11266065 -0.117180884
0.124425575 -0.1789582 -0.07065351 0.041650765 0.097535074 0.14405409 -0.048503652 0.028913466
0.1387646 -0.23995039 0.1853654 -0.20860742 0.026783852 -0.061722096 -0.09406566 0.0058685495
0.16120264 -0.041677203 -0.1090473 -0.106463216 -0.24535109 0.121760204 -0.13109228 -0.12551953
-0.1528943 0.15263832 0.09431219 0.14458889 0.057056066 -0.050601494 -0.08656061 0.09013428
0.1597383 0.08487385 -0.12987274 -0.08105553 -0.18733907 0.02424861 -0.14956209 -0.17523952
0.22017343 -0.1673699 -0.0013636777 0.039987482 0.025103562 -0.16844071 -0.16080415 0.1931653
0.054667987 0.1675299 -0.056982595 0.047884904 -0.033154085 -0.027918523 -0.118207075 0.05764939
0.05271736 0.013391448 -0.0323197 -0.15569338 0.13662533 -0.14001611 0.073624626 -0.05720966
-0.1318669 0.06415345 -0.13962454 0.021435302 0.02002998 -0.14204174 0.013246567 0.119224146
0.0645269 -0.0041599767 -0.20729402 -0.01050361 0.10164396 -0.10555549 0.06088728 0.17298104
-0.092753254 -0.017712466 0.11644479 -0.006458186 -0.0042603808 0.050859507 -0.19809113 -0.012417233
0.132028 0.22443387 0.108486354 0.05290266 0.08148879 -0.085837975 -0.20823905 -0.169367
0.24601103 0.11902014 -0.17750895 0.11051398 0.19181986 0.20518419 0.21845935 0.15030111
-0.028435044 -0.101302005 0.20574711 0.15583068 -0.111858405 0.17819707 0.13086687 0.09906701
-0.117322415 0.04131975 -0.055559013 0.15190566 -0.063064985 0.10986415 0.06255306 0.07221325
00000000: 4a0e 3f3e 1ca3 323e 569c f7bd 160a afbd
00000010: 0564 72be 2be1 a13c ffc7 44be f944 18be
00000020: 1cde 13bd 04ef 6a3d 513e ecbd cb33 203e
00000030: 6dfa e5bd 256e 373e 1d8f 043e efa9 28be
00000040: 7c77 02bd b7dc 27bc 3708 673d 4ea5 ef3c
00000050: 46fa e13d 78af 16bc 152b b3bd 733f 0d3e
00000060: f3b0 44be f7d8 1ebe e6bd 08bd 5fab 06be
00000070: 5ee0 63bd 10cf 52be e194 ccbc 77b2 ce3c
00000080: 434d 2cbe bed4 353c 180d 3b3e 9726 3bbd
00000090: 9b52 86bc 8627 35bb fea6 b93c 6ab9 283e
000000a0: 7d5a 453e 76f3 243e b396 423e e6eb b1bc
000000b0: 45b4 61be ab05 b2bd 785e 083e 9572 903c
000000c0: b759 05be 74ee 1bbe 47d3 69be 09b6 2dbe
000000d0: f03b d7bc c3ff d33d 4588 d03d 6380 49be
000000e0: 8165 223e 91fd 54be 63f0 e6bc 54c3 e0bd
000000f0: 43f6 24bd 2947 3fbd 8c0d 46be e38b 72be
00000100: 12b1 00bd cb7c ca38 234f cabd 5bc8 a63d
00000110: 283a 4bbe 206e 92bc d039 4c3e e8ac c0bd
00000120: c3e6 4b3e 8aaa ab3d 54cd 4bbe a06f 0e3e
00000130: f1f2 e9bc 0d4e 9dbd b23c 343e f32b 36be
00000140: 9ede d93a 7693 c8bc e83e 0c3e c0ad 203d
00000150: 323a ae3d b276 cf3d 39dc 9bbd b34a cabc
00000160: 8e8f 53be f6ef 123e 88ee 1e3e 5986 333e
00000170: 0fa5 0abe 4a61 4abc d747 38be c352 cebd
00000180: fb10 ddbd 6b6c 5d3d 2c29 e3bd 7ee8 debc
00000190: 2ea7 053d 38a4 f73d b2eb 14be 087f 02be
000001a0: c94b dabd 3f7c 083e c51b 6abd 0b5b 293e
000001b0: 9628 d53d 28c6 a63b 149c b03c 1b0d 8abd
000001c0: c853 9e3b 4717 e4bc 3463 b13c b419 ad3b
000001d0: 09ea 4abe 9e5e c1bd 121d 213e ae0a 22be
000001e0: 648c 24bd 7234 7b3e 5d58 693d cfcd bbbc
000001f0: 360f 5fbe b61f 0a3e f4c9 3bbe 1f35 21bd
00000200: 1f0a cbbd fd56 13bc ff86 b1bc 468a 553e
00000210: fb1e 553d 4969 343e a0ba e63d 88fc efbd
00000220: d6d2 fe3d d240 37be cab2 90bd fe99 2a3d
00000230: 78c0 c73d ea82 133e c4ab 46bd efdb ec3c
00000240: 4f18 0e3e 8eb5 75be 6dd0 3d3e 2f9d 55be
00000250: cf69 db3c 4fd0 7cbd 7fa5 c0bd f64c c03b
00000260: 4e12 253e b7b5 2abd 3154 dfbd 6309 dabd
00000270: 513d 7bbe 6a5d f93d 0e3d 06be 3188 00be
00000280: 5390 1cbe 384d 1c3e c026 c13d 1c0f 143e
00000290: 9fb3 693d 8343 4fbd b046 b1bd 5298 b83d
000002a0: 7092 233e 57d2 ad3d 5cfd 04be 7100 a6bd
000002b0: d0d5 3fbe 05a5 c63c ce26 19be fd71 33be
000002c0: 2575 613e 0463 2bbe 6ebd b2ba eac9 233d
000002d0: fca5 cd3c b97b 2cbe d8a9 24be 20cd 453e
000002e0: 8aeb 5f3d f58c 2b3e 9566 69bd f622 443d
000002f0: 94cc 07bd 63b5 e4bc 8d16 f2bd c421 6c3d
00000300: 29ee 573d ce67 5b3c a961 04bd 166e 1fbe
00000310: 83e7 0b3e 6260 0fbe 82c8 963d ad54 6abd
00000320: 1e08 07be e262 833d bcf9 0ebe 1699 af3c
00000330: ea15 a43c 6473 11be 2108 593c ca2b f43d
00000340: ae26 843d 6a50 88bb e244 54be 5517 2cbc
00000350: b52a d03d 7a2d d8bd f164 793d f121 313e
00000360: 6bf5 bdbd bc19 91bc 9b7a ee3d 319f d3bb
00000370: aa9a 8bbb 0f52 503d 67d8 4abe a671 4bbc
00000380: 5932 073e fed1 653e 182e de3d 76b0 583d
00000390: 98e3 a63d d2cb afbd 9e3c 55be 8b6e 2dbe
000003a0: 51ea 7b3e d5c0 f33d e8c4 35be 2755 e23d
000003b0: 6d6c 443e ce1b 523e cfb3 5f3e 89e8 193e
000003c0: 9cf0 e8bc 6d77 cfbd 5faf 523e 1492 1f3e
000003d0: 0516 e5bd 4b79 363e f701 063e a5e3 ca3d
000003e0: bc46 f0bd e63e 293d d991 63bd 288d 1b3e
000003f0: 3728 81bd 7500 e13d d21b 803d 8ae4 933d

fc2.bias f4 [20]
-0.18334235 0.1351182 0.13114472 0.12956186 0.21162179 -0.14373635 0.09472628 0.06780533
-0.04200015 0.056851234 -0.040351067 0.16118614 -0.08486981 -0.05663518 0.03468779 0.057145342
-0.12813146 0.044610895 0.10547711 0.0026685698
00000000: 19be 3bbe 6d5c 0a3e cd4a 063e ddab 043e
00000010: 62b3 583e 9f2f 13be daff c13d 85dd 8a3d
00000020: 5908 2cbd d7dc 683d 2947 25bd fb0d 253e
00000030: 39d0 adbd 4afa 67bd c914 0e3d 3c11 6a3d
00000040: e534 03be eab9 363d 6204 d83d 2ce3 2e3b

fc3.weight f4 [20, 20]
0.047368206 -0.07898062 0.05654043 -0.13903466 -0.15180597 -0.09008215 0.22831292 -0.08320974
-0.028107096 -0.08840777 0.24568984 0.24211992 -0.17998402 -0.16179194 -0.19838788 -0.031242
-0.043987207 -0.123924226 -0.09987897 0.06283235 -0.09661332 0.07495146 -0.030146051 -0.13162667
0.048436914 0.16071194 -0.17536281 0.035179697 -0.059672106 0.1980795 -0.23704843 -0.23895983
0.23379092 -0.16574465 0.07129831 0.009821299 -0.06330914 -0.07380048 0.16596065 -0.013562995
-0.1969011 -0.10650524 -0.054478098 0.089110754 -0.12575135 0.18727921 -0.073564865 -0.016007021
0.20063213 0.091470845 0.16575652 0.104867026 -0.055679183 -0.17046316 0.011740672 0.21484832
-0.08967401 -0.23083581 0.11364493 0.19510747 -0.085524924 -0.21195333 -0.22574474 0.08072868
-0.03589685 -0.08813371 0.07013084 0.05962926 0.15083875 0.19551115 -0.0084405 -0.17135833
-0.21537152 0.2322328 0.0700233 0.066553295 -0.17902973 0.2318077 0.1887292 0.22548659
-0.16722097 -0.05824464 -0.13127898 0.18765186 -0.07651777 -0.12638229 0.092852004 -0.07881634
-0.08350538 -0.041006427 -0.04578414 -0.19924995 0.19939306 -0.12090637 0.108078524 0.22489561
0.09804961 0.007653457 0.21247056 0.0072050323 -0.08169091 0.23766227 0.07612514 -0.24221505
-0.04241792 -0.17690757 0.1724627 -0.013208391 -0.17358072 -0.03461019 0.117399186 0.0333672
0.08318857 0.0008790602 0.11300333 -0.023085497 -0.1011687 -0.23228078 -0.14852588 0.07605629
-0.11100464 0.058193468 0.093830556 -0.00817851 -0.12557404 0.18962014 -0.15418331 0.20839262
-0.15093018 -0.07499052 0.097506754 -0.116386935 0.20043115 -0.17601433 -0.15902425 -0.07029611
0.022084018 0.18198447 -0.08478813 0.057384394 -0.035577442 -0.023004523 0.18597685 -0.19663933
0.042375635 0.18686453 -0.054601815 0.19795676 -0.044301063 0.15898897 -0.2404845 -0.05671459
-0.02634057 0.04985744 0.1166746 0.20147148 -0.048483983 -0.032403946 0.17557192 -0.0835324
0.17497763 -0.17505994 -0.046385814 0.011978702 0.080902115 0.17695946 -0.011080294 -0.21003577
0.08492498 0.08821968 0.11436858 -0.11281801 0.13059512 0.23461252 -0.009934357 -0.23947945
0.17160468 -0.14172986 0.028805323 0.055682715 -0.08356364 0.10356074 -0.17796202 0.027240142
-0.122608125 -0.048015144 0.0047403127 0.21488346 -0.08106847 0.12200188 -0.052534074 -0.13091321
-0.18232825 -0.22752538 0.24655369 -0.025984561 -0.0038349677 0.036882896 0.17426345 0.16799958
0.20217237 -0.14011346 -0.014021446 -0.1557538 -0.108842 0.029455021 0.18612261 -0.15498264
0.16089746 -0.13681124 -0.06745126 0.15296233 -0.03839693 -0.001776507 -0.12784228 0.22022352
-0.043364946 -0.18703526 0.087415196 -0.18151717 -0.15593255 0.039586402 0.19998397 -0.08715155
0.12561192 0.16786817 0.12462097 -0.093392625 0.0040699537 -0.09107409 -0.20316549 -0.024607908
0.18050411 0.16769218 0.049938373 0.08163784 -0.10979689 0.14538758 -0.07237346 -0.17679487
0.054526765 0.15940604 -0.18067609 0.17894 0.09780133 -0.17968245 -0.07235772 0.21884371
-0.14910425 -0.08661142 0.04833412 -0.22049144 0.13584293 0.09180224 0.1670802 -0.11348779
00000000: 2a05 423d 97c0 a1bd f096 673d 1a5f 0ebe
00000010: 0673 1bbe fe7c b8bd ddca 693e de69 aabd
00000020: da40 e6bc 220f b5bd 1e96 7b3e 49ee 773e
00000030: bb4d 38be c9ac 25be 3126 4bbe 39ef ffbc
00000040: ee2b 34bd fccb fdbd 588d ccbd 3fae 803d
00000050: 34dd c5bd 2780 993d daf4 f6bc 24c9 06be
00000060: c965 463d ac91 243e 4f92 33be 9618 103d
00000070: bd6a 74bd 5ad5 4a3e d3bc 72be e3b1 74be
00000080: e366 6f3e f7b8 29be d904 923d 84e9 203c
00000090: 39a8 81bd b524 97bd 97f1 293e 5337 5ebc
000000a0: 71a0 49be 6b1f dabd 6d24 5fbd b37f b63d
000000b0: f6c4 00be 1fc6 3f3e 2da9 96bd 2821 83bc
000000c0: 8272 4d3e 1155 bb3d 14bc 293e 86c4 d63d
000000d0: db0f 64bd e58d 2ebe f35b 403c 3301 5c3e
000000e0: 02a7 b7bd 3960 6cbe acbe e83d 41ca 473e
000000f0: b127 afbd 4b0a 59be a129 67be 1455 a53d
00000100: 9308 13bd 727f b4bd c2a0 8f3d d03d 743d
00000110: 7975 1a3e 1334 483e 064a 0abc 8f78 2fbe
00000120: 5a8a 5cbe 6fce 6d3e 6068 8f3d 184d 883d
00000130: 9253 37be ff5e 6d3e 3a42 413e f5e5 663e
00000140: f93b 2bbe ee91 6ebd ff6d 06be cf27 403e
00000150: 59b5 9cbd 5c6a 01be 3129 be3d 766a a1bd
00000160: de04 abbd 5bf6 27bd 2688 3bbd 2e08 4cbe
00000170: b22d 4c3e c29d f7bd 4658 dd3d 094b 663e
00000180: 3cce c83d dac9 fa3b e291 593e 3118 ec3b
00000190: 904d a7bd bd5d 733e 7fe7 9b3d 3907 78be
000001a0: 6abe 2dbd 4227 35be 109a 303e 0268 58bc
000001b0: 25bf 31be 6ac3 0dbd fc6e f03d 0cac 083d
000001c0: c55e aa3d bb70 663a 4a6e e73d cc1d bdbc
000001d0: 8931 cfbd 03db 6dbe 2b17 18be 66c3 9b3d
000001e0: 6756 e3bd 465c 6e3d 3c2a c03d 28ff 05bc
000001f0: 7b96 00be c82b 423e 3be2 1dbe e064 553e
00000200: 718d 1abe a194 99bd 9fb1 c73d 465c eebd
00000210: d33d 4d3e 1a3d 34be 41d7 22be 68f7 8fbd
00000220: 8be9 b43c 235a 3a3e 66a5 adbd e60b 6b3d
00000230: a7b9 11bd fb73 bcbc b770 3e3e d25b 49be
00000240: 1392 2d3d 6a59 3f3e 27a6 5fbd 2db5 4a3e
00000250: 0875 35bd 01ce 223e 9241 76be 8f4d 68bd
00000260: 2ec8 d7bc 5137 4c3d 18f3 ee3d 8a4e 4e3e
00000270: 2497 46bd 00ba 04bd 20c9 333e 0913 abbd
00000280: 562d 333e ea42 33be 0dff 3dbd 5142 443c
00000290: 02b0 a53d dc34 353e 1f8a 35bc 9e13 57be
000002a0: 26ed ad3d 85ac b43d 133a ea3d 210d e7bd
000002b0: baba 053e 443e 703e b7c3 22bc 1a3a 75be
000002c0: 23b9 2f3e a221 11be 24f9 eb3c 8f13 643d
000002d0: 6a23 abbd a717 d43d ad3b 36be b826 df3c
000002e0: f819 fbbd 87ab 44bd a054 9b3b 690a 5c3e
000002f0: 3a07 a6bd 1fdc f93d f82d 57bd 1d0e 06be
00000300: 42b4 3abe 6afc 68be 9278 7c3e 93dd d4bc
00000310: 1554 7bbb 8512 173d 1e72 323e 1508 2c3e
00000320: 4606 4f3e e779 0fbe 35ba 65bc ed7d 1fbe
00000330: 8ee8 debd a84b f13c ed96 3e3e c5b3 1ebe
00000340: 4ec2 243e 3f18 0cbe e323 8abd 28a2 1c3e
00000350: 1946 1dbd afd9 e8ba 16e9 02be 4682 613e
00000360: 719f 31bd 2c86 3fbe bd06 b33d a3df 39be
00000370: c8ac 1fbe 5a25 223d 99c8 4c3e 837c b2bd
00000380: 69a0 003e a2e5 2b3e 4739 ff3d a244 bfbd
00000390: 3f5d 853b 0d85 babd 9d0a 50be 8696 c9bc
000003a0: 12d6 383e 80b7 2b3e 2e8c 4c3d bd31 a73d
000003b0: 31dd e0bd 7be0 143e 8938 94bd b709 35be
000003c0: 7557 5f3d 563b 233e 2703 39be 0c3c 373e
000003d0: 104c c83d adfe 37be 4930 94bd 9118 603e
000003e0: c9ae 18be 5461 b1bd 00fa 453d 82c8 61be
000003f0: 691a 0b3e d002 bc3d 1217 2b3e 496c e8bd

fc3.bias f4 [20]
0.1317491 -0.24646275 -0.2295938 0.16162035 0.119140334 -0.22604224 0.06107348 -0.1977684
0.1931205 0.04665241 0.19784158 -0.2440958 -0.23833081 0.12776883 0.2221571 0.16034241
0.17226413 -0.21175209 0.18497945 -0.19311132
00000000: 3ce9 063e bb60 7cbe a31a 6bbe ce7f 253e
00000010: d9ff f33d 9e77 67be 2f28 7a3d cd83 4abe
00000020: 61c1 453e 9916 3f3d fc96 4a3e 40f4 79be
00000030: fe0c 74be d5d5 023e 277d 633e cd30 243e
00000040: 0266 303e 8ad5 58be 416b 3d3e f9be 45be

fc4.weight f4 [1, 20]
0.06167945 -0.17141093 -0.06820696 0.06253029 -0.0677611 -0.058987804 -0.18729022 -0.23559266
0.11035599 -0.076655656 -0.10753734 -0.111371435 -0.20736435 -0.15724204 0.15747987 0.116805196
0.05485474 -0.14687929 0.09807992 -0.012528182
00000000: 97a3 7c3d 5986 2fbe 17b0 8bbd e10f 803d
00000010: 55c6 8abd 329d 71bd 02c9 3fbe 343f 71be
00000020: 5202 e23d a4fd 9cbd 893c dcbd b516 e4bd
00000030: 5257 54be 0f04 21be 6742 213e 9037 ef3d
00000040: 5daf 603d 8667 16be 20de c83d 0143 4dbc
