pth_models/best_model.pth (torch, 4815 bytes, 7 tensors)

fc1.weight f4 [16, 4]
000000 00 54 75 bb 5e 54 89 3e 16 b3 d2 be 80 66 bc be
       -0.00374341 0.2682218 -0.41152257 -0.3679695
000010 f4 32 45 be ec 4b 09 3e 40 4f 22 bc ce fa ca 3e
       -0.19257718 0.13407868 -0.00990659 0.39644474
000020 70 bf 35 bd 4c 7b 07 3e ac bb 1a be 70 48 c9 bd
       -0.044372022 0.13230628 -0.15110654 -0.098282695
000030 b8 91 f4 be 52 8b a9 be e8 0e 53 be 00 bb 97 3c
       -0.47767425 -0.33114105 -0.20611155 0.018521786
000040 0e 9d 45 3e 3d 36 97 3e 85 28 ab be 43 bf 63 be
       0.19298193 0.29533568 -0.3342935 -0.2224093
000050 d3 7b 35 3e 60 57 d2 3e f9 c8 c9 bd 39 54 bd 3e
       0.17723016 0.41082287 -0.098527856 0.3697832
000060 40 0d a5 bd 10 b5 58 3d 4a cd e7 3e ce 7b ed be
       -0.08059168 0.05290705 0.4527381 -0.46383518
000070 66 29 a1 be e0 9e 01 be dc 93 47 be 28 2f dd 3e
       -0.31476897 -0.12658262 -0.19489998 0.4320004
000080 1a ef a5 be c0 b0 6b be 1a da b2 be 76 c2 ef be
       -0.32408983 -0.23016644 -0.34932023 -0.4682805
000090 04 70 95 be 9e 0e dc 3e bc 76 64 3e 00 27 78 3e
       -0.29187024 0.42979902 0.22310919 0.24233627
0000a0 11 8e 00 3d ec a5 80 be 6d d8 a2 3d e2 6c ec be
       0.031385485 -0.25126588 0.07951436 -0.4617682
0000b0 1a fa b8 be c6 f9 83 be 26 85 a1 3e 26 19 96 3e
       -0.36128312 -0.257765 0.31546897 0.29316062
0000c0 c8 11 63 be 20 cb 93 bc 40 ba a3 3e 82 7f fe 3e
       -0.22174752 -0.018041193 0.31978035 0.49706656
0000d0 f9 ef 50 3e ca c3 95 3d 21 c9 a8 3e ba df 93 be
       0.20404042 0.073127344 0.3296595 -0.28881627
0000e0 eb 5c c9 3d 4d d9 c3 be 78 0f b4 be 4d 9d 81 be
       0.09832176 -0.38251725 -0.35168052 -0.25315323
0000f0 a0 b5 62 3e 0d f6 48 3e 40 2b 95 be 37 bb 15 3e
       0.22139597 0.19625111 -0.2913456 0.14622198

fc1.bias f4 [16]
000000 6e 89 8c 3e 20 3f 81 bd 40 64 9c 3c 00 44 ed 3d
       0.274486 -0.06310868 0.019090772 0.115852356
000010 f9 6b 9c 3e 36 92 f3 3e 96 47 c5 be ec a1 3b be
       0.30551127 0.47572488 -0.38531178 -0.18323487
000020 98 38 49 3e d0 1b d4 3e 75 5f e1 3e 22 e2 e1 3e
       0.19650495 0.4142747 0.4401814 0.44117838
000030 78 ca cb 3d 1b c1 db be af 71 51 3d d6 a0 a2 be
       0.09950727 -0.42920765 0.051133808 -0.31763333

fc2.weight f4 [16, 16]
000000 8c 94 6e be 3e 74 63 3e f0 a6 42 3e fe 5d 7f be
       -0.23298854 0.22212312 0.19008994 -0.24938199
000010 08 aa 3f 3d c8 80 2c bd b8 82 28 bd 1c 5f ea bd
       0.046793014 -0.042115003 -0.041140288 -0.11443922
000020 8c e4 c4 3d 34 a1 17 be dc b1 bb 3d 16 76 01 3e
       0.09613904 -0.14807588 0.09164783 0.12642702
000030 5c 43 37 3e 48 71 bf 3d 4a 5f 7d be 00 11 26 be
       0.1789679 0.093477786 -0.24743381 -0.16217422
000040 38 a6 ff 3d 18 53 56 3d 96 b3 47 be e8 68 13 be
       0.124828756 0.052325338 -0.195021 -0.14395487
000050 9b c1 6b 3e 41 6c 27 3e b0 3e df bd d4 dc 80 bd
       0.23023073 0.1634989 -0.109006286 -0.062921196
000060 78 dd 73 be 80 3e 93 bb f6 10 46 be a2 77 45 be
       -0.23814952 -0.0044935346 -0.19342408 -0.19283918
000070 20 b0 61 bc 6f 3e 05 3d 39 fc db bd 91 d3 12 3e
       -0.013774902 0.032530244 -0.10741467 0.14338519
000080 38 c9 1b be 68 49 68 3e d0 6f 2f 3e 64 e1 57 be
       -0.15213478 0.22684252 0.17132497 -0.21082073
000090 88 db 7e bd 80 d2 38 3c 18 67 15 3d d0 dd 72 3d
       -0.06222108 0.011280656 0.03647527 0.059293568
0000a0 5c ec c8 3d e0 59 75 3c cc d1 f9 bd d4 45 f2 3d
       0.09810707 0.014975041 -0.12198219 0.11829725
0000b0 56 91 75 be a0 bb 17 be 3c 2b 80 bd ec 66 f9 bd
       -0.23981223 -0.14817667 -0.06258246 -0.12177834
0000c0 5c 1d b3 bd ba d2 51 be 00 d2 59 bd f8 e2 5a 3d
       -0.08745834 -0.20490542 -0.053178787 0.05343911
0000d0 db 73 21 be 06 1e fa bb 00 42 37 3e f0 88 d2 bc
       -0.15766852 -0.0076329736 0.17896271 -0.025700063
0000e0 80 ac e3 3b c0 ad b0 bc 07 66 65 3d 60 c6 22 3e
       0.006948054 -0.021567225 0.056005504 0.15895987
0000f0 ba 7e 72 3e 3e f3 27 3e 2b 74 78 3e 77 05 53 bc
       0.23681155 0.16401383 0.24263065 -0.012879721
000100 66 f8 65 be 40 ba f2 bd ce 4f 2e 3e 00 6b d4 ba
       -0.22458038 -0.118519306 0.1702263 -0.0016206205
000110 dc 7c fe bd 02 2d 44 be 00 94 6f be ec 10 58 be
       -0.12426159 -0.19157794 -0.23396301 -0.21100205
000120 70 b4 4f bd 56 64 0c 3e 74 67 0a 3e 02 e5 76 be
       -0.050709188 0.1371015 0.13516027 -0.24110797
000130 2e b0 1f 3e 8a 52 48 be f0 7b 58 bd 1c 9a cf bd
       0.15594551 -0.19562736 -0.05285257 -0.10136816
000140 f0 3c 45 bd 10 0e 49 bd ba b8 65 be 44 0a 5d be
       -0.048153818 -0.049085677 -0.22433749 -0.21585947
000150 26 09 34 bd cf b8 d1 ba b8 96 e8 bd b8 de c0 3d
       -0.043954037 -0.0016000512 -0.11356872 0.0941748
000160 3a 6a 66 be c0 36 8a bc b8 fa 5b 3e 38 d7 d0 bd
       -0.2250146 -0.01687181 0.2148236 -0.101973
000170 36 2b 67 3e 99 6c af 3d 27 0e 6c be 82 04 1d 3e
       0.22575077 0.08565635 -0.23052274 0.15333751
000180 f0 53 ec bc 70 8f e4 bd 14 b6 4c 3e 54 df 4e be
       -0.028848618 -0.11160171 0.19991332 -0.2020238
000190 7c 19 b3 3c 36 b8 6a bd 16 d0 36 3e 08 ec 8e 3d
       0.021862738 -0.057304583 0.17852816 0.06978613
0001a0 cc 04 f6 3d 40 d1 b4 3d 44 b4 85 bd 50 5a 57 bd
       0.12012634 0.08828974 -0.065285236 -0.052576363
0001b0 00 f7 52 be 28 94 05 3e 30 19 46 3e 86 13 2a 3e
       -0.20602036 0.13044798 0.19345546 0.1660901
0001c0 ac 93 34 be 60 ae 36 3c 90 76 34 be 88 ec 0c be
       -0.17634457 0.011149973 -0.17623353 -0.13762105
0001d0 b0 2d 1a be cd f6 a4 3d c4 8d 18 be 00 ba b2 bb
       -0.15056491 0.08054886 -0.1489783 -0.005454302
0001e0 a0 4f 2c 3c 04 06 25 3e cc b9 46 be 44 bf 2f be
       0.010517031 0.16115576 -0.19406813 -0.17162806
0001f0 3c a6 14 be a1 20 2e 3e b0 35 c2 bd b5 ec 52 3e
       -0.14516538 0.17004634 -0.09482896 0.20598109
000200 a0 24 b9 3d 40 aa 01 3d 00 ed f3 ba 08 6d 4a bd
       0.09040189 0.031656504 -0.001861006 -0.049420387
000210 74 51 15 3d 16 fd 54 bd 00 3e e6 ba c0 a7 02 3d
       0.036454633 -0.051999174 -0.0017566085 0.03189826
000220 98 3e 48 be 7a 2d 06 be 34 24 54 3e 86 c1 4f be
       -0.19555128 -0.13103285 0.20716935 -0.20288667
000230 20 0f 93 bc f1 40 81 3e 5d 88 c3 3d 8d 60 47 3c
       -0.017951548 0.2524486 0.095474936 0.012169016
000240 26 da 5d be 2c a2 fd 3d 08 58 36 be a8 56 91 bd
       -0.21665248 0.123844475 -0.17807019 -0.070966065
000250 cc c8 ab bd 38 a4 17 bd 80 36 33 3b 96 26 53 3e
       -0.08387908 -0.037021846 0.0027345717 0.20620188
000260 80 ab ff 3c 20 4c 65 3e 30 99 1c 3e c6 d8 21 be
       0.031209707 0.2239232 0.15292811 -0.15805349
000270 54 a2 e5 3d 24 f7 34 be 9c ff d8 bd 40 97 96 3d
       0.11212602 -0.17672402 -0.105956286 0.073530674
000280 f0 0e a9 3d f2 0e 40 3e 28 d2 a4 bd 00 d4 d1 39
       0.08254802 0.18755701 -0.080478966 0.0004002154
000290 7a cb 03 3e 5a 93 77 be 42 15 39 3e 30 b1 53 be
       0.12870589 -0.24177304 0.18074515 -0.2067306
0002a0 00 d0 61 3b e0 18 2e bd 0a d4 06 be d8 57 07 3d
       0.0034456253 -0.04250419 -0.13166824 0.03304276
0002b0 f2 b0 53 3e e8 aa 95 bd 56 fc 17 be 84 5b bd bd
       0.20672968 -0.073079884 -0.14842352 -0.09245971
0002c0 e6 bb 7d be 1c 1d e7 3d 20 e5 f5 bd d0 d6 2a be
       -0.24778709 0.11284849 -0.12006593 -0.16683507
0002d0 62 7b 13 be 52 30 13 3e 24 92 07 3e 50 7c 44 3e
       -0.14402536 0.14373901 0.13239342 0.19188046
0002e0 d8 b6 b9 3d c4 fc aa bd d4 13 8f bd 98 42 97 3d
       0.09068078 -0.083489925 -0.06986204 0.073857486
0002f0 de 70 52 3e 74 35 8b 3d 1c 40 f2 bd fc ad f0 bd
       0.20550868 0.06797305 -0.11828634 -0.11751935
000300 42 0a 72 be b0 3b 5d 3d a8 a9 0f be 50 3e 64 be
       -0.23636726 0.054012 -0.14029562 -0.22289395
000310 6b aa 5b 3e 14 10 2b be d0 fb e8 bc 48 af 92 3d
       0.21451728 -0.16705352 -0.028440386 0.071623385
000320 e0 7d 02 3c fa 41 2c be 94 f0 53 be 98 0d 4c 3e
       0.007964581 -0.16822043 -0.20697242 0.1992706
000330 30 bf 26 3d a3 85 4f 3e c9 6a b5 bd 8f 2d 8d 3d
       0.040709674 0.20265822 -0.08858258 0.06893455
000340 18 2a 6a bd 60 27 36 bc 52 ea 1b be ac 28 ad 3d
       -0.05716905 -0.011117786 -0.15226105 0.08455023
000350 3b 83 98 3d 79 64 1f bc c0 4c 66 bd 58 ce 1d be
       0.07446905 -0.009728544 -0.05622554 -0.15410745
000360 14 09 31 3e 94 92 3e be 66 02 c8 3d 6c 29 ac bd
       0.1728862 -0.18610603 0.097660825 -0.08406338
000370 0c 06 f7 bd da 0b 25 3d 90 bb 09 be 36 32 59 3d
       -0.120617 0.040294506 -0.13450456 0.0530264
000380 10 18 49 3d ca 13 3e be 98 7e 2a 3d 64 13 da 3d
       0.049095213 -0.18562236 0.041624635 0.1064823
000390 51 03 c3 3d 8d 33 10 bd 9a dd 51 be 90 da 1d bd
       0.09522117 -0.035205413 -0.2049469 -0.038538516
0003a0 50 d2 b1 3d 2c d1 ba bd 9d 72 ba 3d 86 7c 2a 3e
       0.08682692 -0.091219276 0.09103892 0.16649064
0003b0 ba ab 05 be d7 5b aa ba fb f7 cb 3d 0f e5 81 3c
       -0.1305379 -0.0012997341 0.09959408 0.015856294
0003c0 90 12 ab 3c 70 b9 ff 3c fa 40 49 be e0 f2 a0 3c
       0.020882875 0.031216353 -0.19653693 0.019647062
0003d0 c7 92 36 3e 30 fc 6b 3e d8 76 16 3e 18 38 09 3d
       0.17829429 0.2304542 0.14693773 0.03350076
0003e0 7c 1c ef 3d dc 13 f9 bd 6f a0 4e be ca 23 5c be
       0.11675355 -0.12161991 -0.20178388 -0.21498027
0003f0 5a 63 7f 3e 38 dc 27 3e eb 92 2b be 8f ec d2 3d
       0.24940243 0.163926 -0.16755264 0.10299026

fc2.bias f4 [16]
000000 aa 52 41 3e 12 d0 7a 3e 58 d8 5f 3e 01 ac 4b 3e
       0.1887919 0.24493435 0.21859872 0.19889833
000010 f0 c2 6a bd f3 9b bd bd cc 17 4d 3e 2c 70 0a 3e
       -0.057314813 -0.092582606 0.20028609 0.13519353
000020 2e d5 14 be fe 25 66 3e 90 60 f7 3d 00 8e 0b 3e
       -0.14534447 0.2247543 0.12078965 0.13628387
000030 6e 48 25 be 42 80 89 3d 98 2a bb bd 38 57 4d 3e
       -0.16140911 0.06713916 -0.091389835 0.20052803

fc3.weight f4 [16, 16]
000000 58 42 38 bd f8 53 c7 3d 80 e2 35 3d f8 d6 d9 3d
       -0.044985145 0.09732813 0.04440546 0.10636705
000010 e0 fd ad bd f4 a2 f9 3d fe ce 32 be 88 46 67 3d
       -0.084956884 0.12189284 -0.17461774 0.05646375
000020 20 35 2d be ba 8d 7c be 10 95 4d be b6 1a 4a 3e
       -0.16914797 -0.2466344 -0.20076394 0.19736752
000030 50 81 0a 3e e8 2e 70 3e 48 16 4d 3e a0 9e 64 be
       0.13525891 0.23455393 0.20028031 -0.22326136
000040 ce b3 2e be 43 f9 10 bd 32 41 26 be 32 67 37 3e
       -0.17060778 -0.035393964 -0.16235808 0.1791046
000050 ba 89 41 be 54 b5 ef bd fc 29 72 be 59 3e 0c be
       -0.18900195 -0.117045075 -0.23648828 -0.13695659
000060 04 e2 57 3e 42 9a 51 3e 24 41 37 3e 22 aa 45 3e
       0.21082312 0.20469001 0.17895943 0.19303182
000070 cb bd 68 3e c8 27 72 bd ae 77 eb 3d e2 4b 69 3e
       0.2272865 -0.05911997 0.114974365 0.22782853
000080 14 61 a9 3d 00 d9 7a 3e 18 c7 04 3e b6 8f 19 3e
       0.08270469 0.24496841 0.12966573 0.14996228
000090 2c 32 b3 bd 61 ad eb 3d b7 81 c2 3c 8b 5e 84 bd
       -0.08749804 0.11507679 0.023743493 -0.06463345
0000a0 75 95 15 be 56 a5 0f be b2 fc 44 be 4e dc 2b 3e
       -0.14607795 -0.14027914 -0.1923702 0.16783258
0000b0 db f0 30 3e be 64 08 bd 4b 2f 19 be e9 b2 40 3e
       0.17279379 -0.0332992 -0.14959447 0.18818249
0000c0 8c b5 23 3e 22 e7 c1 3c b8 bb f1 bd f4 01 71 3e
       0.15987223 0.023669783 -0.11803383 0.23535901
0000d0 ac 60 d1 3d 15 35 3d be 7e 41 7a 3e d6 95 47 3e
       0.10223517 -0.1847728 0.24439046 0.19490752
0000e0 2f c8 af bd 5c e9 0f 3e d6 74 11 be b8 79 20 bd
       -0.08583104 0.14053863 -0.14204726 -0.03917858
0000f0 e6 90 5e 3e 90 cf 7a 3c 45 de 2f be 99 83 a0 bd
       0.21734962 0.015308276 -0.17174633 -0.078376
000100 dc fa 8a bd 9c 19 31 bd b0 fe c3 3c e7 62 72 3e
       -0.06786129 -0.043237314 0.023925155 0.23670541
000110 20 4d 5b 3c d6 05 19 be e9 27 92 3c b4 ae ff 3d
       0.013385087 -0.14943632 0.017841296 0.12484494
000120 c6 4e 04 3e e0 f7 69 be b0 3c 37 bd b8 3e 3e be
       0.12920675 -0.22848463 -0.04473561 -0.18578613
000130 ee 41 d0 bd b6 7b c2 3d fd b4 30 be 25 bf c8 3d
       -0.10168825 0.09496252 -0.17256542 0.09802083
000140 86 49 59 3e 30 53 86 3c f0 9e 2a be 20 71 b7 bd
       0.21219453 0.016397089 -0.16662192 -0.08957124
000150 d8 9a 5f 3d 46 27 43 be ec 5d fe 3d 24 6a 68 be
       0.05459103 -0.1905795 0.12420258 -0.2269674
000160 52 17 76 be c0 be 78 be 68 bb 4f bd 90 24 2c 3e
       -0.24032333 -0.24291515 -0.050715834 0.16810822
000170 72 4c 72 be ae c8 54 3e cc cf cc bd e8 f4 95 3d
       -0.23661974 0.20779678 -0.100005716 0.07322103
000180 20 ca 3a 3c 10 d7 66 be e8 4e 54 3e 6e d7 09 3e
       0.011400729 -0.22542977 0.20733225 0.13461086
000190 80 76 7e 3e 96 55 01 3e 48 fa 28 be 48 a7 55 3e
       0.24849892 0.12630305 -0.16501725 0.20864594
0001a0 20 23 5c 3c 80 cc f2 3d ac 44 4d be c8 43 93 bd
       0.013436109 0.118554115 -0.20045727 -0.071906626
0001b0 54 5c 7b be 90 6b c7 bd a0 e8 5c 3d 5c 00 49 be
       -0.24546939 -0.09737313 0.053932786 -0.19629043
0001c0 10 35 a3 3d 49 68 04 3e 18 a7 0e 3d 6c ce 30 be
       0.07969105 0.12930407 0.03482732 -0.17266244
0001d0 5a 7b 46 be 27 d9 a7 bd 83 a6 d6 3d 29 86 77 3e
       -0.19382992 -0.081957154 0.10480978 0.24172272
0001e0 6f fd 0d 3e b0 9f e6 bc 00 84 b3 3d f0 26 7b be
       0.13866208 -0.028152317 0.087654114 -0.24526572
0001f0 3e a7 5f be a1 15 e5 3d 42 fd 15 be 1d 1a ec 3d
       -0.21841142 0.11185766 -0.14647391 0.11528418
000200 f8 b7 34 be 42 d4 03 be 48 dd 52 be f1 0d 00 3e
       -0.17648304 -0.12873939 -0.20592225 0.12505318
000210 60 ae d0 bc 56 0f 40 3e 6c 5e 19 3e e2 a5 08 3e
       -0.025473773 0.1875585 0.14977425 0.1334453
000220 3e f8 3f 3b 94 4c 9e bd 68 a6 5e bd 18 17 08 3d
       0.002929225 -0.0772945 -0.054357916 0.03322515
000230 9b c4 f3 3d 3d 46 38 be 9a da 51 3e 14 d6 03 bd
       0.11902734 -0.17995544 0.20493546 -0.032186583
000240 9a 83 56 be 4c 60 0f be 6a 83 62 3e aa c3 64 3e
       -0.2094864 -0.14001578 0.22120443 0.22340265
000250 aa 20 6d be 7a c2 2f 3e ba cc f6 3d d4 af 12 3e
       -0.23156992 0.1716403 0.12050767 0.14324886
000260 b9 a6 53 3e a6 f8 09 be 5c ad a1 3d 04 87 d1 3d
       0.20669068 -0.13473758 0.07894394 0.1023083
000270 15 00 a1 bd b9 d0 a1 3d fd fb 9c bd a5 51 19 3e
       -0.07861344 0.07901139 -0.076652505 0.14972551
000280 88 0e 8e bd 14 df be bd 40 e5 80 3d 68 9a b5 3d
       -0.06936365 -0.093198925 0.06293726 0.08867341
000290 10 26 fa bd 30 0a b5 3c 74 5c 14 3e f0 c4 cb bc
       -0.12214291 0.022099584 0.14488393 -0.02487418
0002a0 a8 d1 9b 3d b8 f9 76 bd b0 74 b3 3d e6 71 39 be
       0.07608348 -0.060296744 0.08762491 -0.18109855
0002b0 0e 89 16 be 74 f1 01 be 4c 44 6b 3e 64 c5 89 bd
       -0.1470072 -0.12689763 0.22975272 -0.067271024
0002c0 00 f0 32 ba cc 0f f8 bd f0 8f 7f 3e 0e 07 7a 3e
       -0.0006825924 -0.12112388 0.24957252 0.24416754
0002d0 60 12 41 be 10 88 4f be d4 0b 42 be 00 08 9e ba
       -0.18854666 -0.20266747 -0.18949825 -0.0012056828
0002e0 c4 82 82 bd 4e 90 27 be e0 a3 b7 bd 18 77 41 3d
       -0.06372598 -0.16363642 -0.089668036 0.047232717
0002f0 f4 c1 05 be 88 e6 62 3d c8 d1 6a bd b0 18 f8 bd
       -0.13062268 0.055395633 -0.05732897 -0.12114084
000300 c8 ae 0c 3d f3 a3 57 3e 88 13 2d be 90 60 8c 3c
       0.034346372 0.21058635 -0.16901982 0.017135888
000310 20 cf bc bd 43 24 80 3e 14 b5 6d be 26 4c 70 be
       -0.092191935 0.25027665 -0.23213607 -0.23466548
000320 e0 cd 80 3e f8 f7 21 be 20 53 44 3d 40 c1 b0 bc
       0.2515707 -0.15817249 0.047930837 -0.021576524
000330 2b 31 43 bd 16 93 50 bd 58 c9 27 3e 83 cd 8b 3c
       -0.047654312 -0.050921522 0.163854 0.017065769
000340 ce 3e 79 be a2 04 12 be 7c 8a ae bd df 73 06 3e
       -0.24340364 -0.1425958 -0.085225075 0.13130139
000350 8e aa 25 be b8 6d 76 3e db 7b 4f bd 11 81 23 bd
       -0.16178343 0.24065292 -0.050655227 -0.03991801
000360 5b e9 4d 3e e6 aa 00 3e 6a 1e 59 3e ee 14 14 3e
       0.2010855 0.12565193 0.21203008 0.14461109
000370 f2 1c 91 bd d5 d7 24 be a0 62 5f bc f7 15 59 3e
       -0.07085599 -0.16097958 -0.013634354 0.21199785
000380 5c d6 ab bd 1e 68 6d be 24 e2 d1 3d 6c 35 79 3e
       -0.08390495 -0.23184249 0.10248211 0.24336785
000390 00 c2 91 bd 5a f9 53 be 10 35 68 be 90 4e 80 3d
       -0.07117081 -0.20700589 -0.22676492 0.062649846
0003a0 f0 12 9b bc d8 46 01 be a8 fb 4e 3d c0 6f c2 3d
       -0.018929929 -0.12624681 0.050532967 0.09493971
0003b0 06 9a 4b 3e fc c0 46 3e b0 46 19 bd 7e bb 61 be
       0.19882974 0.19409555 -0.03742093 -0.22044179
0003c0 d8 53 67 be 3e fa 69 3e 10 55 e2 3d 93 12 d4 3d
       -0.22590578 0.22849366 0.11051381 0.10355105
0003d0 20 7f 5d be b8 15 68 3e 8d 70 6d 3e 6a 1b 62 3e
       -0.21630526 0.22664535 0.23187466 0.2208077
0003e0 65 35 5d be 88 30 c1 bd 4a 11 30 be 56 6c 72 3e
       -0.216024 -0.09433085 -0.17194095 0.2367414
0003f0 04 11 e6 bd 0c a3 f3 bd 61 1a 01 3e b0 21 f7 bd
       -0.11233714 -0.11896333 0.12607719 -0.12066972

fc3.bias f4 [16]
000000 dc 2b fc bd 51 96 89 bc 20 fc ed bc 04 23 42 be
       -0.12313053 -0.01679531 -0.029050887 -0.1895867
000010 3d 9b 5a 3e b4 da e1 bd 30 9d b5 3d f4 93 59 3e
       0.21348281 -0.110280424 0.08867872 0.21247846
000020 f5 01 f8 3d 02 7a fa 3c c4 d1 59 3e 08 a7 09 3d
       0.12109748 0.030575756 0.21271425 0.03360656
000030 30 73 e2 bd cb 5c 77 3e 60 5c 72 3d a8 e4 7e be
       -0.110571265 0.24156491 0.059170127 -0.24891913

fc4.weight f4 [1, 16]
000000 18 c3 91 bd f1 e7 33 be d4 61 5b 3e 20 28 3e bd
       -0.07117289 -0.17568947 0.21424037 -0.046424985
000010 77 18 6f be 80 be 80 bc 74 c5 20 3e 7a cc 75 3d
       -0.23349176 -0.015715837 0.15700322 0.060009457
000020 40 e1 97 3d 9f c4 94 3c 18 e2 be 3d e8 7f 79 bd
       0.0741601 0.018160162 0.09320468 -0.060912997
000030 7c 97 d6 bd 1b fe 74 be b0 da 40 be 3e 12 d4 3d
       -0.10478112 -0.23925059 -0.18833423 0.10355042
