pth_models/best_model.pth (torch, 4815 bytes, 7 tensors)

fc1.weight f4 [16, 4]
000000 00 54 75 bb 5e 54 89 3e 16 b3 d2 be 80 66 bc be
       -0.00374341 0.2682218 -0.41152257 -0.3679695
000010 78 db 0c bb 34 25 91 3e 16 ec 9f 3d 97 53 0e 3f
       -0.0021493118 0.28348696 0.07808702 0.555963
000020 70 bf 35 bd 4c 7b 07 3e ac bb 1a be 70 48 c9 bd
       -0.044372022 0.13230628 -0.15110654 -0.098282695
000030 b8 91 f4 be 52 8b a9 be e8 0e 53 be 00 bb 97 3c
       -0.47767425 -0.33114105 -0.20611155 0.018521786
000040 f0 9e 45 3e e0 35 97 3e 05 25 ab be 6d bf 63 be
       0.19298911 0.2953329 -0.3342668 -0.22240992
000050 59 7d 35 3e 2e 57 d2 3e 95 be c9 bd 3c 54 bd 3e
       0.17723598 0.41082138 -0.09850804 0.36978328
000060 40 0d a5 bd 10 b5 58 3d 4a cd e7 3e ce 7b ed be
       -0.08059168 0.05290705 0.4527381 -0.46383518
000070 66 29 a1 be e0 9e 01 be dc 93 47 be 28 2f dd 3e
       -0.31476897 -0.12658262 -0.19489998 0.4320004
000080 1a ef a5 be c0 b0 6b be 1a da b2 be 76 c2 ef be
       -0.32408983 -0.23016644 -0.34932023 -0.4682805
000090 04 70 95 be 9e 0e dc 3e bc 76 64 3e 00 27 78 3e
       -0.29187024 0.42979902 0.22310919 0.24233627
0000a0 5a 84 00 3d 46 a5 80 be 60 c2 a2 3d aa 6c ec be
       0.03137622 -0.25126094 0.0794723 -0.46176654
0000b0 1a fa b8 be c6 f9 83 be 26 85 a1 3e 26 19 96 3e
       -0.36128312 -0.257765 0.31546897 0.29316062
0000c0 7b 05 31 be ff 55 a7 3c 40 ba a3 3e ea e5 09 3f
       -0.17287247 0.020426748 0.31978035 0.53866446
0000d0 fd ec 50 3e 88 c7 95 3d a0 c1 a8 3e 45 df 93 be
       0.20402904 0.07313448 0.32960224 -0.2888128
0000e0 ec 57 c9 3d a5 d8 c3 be 42 15 b4 be 0b 9d 81 be
       0.09831223 -0.38251224 -0.35172468 -0.25315127
0000f0 bf b7 62 3e 29 f5 48 3e e5 26 95 be f8 ba 15 3e
       0.22140406 0.19624771 -0.29131237 0.14622104

fc1.bias f4 [16]
000000 6e 89 8c 3e f3 ef 89 3d 40 64 9c 3c 00 44 ed 3d
       0.274486 0.0673522 0.019090772 0.115852356
000010 c8 6b 9c 3e 28 92 f3 3e 96 47 c5 be ec a1 3b be
       0.3055098 0.47572446 -0.38531178 -0.18323487
000020 98 38 49 3e d0 1b d4 3e dc 5f e1 3e 22 e2 e1 3e
       0.19650495 0.4142747 0.44018447 0.44117838
000030 80 39 07 3e 7d c0 db be 7c 74 51 3d 15 a1 a2 be
       0.13205528 -0.42920294 0.05113648 -0.3176352

fc2.weight f4 [16, 16]
000000 8c 94 6e be 39 8d 91 3e f0 a6 42 3e fe 5d 7f be
       -0.23298854 0.28428057 0.19008994 -0.24938199
000010 03 2c a5 3d 88 25 2e 3c b8 82 28 bd 1c 5f ea bd
       0.08065035 0.010629065 -0.041140288 -0.11443922
000020 8c e4 c4 3d 34 a1 17 be 09 d6 ed 3d 16 76 01 3e
       0.09613904 -0.14807588 0.116130896 0.12642702
000030 18 91 5a 3e e1 87 bf 3d 49 35 88 be ce 91 e4 bd
       0.21344411 0.09352089 -0.26603153 -0.111606225
000040 38 a6 ff 3d 4e c9 22 bd 96 b3 47 be e8 68 13 be
       0.124828756 -0.03974276 -0.195021 -0.14395487
000050 ca c3 6b 3e 77 6e 27 3e b0 3e df bd d4 dc 80 bd
       0.23023906 0.16350733 -0.109006286 -0.062921196
000060 78 dd 73 be 80 3e 93 bb 43 0d 46 be a2 77 45 be
       -0.23814952 -0.0044935346 -0.19340996 -0.19283918
000070 a8 4f 39 bc e6 47 05 3d 56 f7 db bd c8 d5 12 3e
       -0.011310495 0.03253927 -0.10740535 0.14339364
000080 38 c9 1b be 2b c8 5c 3e d0 6f 2f 3e 64 e1 57 be
       -0.15213478 0.21560733 0.17132497 -0.21082073
000090 3c fd 86 bd 45 b0 6b ba 18 67 15 3d d0 dd 72 3d
       -0.065912694 -0.0008990805 0.03647527 0.059293568
0000a0 5c ec c8 3d e0 59 75 3c cc d1 f9 bd d4 45 f2 3d
       0.09810707 0.014975041 -0.12198219 0.11829725
0000b0 be 2b 7e be a0 bb 17 be 3c 2b 80 bd 72 d4 06 be
       -0.24821374 -0.14817667 -0.06258246 -0.13166979
0000c0 5c 1d b3 bd da 65 0a be 00 d2 59 bd f8 e2 5a 3d
       -0.08745834 -0.13515416 -0.053178787 0.05343911
0000d0 5b 76 21 be 4b 72 fa bb 00 42 37 3e f0 88 d2 bc
       -0.15767805 -0.0076430193 0.17896271 -0.025700063
0000e0 80 ac e3 3b c0 ad b0 bc a7 55 65 3d 60 c6 22 3e
       0.006948054 -0.021567225 0.055989888 0.15895987
0000f0 e5 01 6f 3e 97 f0 27 3e 6b 71 78 3e 99 2e 53 bc
       0.23340566 0.16400371 0.24262016 -0.012889528
000100 66 f8 65 be 40 ba f2 bd ce 4f 2e 3e 00 6b d4 ba
       -0.22458038 -0.118519306 0.1702263 -0.0016206205
000110 dc 7c fe bd 02 2d 44 be 00 94 6f be ec 10 58 be
       -0.12426159 -0.19157794 -0.23396301 -0.21100205
000120 70 b4 4f bd 56 64 0c 3e 74 67 0a 3e 02 e5 76 be
       -0.050709188 0.1371015 0.13516027 -0.24110797
000130 2e b0 1f 3e 8a 52 48 be f0 7b 58 bd 1c 9a cf bd
       0.15594551 -0.19562736 -0.05285257 -0.10136816
000140 f0 3c 45 bd ff 42 20 be ba b8 65 be 44 0a 5d be
       -0.048153818 -0.15650557 -0.22433749 -0.21585947
000150 bf 00 34 bd 59 9e d0 ba b8 96 e8 bd b8 de c0 3d
       -0.043946024 -0.0015916332 -0.11356872 0.0941748
000160 3a 6a 66 be c0 36 8a bc 35 fe 5b 3e 38 d7 d0 bd
       -0.2250146 -0.01687181 0.21483691 -0.101973
000170 3e 70 42 3e 01 71 af 3d e9 0b 6c be 9d 06 1d 3e
       0.1898813 0.08566476 -0.23051418 0.15334554
000180 f0 53 ec bc 90 37 7d be 14 b6 4c 3e 54 df 4e be
       -0.028848618 -0.24728227 0.19991332 -0.2020238
000190 9b 2b b3 3c 18 af 6a bd 16 d0 36 3e 08 ec 8e 3d
       0.021871379 -0.05729589 0.17852816 0.06978613
0001a0 cc 04 f6 3d 40 d1 b4 3d c6 ac 85 bd 50 5a 57 bd
       0.12012634 0.08828974 -0.065270945 -0.052576363
0001b0 11 94 7f be 7b 96 05 3e 98 1b 46 3e be 15 2a 3e
       -0.24958827 0.13045685 0.19346464 0.16609856
0001c0 ac 93 34 be 2a e0 7c bd 90 76 34 be 88 ec 0c be
       -0.17634457 -0.061737217 -0.17623353 -0.13762105
0001d0 93 2b 1a be 31 fb a4 3d c4 8d 18 be 00 ba b2 bb
       -0.15055685 0.080557235 -0.1489783 -0.005454302
0001e0 a0 4f 2c 3c 04 06 25 3e 30 b6 46 be 44 bf 2f be
       0.010517031 0.16115576 -0.19405437 -0.17162806
0001f0 b8 82 f4 bd d2 22 2e 3e 00 31 c2 bd cf ee 52 3e
       -0.11938995 0.1700547 -0.09482002 0.20598911
000200 a0 24 b9 3d 75 98 26 3e 00 ed f3 ba 08 6d 4a bd
       0.09040189 0.16269095 -0.001861006 -0.049420387
000210 dd 47 15 3d cc 06 55 bd 00 3e e6 ba c0 a7 02 3d
       0.036445487 -0.052008435 -0.0017566085 0.03189826
000220 98 3e 48 be 7a 2d 06 be 4a 20 54 3e 86 c1 4f be
       -0.19555128 -0.13103285 0.20715442 -0.20288667
000230 63 52 8b 3c b6 3f 81 3e 27 83 c3 3d ad 39 47 3c
       0.017007058 0.2524392 0.095465 0.012159747
000240 26 da 5d be 6e ea 99 3d 08 58 36 be a8 56 91 bd
       -0.21665248 0.07515417 -0.17807019 -0.070966065
000250 54 7e a5 bd 46 b0 59 bd 80 36 33 3b 96 26 53 3e
       -0.08080736 -0.053146623 0.0027345717 0.20620188
000260 80 ab ff 3c 20 4c 65 3e 30 99 1c 3e c6 d8 21 be
       0.031209707 0.2239232 0.15292811 -0.15805349
000270 f8 30 93 3d 1b b9 23 be 9c ff d8 bd f6 a5 7e 3d
       0.071870744 -0.15988581 -0.105956286 0.06216999
000280 f0 0e a9 3d f2 0e 40 3e 28 d2 a4 bd 00 d4 d1 39
       0.08254802 0.18755701 -0.080478966 0.0004002154
000290 7a cb 03 3e 5a 93 77 be 42 15 39 3e 30 b1 53 be
       0.12870589 -0.24177304 0.18074515 -0.2067306
0002a0 00 d0 61 3b e0 18 2e bd 0a d4 06 be d8 57 07 3d
       0.0034456253 -0.04250419 -0.13166824 0.03304276
0002b0 f2 b0 53 3e e8 aa 95 bd 56 fc 17 be 84 5b bd bd
       0.20672968 -0.073079884 -0.14842352 -0.09245971
0002c0 e6 bb 7d be 7b a3 0b 3e 20 e5 f5 bd d0 d6 2a be
       -0.24778709 0.13636582 -0.12006593 -0.16683507
0002d0 26 07 13 be 1b e3 0c 3e 24 92 07 3e 50 7c 44 3e
       -0.14358196 0.13758509 0.13239342 0.19188046
0002e0 d8 b6 b9 3d c4 fc aa bd d4 13 8f bd 98 42 97 3d
       0.09068078 -0.083489925 -0.06986204 0.073857486
0002f0 df 22 2b 3e 88 5c 98 3d a5 2f be bd 68 c3 f8 bd
       0.16712521 0.07439524 -0.09286431 -0.12146646
000300 42 0a 72 be a7 62 11 bd a8 a9 0f be 50 3e 64 be
       -0.23636726 -0.035494473 -0.14029562 -0.22289395
000310 4c ac 5b 3e 2d 0e 2b be d0 fb e8 bc 48 af 92 3d
       0.21452445 -0.16704626 -0.028440386 0.071623385
000320 e0 7d 02 3c fa 41 2c be 4f ed 53 be 98 0d 4c 3e
       0.007964581 -0.16822043 -0.20695995 0.1992706
000330 bb ee f6 3c 9b 87 4f 3e 83 66 b5 bd 7c 31 8d 3d
       0.030143132 0.20266573 -0.08857443 0.06894204
000340 18 2a 6a bd bc fe 32 bd 52 ea 1b be ac 28 ad 3d
       -0.05716905 -0.043699965 -0.15226105 0.08455023
000350 d1 86 98 3d 6f 47 1f bc c0 4c 66 bd 58 ce 1d be
       0.07447589 -0.009721621 -0.05622554 -0.15410745
000360 14 09 31 3e 94 92 3e be a3 08 c8 3d 6c 29 ac bd
       0.1728862 -0.18610603 0.09767272 -0.08406338
000370 2c 01 d6 bd 5b 13 25 3d a8 b9 09 be 6b 39 59 3d
       -0.10449442 0.040301662 -0.13449728 0.053033274
000380 10 18 49 3d df 27 29 be 98 7e 2a 3d 64 13 da 3d
       0.049095213 -0.16519116 0.041624635 0.1064823
000390 ac 04 c3 3d ec 30 10 bd 9a dd 51 be 90 da 1d bd
       0.095223755 -0.035202906 -0.2049469 -0.038538516
0003a0 50 d2 b1 3d 2c d1 ba bd 79 75 ba 3d 86 7c 2a 3e
       0.08682692 -0.091219276 0.091044374 0.16649064
0003b0 00 ac 05 be 6c 04 aa ba 78 f9 cb 3d 44 ea 81 3c
       -0.13053894 -0.0012971289 0.09959692 0.015858777
0003c0 90 12 ab 3c bb 59 02 3e fa 40 49 be e0 f2 a0 3c
       0.020882875 0.12729542 -0.19653693 0.019647062
0003d0 4b 90 36 3e b2 f9 6b 3e d8 76 16 3e 18 38 09 3d
       0.17828481 0.2304447 0.14693773 0.03350076
0003e0 7c 1c ef 3d dc 13 f9 bd 81 a4 4e be ca 23 5c be
       0.11675355 -0.12161991 -0.20179941 -0.21498027
0003f0 86 7f 83 3e 9a d9 27 3e a4 95 2b be 8b e7 d2 3d
       0.2568323 0.16391602 -0.16756302 0.102980696

fc2.bias f4 [16]
000000 34 2e 57 3e 77 cf 7a 3e 4f 4e 5d 3e d3 ac 4b 3e
       0.21013719 0.24493204 0.21611904 0.19890146
000010 f0 c2 6a bd dc 9c bd bd 20 17 4d 3e 9f 6f 0a 3e
       -0.057314813 -0.09258434 0.20028353 0.13519143
000020 71 d4 14 be 57 7e 58 3e 90 60 f7 3d f3 0b 01 3e
       -0.14534165 0.21141945 0.12078965 0.12602215
000030 d0 48 25 be c5 7f 89 3d de 29 bb bd 05 58 4d 3e
       -0.16141057 0.06713823 -0.09138845 0.20053108

fc3.weight f4 [16, 16]
000000 58 42 38 bd f8 53 c7 3d 80 e2 35 3d f8 d6 d9 3d
       -0.044985145 0.09732813 0.04440546 0.10636705
000010 e0 fd ad bd f4 a2 f9 3d fe ce 32 be 88 46 67 3d
       -0.084956884 0.12189284 -0.17461774 0.05646375
000020 20 35 2d be ba 8d 7c be 10 95 4d be b6 1a 4a 3e
       -0.16914797 -0.2466344 -0.20076394 0.19736752
000030 50 81 0a 3e e8 2e 70 3e 48 16 4d 3e a0 9e 64 be
       0.13525891 0.23455393 0.20028031 -0.22326136
000040 46 0c 61 be b8 02 11 bd 42 3f 26 be 42 63 37 3e
       -0.21977338 -0.035402983 -0.16235068 0.17908958
000050 ba 89 41 be ba b9 ef bd 46 2c 72 be af 40 0c be
       -0.18900195 -0.117053464 -0.23649701 -0.1369655
000060 53 df 57 3e 37 53 3d 3e 24 41 37 3e 10 86 2d 3e
       0.21081285 0.18488775 0.17895943 0.16945672
000070 94 bb 68 3e 7b 30 72 bd 39 73 eb 3d 84 49 69 3e
       0.22727805 -0.059128266 0.11496586 0.2278195
000080 b9 44 0c 3e 3c db 7a 3e bd c4 04 3e 90 93 19 3e
       0.1369809 0.24497694 0.12965675 0.14997697
000090 2c 32 b3 bd a6 b1 eb 3d 29 94 c2 3c e2 59 84 bd
       -0.08749804 0.11508493 0.023752289 -0.06462456
0000a0 d4 92 15 be 02 26 f6 bd b2 fc 44 be e8 83 41 3e
       -0.14606792 -0.12018968 -0.1923702 0.18897974
0000b0 07 f3 30 3e 3e 5c 08 bd 31 2d 19 be 2c b5 40 3e
       0.17280208 -0.033291094 -0.14958645 0.18819112
0000c0 3a 75 34 3e 70 d3 c1 3c b8 ba f1 bd eb fd 70 3e
       0.17622843 0.023660392 -0.11803192 0.23534362
0000d0 ac 60 d1 3d 53 37 3d be 0b 3f 7a 3e 63 93 47 3e
       0.10223517 -0.18478136 0.24438111 0.19489817
0000e0 d8 cd af bd 01 08 16 3e d6 74 11 be d0 df 14 bd
       -0.085841835 0.14651491 -0.14204726 -0.036346257
0000f0 88 8e 5e 3e 1f ab 7a 3c 88 e0 2f be 8f 88 a0 bd
       0.21734059 0.0152995875 -0.17175496 -0.078385465
000100 6f 5e d4 bd 07 23 31 bd b0 fe c3 3c 06 5f 72 3e
       -0.10369574 -0.043246295 0.023925155 0.23669061
000110 20 4d 5b 3c ff 07 19 be 0c 15 92 3c ef a9 ff 3d
       0.013385087 -0.14944457 0.017832302 0.12483584
000120 15 4c 04 3e 99 c3 51 be b0 3c 37 bd 71 6a 2d be
       0.12919648 -0.20484771 -0.04473561 -0.16935135
000130 7e 46 d0 bd 64 77 c2 3d 28 b7 30 be 63 ba c8 3d
       -0.10169695 0.09495428 -0.17257369 0.098011754
000140 68 3c 5b 3e e1 40 25 3c a0 9e 2a be 20 71 b7 bd
       0.21409762 0.010086269 -0.16662073 -0.08957124
000150 d8 9a 5f 3d 6a 5a 45 be 10 ea fd 3d 2d 98 70 be
       0.05459103 -0.19272771 0.123981595 -0.2349555
000160 a2 6c 7b be a1 54 75 be 68 bb 4f bd 30 5d 2f 3e
       -0.24553159 -0.23958065 -0.050715834 0.17125392
000170 3c 1d 74 be d1 69 4b 3e cc cf cc bd a4 23 91 3d
       -0.23839277 0.19864585 -0.100005716 0.07086876
000180 20 ca 3a 3c 10 d7 66 be e8 4e 54 3e 6e d7 09 3e
       0.011400729 -0.22542977 0.20733225 0.13461086
000190 80 76 7e 3e 96 55 01 3e 48 fa 28 be 48 a7 55 3e
       0.24849892 0.12630305 -0.16501725 0.20864594
0001a0 20 23 5c 3c 80 cc f2 3d ac 44 4d be c8 43 93 bd
       0.013436109 0.118554115 -0.20045727 -0.071906626
0001b0 54 5c 7b be 90 6b c7 bd a0 e8 5c 3d 5c 00 49 be
       -0.24546939 -0.09737313 0.053932786 -0.19629043
0001c0 0f 89 ce 3d 78 6a 04 3e 78 a4 0e 3d ac ca 30 be
       0.100847356 0.1293124 0.03482482 -0.17264813
0001d0 5a 7b 46 be 00 d5 a7 bd ff aa d6 3d 5e 88 77 3e
       -0.19382992 -0.081949234 0.10481834 0.24173114
0001e0 05 00 0e 3e 04 24 48 bc 00 84 b3 3d 7f f3 6a be
       0.13867195 -0.012215618 0.087654114 -0.22944449
0001f0 24 a5 5f be b6 19 e5 3d 38 fb 15 be a7 1e ec 3d
       -0.2184034 0.111865446 -0.14646614 0.11529284
000200 d5 87 53 be 11 d2 03 be 48 dd 52 be b9 11 00 3e
       -0.20657285 -0.12873103 -0.20592225 0.1250676
000210 60 ae d0 bc 68 11 40 3e 9d 60 19 3e 20 a8 08 3e
       -0.025473773 0.1875664 0.14978261 0.13345385
000220 f6 a6 40 3b 38 df 85 bd 68 a6 5e bd 95 18 04 3d
       0.0029396391 -0.06536716 -0.054357916 0.032250006
000230 fc c8 f3 3d 38 44 38 be a5 dc 51 3e e9 cc 03 bd
       0.11903569 -0.17994773 0.20494325 -0.03217784
000240 72 e9 56 be 3c 5e 0f be 4a 83 62 3e 2f c7 64 3e
       -0.2098749 -0.14000791 0.22120395 0.22341608
000250 aa 20 6d be 56 c4 2f 3e da d0 f6 3d dc b1 12 3e
       -0.23156992 0.1716474 0.12051554 0.1432566
000260 1a a9 53 3e a4 64 00 be 5c ad a1 3d dc d1 e2 3d
       0.20669976 -0.12538391 0.07894394 0.11075184
000270 18 fc a0 bd 79 d4 a1 3d 27 f8 9c bd ad 53 19 3e
       -0.07860583 0.07901854 -0.07664519 0.14973326
000280 88 0e 8e bd 14 df be bd 40 e5 80 3d 68 9a b5 3d
       -0.06936365 -0.093198925 0.06293726 0.08867341
000290 10 26 fa bd 30 0a b5 3c 74 5c 14 3e f0 c4 cb bc
       -0.12214291 0.022099584 0.14488393 -0.02487418
0002a0 a8 d1 9b 3d b8 f9 76 bd b0 74 b3 3d e6 71 39 be
       0.07608348 -0.060296744 0.08762491 -0.18109855
0002b0 0e 89 16 be 74 f1 01 be 4c 44 6b 3e 64 c5 89 bd
       -0.1470072 -0.12689763 0.22975272 -0.067271024
0002c0 00 f0 32 ba cc 0f f8 bd f0 8f 7f 3e 0e 07 7a 3e
       -0.0006825924 -0.12112388 0.24957252 0.24416754
0002d0 60 12 41 be 10 88 4f be d4 0b 42 be 00 08 9e ba
       -0.18854666 -0.20266747 -0.18949825 -0.0012056828
0002e0 c4 82 82 bd 4e 90 27 be e0 a3 b7 bd 18 77 41 3d
       -0.06372598 -0.16363642 -0.089668036 0.047232717
0002f0 f4 c1 05 be 88 e6 62 3d c8 d1 6a bd b0 18 f8 bd
       -0.13062268 0.055395633 -0.05732897 -0.12114084
000300 56 8f 88 ba 9e a1 57 3e 66 12 2d be de 40 8c 3c
       -0.0010418694 0.21057746 -0.1690155 0.017120775
000310 20 cf bc bd 27 23 80 3e 6b b7 6d be 79 4e 70 be
       -0.092191935 0.2502682 -0.232145 -0.23467435
000320 8a cc 80 3e 54 ce 34 be 20 53 44 3d 2c 49 28 bd
       0.2515605 -0.17656833 0.047930837 -0.041085407
000330 75 3a 43 bd e6 9b 50 bd 2c c7 27 3e 1d ba 8b 3c
       -0.04766317 -0.050929926 0.16384572 0.01705652
000340 4e d2 99 be ea 06 12 be 33 85 ae bd f7 6f 06 3e
       -0.30043262 -0.1426045 -0.085214995 0.13128649
000350 8e aa 25 be 94 6b 76 3e 4c 85 4f bd aa 8a 23 bd
       -0.16178343 0.24064475 -0.05066423 -0.039927162
000360 a9 e6 4d 3e 0e 93 d7 3d 6a 1e 59 3e bb 3f fb 3d
       0.20107521 0.10526095 0.21203008 0.12268015
000370 82 21 91 bd f1 d9 24 be 28 86 5f bc 94 13 59 3e
       -0.07086469 -0.16098763 -0.013642825 0.21198875
000380 5c d6 ab bd 1e 68 6d be 24 e2 d1 3d 6c 35 79 3e
       -0.08390495 -0.23184249 0.10248211 0.24336785
000390 00 c2 91 bd 5a f9 53 be 10 35 68 be 90 4e 80 3d
       -0.07117081 -0.20700589 -0.22676492 0.062649846
0003a0 f0 12 9b bc d8 46 01 be a8 fb 4e 3d c0 6f c2 3d
       -0.018929929 -0.12624681 0.050532967 0.09493971
0003b0 06 9a 4b 3e fc c0 46 3e b0 46 19 bd 7e bb 61 be
       0.19882974 0.19409555 -0.03742093 -0.22044179
0003c0 01 3b 3b be 75 fc 69 3e 10 55 e2 3d 2c 1a d4 3d
       -0.18284227 0.22850211 0.11051381 0.103565544
0003d0 20 7f 5d be cb 17 68 3e c3 72 6d 3e ac 1d 62 3e
       -0.21630526 0.22665326 0.2318831 0.22081631
0003e0 c7 32 5d be 3e fe 95 bd 4a 11 30 be 09 c9 86 3e
       -0.21601401 -0.073238835 -0.17194095 0.26325253
0003f0 97 0c e6 bd d6 9e f3 bd 72 1c 01 3e 0d 1d f7 bd
       -0.1123287 -0.1189553 0.12608507 -0.12066088

fc3.bias f4 [16]
000000 dc 2b fc bd 28 91 89 bc eb 00 ee bc 3d 22 42 be
       -0.12313053 -0.016792849 -0.029053172 -0.18958373
000010 e9 9b 5a 3e a2 ed e3 bd 30 9d b5 3d 55 93 59 3e
       0.21348538 -0.11129309 0.08867872 0.21247609
000020 cf 00 f8 3d a2 76 fa 3c c4 d1 59 3e 08 a7 09 3d
       0.12109529 0.030574147 0.21271425 0.03360656
000030 d4 71 e2 bd 7d 5d 77 3e 60 5c 72 3d 51 e5 7e be
       -0.11056867 0.24156757 0.059170127 -0.24892165

fc4.weight f4 [1, 16]
000000 18 c3 91 bd ea e4 33 be 17 64 5b 3e 21 1e 3e bd
       -0.07117289 -0.17567793 0.214249 -0.046415452
000010 b5 15 6f be f3 8e 22 bd 74 c5 20 3e d4 d5 75 3d
       -0.23348124 -0.03968711 0.15700322 0.060018376
000020 6b e5 97 3d d5 d7 94 3c 18 e2 be 3d e8 7f 79 bd
       0.07416805 0.018169323 0.09320468 -0.060912997
000030 23 91 d6 bd b8 fa 74 be b0 da 40 be bb 16 d4 3d
       -0.104769014 -0.23923767 -0.18833423 0.10355898
