pth_models/best_model.pth (torch, 4815 bytes, 7 tensors)

fc1.weight f4 [16, 4]
0	0xbb755400	-0.00374341
1	0x3e89545e	0.2682218
2	0xbed2b316	-0.41152257
3	0xbebc6680	-0.3679695
4	0xbaea78ef	-0.0017888824
5	0x3c94b437	0.01815234
6	0x3ca7a4a8	0.020464256
7	0x3f177e88	0.59177446
8	0xbd35bf70	-0.044372022
9	0x3e077b4c	0.13230628
10	0xbe1abbac	-0.15110654
11	0xbdc94870	-0.098282695
12	0xbef491b8	-0.47767425
13	0xbea98b52	-0.33114105
14	0xbe530ee8	-0.20611155
15	0x3c97bb00	0.018521786
16	0x3e41b388	0.18916142
17	0x3ead87f7	0.33892795
18	0xbe6af00a	-0.2294313
19	0xbe6764e5	-0.22597082
20	0x3e2e3b53	0.17014818
21	0x3ee31663	0.44353017
22	0xbc85f29d	-0.016351039
23	0x3eb9daed	0.3629984
24	0xbda50d40	-0.08059168
25	0x3d58b510	0.05290705
26	0x3ee7cd4a	0.4527381
27	0xbeed7bce	-0.46383518
28	0xbeb48e91	-0.3526502
29	0xbe23343c	-0.15937895
30	0xbde01285	-0.10941032
31	0x3ecc923c	0.39955318
32	0xbea5ef1a	-0.32408983
33	0xbe6bb0c0	-0.23016644
34	0xbeb2da1a	-0.34932023
35	0xbeefc276	-0.4682805
36	0xbe3e4e56	-0.1858457
37	0x3ee89168	0.45423436
38	0x3e5e27d9	0.21694888
39	0x3e872f31	0.26403192
40	0x3cff1dda	0.031142164
41	0xbe9fb073	-0.31189308
42	0xbd53dfaa	-0.051726975
43	0xbeee5430	-0.46548605
44	0xbe9bc9b6	-0.3042733
45	0xbe6c4823	-0.23074393
46	0x3dfa8ab7	0.12233489
47	0x3ea43cba	0.3207758
48	0xbdc2ea9e	-0.09517406
49	0x3d5a5e44	0.053312555
50	0x3e85ca51	0.26130918
51	0x3f11d204	0.56961083
52	0x3e4cd377	0.20002542
53	0x3c00138c	0.00781716
54	0x3e349bdc	0.1763758
55	0xbe95f16e	-0.2928576
56	0x3dc81f09	0.097715445
57	0xbee0d893	-0.43915233
58	0xbef82e60	-0.4847288
59	0xbe81fe8a	-0.2538951
60	0x3e605c97	0.2191032
61	0x3e7bee0c	0.24602526
62	0xbe2d0770	-0.16897368
63	0x3e138e0e	0.14409658

fc1.bias f4 [16]
0	0x3e8c896e	0.274486
1	0x3d9012bf	0.070348255
2	0x3c9c6440	0.019090772
3	0x3ded4400	0.115852356
4	0x3ea49c2e	0.32150406
5	0x3ef87958	0.48530078
6	0xbec54796	-0.38531178
7	0xbe5de911	-0.21670939
8	0x3e493898	0.19650495
9	0x3edf945b	0.43667874
10	0x3ed343e8	0.41262746
11	0x3ef08926	0.46979636
12	0x3e2f37f2	0.17111185
13	0xbeead5ac	-0.45866144
14	0x3cdeccbf	0.02719724
15	0xbe98b2bc	-0.29823864

fc2.weight f4 [16, 16]
0	0xbe6e948c	-0.23298854
1	0x3ec6ce5c	0.38829315
2	0x3e42a6f0	0.19008994
3	0xbe7f5dfe	-0.24938199
4	0x3dcbeeaa	0.09957631
5	0x3b1982d7	0.0023423934
6	0xbd2882b8	-0.041140288
7	0xbda176fe	-0.07884024
8	0x3dc4e48c	0.09613904
9	0xbdf31383	-0.11868956
10	0x3dc49f00	0.09600639
11	0x3e11edcd	0.1425087
12	0x3e4e9253	0.20173006
13	0x3d4b46db	0.04962812
14	0xbe74b74f	-0.23898052
15	0xbddca3dd	-0.10773442
16	0x3dffa638	0.124828756
17	0xbcf3a52c	-0.029741846
18	0xbe47b396	-0.195021
19	0xbe1368e8	-0.14395487
20	0x3e6a9b3b	0.22910778
21	0x3e264ea4	0.16240937
22	0xbddf3eb0	-0.109006286
23	0xbcf8135d	-0.03028267
24	0xbe73dd78	-0.23814952
25	0x3c9d90c6	0.019234072
26	0xbe45a47e	-0.1930103
27	0xbe365c81	-0.17808725
28	0x3ba80272	0.0051272446
29	0x3d025f0e	0.031828932
30	0xbddd6576	-0.10810368
31	0x3e11abed	0.1422574
32	0xbe1bc938	-0.15213478
33	0x3e824037	0.25439617
34	0x3e2f6fd0	0.17132497
35	0xbe57e164	-0.21082073
36	0xbdbb25e5	-0.09138087
37	0x3cdf744f	0.02727714
38	0x3d156718	0.03647527
39	0x3da78526	0.08179693
40	0x3dc8ec5c	0.09810707
41	0x3ceef3f5	0.029169062
42	0xbdf9d1cc	-0.12198219
43	0x3deea312	0.11652197
44	0xbe5df69f	-0.2167611
45	0x3c312969	0.010813096
46	0xbd61d063	-0.055130374
47	0xbddba7da	-0.107253745
48	0xbdb31d5c	-0.08745834
49	0xbe19d204	-0.15021521
50	0xbd59d200	-0.053178787
51	0x3d5ae2f8	0.05343911
52	0xbe2287f0	-0.15872169
53	0xbc0f2293	-0.0087362705
54	0x3e374200	0.17896271
55	0xbd8e48f2	-0.06947507
56	0x3be3ac80	0.006948054
57	0xbd8e3c48	-0.069450915
58	0x3d5a0e46	0.05323627
59	0x3dd41980	0.10356426
60	0x3e43da3b	0.19126217
61	0x3e265ef7	0.16247164
62	0x3e76d4a1	0.24104549
63	0xbc6434a0	-0.013928562
64	0xbe65f866	-0.22458038
65	0xbdf2ba40	-0.118519306
66	0x3e2e4fce	0.1702263
67	0xbad46b00	-0.0016206205
68	0xbdfe7cdc	-0.12426159
69	0xbe442d02	-0.19157794
70	0xbe6f9400	-0.23396301
71	0xbe5810ec	-0.21100205
72	0xbd4fb470	-0.050709188
73	0x3e0c6456	0.1371015
74	0x3e0a6774	0.13516027
75	0xbe76e502	-0.24110797
76	0x3e1fb02e	0.15594551
77	0xbe48528a	-0.19562736
78	0xbd587bf0	-0.05285257
79	0xbdcf9a1c	-0.10136816
80	0xbd453cf0	-0.048153818
81	0xbe43f5f6	-0.19136795
82	0xbe65b8ba	-0.22433749
83	0xbe5d0a44	-0.21585947
84	0xbd3d5b85	-0.046229858
85	0xbb7a7d21	-0.0038221555
86	0xbde896b8	-0.11356872
87	0x3dff0136	0.12451403
88	0xbe666a3a	-0.2250146
89	0xbc3b5f11	-0.01143624
90	0x3e5b085e	0.2138991
91	0xbdb0a9f7	-0.08626168
92	0x3e69e519	0.228413
93	0x3dab864f	0.08375227
94	0xbe6dff8b	-0.23242013
95	0x3e1aaea0	0.15105677
96	0xbcec53f0	-0.028848618
97	0xbe930c8e	-0.28720516
98	0x3e4cb614	0.19991332
99	0xbe4edf54	-0.2020238
100	0x3caa67d3	0.02080146
101	0xbd6ed94a	-0.05831269
102	0x3e36d016	0.17852816
103	0x3d7e2a1b	0.062051874
104	0x3df604cc	0.12012634
105	0x3db4d140	0.08828974
106	0xbd84be59	-0.064816184
107	0xbd575a50	-0.052576363
108	0xbe827cad	-0.25485745
109	0x3e04ef79	0.12981977
110	0x3e4579c2	0.19284728
111	0x3e28fd02	0.16502765
112	0xbe3493ac	-0.17634457
113	0xbd717911	-0.05895335
114	0xbe347690	-0.17623353
115	0xbe0cec88	-0.13762105
116	0xbe1bfb6d	-0.1523263
117	0x3da1742c	0.07883486
118	0xbe188dc4	-0.1489783
119	0x3cc7f32d	0.024407947
120	0x3c2c4fa0	0.010517031
121	0x3e41f67e	0.18941686
122	0xbe470e5d	-0.19439073
123	0xbe246eb8	-0.16057861
124	0xbdf0747b	-0.11740967
125	0x3e2cbb32	0.16868284
126	0xbdc50031	-0.09619177
127	0x3e511d72	0.20421389
128	0x3db924a0	0.09040189
129	0x3e62c0e2	0.22143891
130	0xbaf3ed00	-0.001861006
131	0xbd4a6d08	-0.049420387
132	0x3d14fe25	0.036375184
133	0xbd55865f	-0.0521301
134	0xbae63e00	-0.0017566085
135	0xbd92a742	-0.07160808
136	0xbe483e98	-0.19555128
137	0xbe557258	-0.208444
138	0x3e525924	0.20541817
139	0xbd33d9c6	-0.043908857
140	0x3c730fc7	0.014835305
141	0x3e80f7fb	0.25189194
142	0x3dc25df3	0.09490576
143	0x3c462609	0.012094029
144	0xbe5dda26	-0.21665248
145	0x3df2f875	0.11863796
146	0xbe365808	-0.17807019
147	0xbd9156a8	-0.070966065
148	0x3b260485	0.0025332284
149	0xbd26937f	-0.040668007
150	0x3b333680	0.0027345717
151	0x3e34c823	0.17654471
152	0x3cffab80	0.031209707
153	0x3e4e96b2	0.20174673
154	0x3e1c9930	0.15292811
155	0xbe300909	-0.17190947
156	0x3db59fa7	0.08868342
157	0xbe4abf8d	-0.19799633
158	0xbef52df3	-0.4788662
159	0x3db0ee59	0.08639211
160	0x3da90ef0	0.08254802
161	0x3e27c137	0.163823
162	0xbda4d228	-0.080478966
163	0x39d1d400	0.0004002154
164	0x3dc9c5fb	0.09852215
165	0xbe87670c	-0.26445806
166	0x3e391542	0.18074515
167	0xbe5df26d	-0.2167451
168	0x3b61d000	0.0034456253
169	0xbd6f459f	-0.058416005
170	0xbe06d40a	-0.13166824
171	0x3c82188b	0.015880844
172	0x3e3c0079	0.18359555
173	0xbd95aae8	-0.073079884
174	0xbe17fc56	-0.14842352
175	0xbdea8729	-0.11451561
176	0xbe7dbbe6	-0.24778709
177	0x3e59bc60	0.21263266
178	0xbdf5e520	-0.12006593
179	0xbe2ad6d0	-0.16683507
180	0xbdd1f35e	-0.10251497
181	0x3ddbf0c4	0.10739282
182	0x3e079224	0.13239342
183	0x3e287a46	0.16452894
184	0x3db9b6d8	0.09068078
185	0xbd8b64ca	-0.06806333
186	0xbd8f13d4	-0.06986204
187	0x3dbe9904	0.09306529
188	0x3e4af518	0.19820058
189	0xbd8a8fc4	-0.06765702
190	0x3e994767	0.29937288
191	0xbdf5d58c	-0.120036215
192	0xbe720a42	-0.23636726
193	0xbe050f39	-0.12994088
194	0xbe0fa9a8	-0.14029562
195	0xbe643e50	-0.22289395
196	0x3e57f5d5	0.21089871
197	0xbe2ebc21	-0.17063953
198	0xbce8fbd0	-0.028440386
199	0x3d92af48	0.071623385
200	0x3c027de0	0.007964581
201	0xbe2c41fa	-0.16822043
202	0xbe568c87	-0.20952044
203	0x3e4c0d98	0.1992706
204	0x3e2808fd	0.16409679
205	0x3e4c1fa0	0.19933939
206	0xbdbc49b1	-0.09193743
207	0x3d85be72	0.06530465
208	0xbd6a2a18	-0.05716905
209	0xbe258ba4	-0.1616655
210	0xbe1bea52	-0.15226105
211	0x3dad28ac	0.08455023
212	0x3d8eba2b	0.069691025
213	0xbc6cf054	-0.014461596
214	0xbd664cc0	-0.05622554
215	0xbe27828f	-0.16358398
216	0x3e310914	0.1728862
217	0xbe3e9294	-0.18610603
218	0x3dbfac5a	0.09359045
219	0xbdac296c	-0.08406338
220	0xbd7aa9f7	-0.061197247
221	0x3d12490a	0.035714187
222	0xbe0e7427	-0.13911496
223	0x3d459385	0.04823639
224	0x3d491810	0.049095213
225	0xbdb01877	-0.08598416
226	0x3d2a7e98	0.041624635
227	0x3dda1364	0.1064823
228	0x3daadd3b	0.083429776
229	0xbd407dbf	-0.04699492
230	0xbe51dd9a	-0.2049469
231	0xbd1dda90	-0.038538516
232	0x3db1d250	0.08682692
233	0xbdbad12c	-0.091219276
234	0x3d9fb97c	0.0779905
235	0x3e2a7c86	0.16649064
236	0xbe0dd503	-0.13850789
237	0xbc5ba125	-0.013405119
238	0x3db2f8ab	0.08738836
239	0x3b84baf0	0.004050605
240	0x3cab1290	0.020882875
241	0x3df7e548	0.12104279
242	0xbe4940fa	-0.19653693
243	0x3ca0f2e0	0.019647062
244	0x3e35b394	0.17744285
245	0x3e6b1420	0.22956896
246	0x3e1676d8	0.14693773
247	0x3b1fb1ea	0.002436752
248	0x3def1c7c	0.11675355
249	0xbe188c32	-0.1489723
250	0xbe5143ae	-0.20435974
251	0xbe6cb267	-0.2311493
252	0x3e6da8ef	0.23208974
253	0x3e267d7f	0.1625881
254	0xbe2cfb02	-0.16892627
255	0x3dd12fa4	0.10214165

fc2.bias f4 [16]
0	0x3e93c315	0.28859773
1	0x3e88aa9c	0.26692665
2	0x3e7ce3b7	0.24696241
3	0x3e321262	0.17389825
4	0xbd6ac2f0	-0.057314813
5	0xbd957b32	-0.07298888
6	0x3e63acb0	0.22233844
7	0x3e1f7eee	0.15575764
8	0xbe2d5ff2	-0.16931131
9	0x3e581079	0.21100034
10	0x3dc87633	0.0978817
11	0x3dc3af60	0.095549345
12	0xbe13ee1c	-0.144463
13	0x3da125dd	0.0786855
14	0xbdec5b3a	-0.115408376
15	0x3e3392e9	0.1753651

fc3.weight f4 [16, 16]
0	0xbd384258	-0.044985145
1	0x3dc753f8	0.09732813
2	0x3d35e280	0.04440546
3	0x3dd9d6f8	0.10636705
4	0xbdadfde0	-0.084956884
5	0x3df9a2f4	0.12189284
6	0xbe32cefe	-0.17461774
7	0x3d674688	0.05646375
8	0xbe2d3520	-0.16914797
9	0xbe7c8dba	-0.2466344
10	0xbe4d9510	-0.20076394
11	0x3e4a1ab6	0.19736752
12	0x3e0a8150	0.13525891
13	0x3e702ee8	0.23455393
14	0x3e4d1648	0.20028031
15	0xbe649ea0	-0.22326136
16	0xbe46d350	-0.19416547
17	0xbd0e3574	-0.034718946
18	0xbe13d810	-0.1443789
19	0x3e33f4a1	0.17573787
20	0xbe4189ba	-0.18900195
21	0xbded07b5	-0.115737356
22	0xbe71b226	-0.23603114
23	0xbe0b58a2	-0.1360803
24	0x3e56cea4	0.20977265
25	0x3e50b4d6	0.20381483
26	0x3e0258e0	0.12729216
27	0x3e21f0e7	0.15814553
28	0x3e699158	0.2280935
29	0xbd6bff99	-0.057616804
30	0x3decd4ee	0.115640506
31	0x3e69145c	0.22761673
32	0x3dd9741e	0.10617851
33	0x3e79ac2e	0.24382088
34	0x3de39b4c	0.11113605
35	0x3e1c7434	0.15278703
36	0xbdb3322c	-0.08749804
37	0x3de8201c	0.113342494
38	0x3cbacea9	0.022803621
39	0xbd870f93	-0.065947674
40	0xbe15088e	-0.14554045
41	0xbe0f0505	-0.13966759
42	0xbe0fdf5b	-0.14050047
43	0x3e4f9079	0.20269956
44	0x3e2fa773	0.1715372
45	0xbd1035b5	-0.03520747
46	0xbe1a4d09	-0.15068449
47	0x3e406aa5	0.18790682
48	0x3e361af8	0.17783725
49	0x3cc167ac	0.023609005
50	0xbc6c4fab	-0.014423291
51	0x3e6cb41e	0.23115584
52	0x3dd160ac	0.10223517
53	0xbe3c8d04	-0.18413168
54	0x3e79f4f1	0.24409844
55	0x3e47be0e	0.19506094
56	0xbdb39524	-0.08768681
57	0x3e402d31	0.18767239
58	0xbe2e8d09	-0.17045988
59	0xbdc36802	-0.09541322
60	0x3e5ea682	0.21743205
61	0x3c8451b8	0.016152248
62	0xbe2fe89d	-0.17178579
63	0xbda29165	-0.07937888
64	0xbdcb4f55	-0.09927241
65	0xbd2e1a40	-0.042505503
66	0x3f4ec0c3	0.8076288
67	0x3e6f020e	0.23340628
68	0x3c5b4d20	0.013385087
69	0xbe179ac9	-0.1480514
70	0x3c968142	0.018372182
71	0x3e00cb91	0.12577654
72	0x3e034c36	0.12822041
73	0xbd2a96e2	-0.0416478
74	0xbd373cb0	-0.04473561
75	0xbe50a425	-0.20375116
76	0xbdce7f49	-0.100828715
77	0x3dc5add5	0.096522965
78	0xbe2ff96a	-0.17184988
79	0x3dc868a9	0.09785587
80	0x3e7c7f89	0.24658026
81	0x3ce05342	0.02738345
82	0xbdda5538	-0.106607854
83	0xbdfdf78b	-0.12400731
84	0x3d5f9ad8	0.05459103
85	0xbe40bf27	-0.18822919
86	0x3d6d3f9a	0.057921983
87	0xbe6f26ea	-0.23354688
88	0xbe829643	-0.25505266
89	0xbe2d4f00	-0.16924667
90	0xbdac7059	-0.08419866
91	0x3e4131bf	0.18866633
92	0xbe7cb345	-0.24677761
93	0x3e54c8ae	0.20779678
94	0xbdcccfcc	-0.100005716
95	0x3da9dd3a	0.08294149
96	0x3c126a56	0.008936485
97	0xbe69d227	-0.22834073
98	0x3e510894	0.20413429
99	0x3e168ab4	0.14701349
100	0x3e7e7680	0.24849892
101	0x3e002bba	0.1251668
102	0xbe28fa48	-0.16501725
103	0x3e521a91	0.20517947
104	0x3c5c2320	0.013436109
105	0x3df3d052	0.11904968
106	0xbe4d44ac	-0.20045727
107	0xbd9349cc	-0.0719181
108	0xbe7b5c54	-0.24546939
109	0xbdc76b90	-0.09737313
110	0x3d5ce8a0	0.053932786
111	0xbe499e21	-0.19689228
112	0x3de02a68	0.10945588
113	0x3e02bf94	0.12768394
114	0x3c262cce	0.010142518
115	0xbe2e8454	-0.17042667
116	0xbe467b5a	-0.19382992
117	0xbdac4c52	-0.084129944
118	0x3dd3c05d	0.10339425
119	0x3e75b1aa	0.23993555
120	0x3e0dfc57	0.13865791
121	0xbd11cb2c	-0.03559415
122	0x3e0c4e01	0.13701631
123	0xbe55891c	-0.20853084
124	0xbe616a82	-0.22013286
125	0x3de04fc3	0.10952713
126	0xbe1790d5	-0.14801343
127	0x3dea85aa	0.11451276
128	0xbe464067	-0.19360505
129	0xbe055839	-0.13021936
130	0xbe40f585	-0.18843658
131	0x3e028586	0.12746248
132	0xbcd0ae60	-0.025473773
133	0x3e3df1a6	0.18549213
134	0x3e1812bf	0.14850901
135	0x3e06f558	0.13179529
136	0x3b49750a	0.0030739927
137	0xbd6d0091	-0.05786187
138	0xbd5ea668	-0.054357916
139	0x3c064de7	0.008197284
140	0x3df087a5	0.11744622
141	0xbe3a8e3f	-0.18218325
142	0x3e506891	0.20352389
143	0xbd066045	-0.032806654
144	0xbe3fb3ec	-0.18720978
145	0xbe12718a	-0.14301124
146	0x3e51a927	0.20474683
147	0x3e652c5b	0.22380202
148	0xbe6d20aa	-0.23156992
149	0x3e2c384e	0.16818354
150	0x3df0fe81	0.11767293
151	0x3e0f7aab	0.14011638
152	0x3e51fb8b	0.20506112
153	0xbe096d5a	-0.1342062
154	0x3df8dd79	0.121516176
155	0x3e0b764e	0.13619348
156	0xbda7493f	-0.081682675
157	0x3d9a9b03	0.075490974
158	0xbda2c677	-0.079480104
159	0x3e16f955	0.1474355
160	0xbd8e0e88	-0.06936365
161	0xbdbedf14	-0.093198925
162	0x3d80e540	0.06293726
163	0x3db59a68	0.08867341
164	0xbdfa2610	-0.12214291
165	0x3cb50a30	0.022099584
166	0x3e145c74	0.14488393
167	0xbccbc4f0	-0.02487418
168	0x3d9bd1a8	0.07608348
169	0xbd76f9b8	-0.060296744
170	0x3db374b0	0.08762491
171	0xbe3971e6	-0.18109855
172	0xbe16890e	-0.1470072
173	0xbe01f174	-0.12689763
174	0x3e6b444c	0.22975272
175	0xbd89c564	-0.067271024
176	0xba32f000	-0.0006825924
177	0xbdf80fcc	-0.12112388
178	0x3e7f8ff0	0.24957252
179	0x3e7a070e	0.24416754
180	0xbe411260	-0.18854666
181	0xbe4f8810	-0.20266747
182	0xbe420bd4	-0.18949825
183	0xba9e0800	-0.0012056828
184	0xbd8282c4	-0.06372598
185	0xbe27904e	-0.16363642
186	0xbdb7a3e0	-0.089668036
187	0x3d417718	0.047232717
188	0xbe05c1f4	-0.13062268
189	0x3d62e688	0.055395633
190	0xbd6ad1c8	-0.05732897
191	0xbdf818b0	-0.12114084
192	0xbc4368e8	-0.011926867
193	0x3e582ab9	0.21110047
194	0xbd8b433f	-0.067999355
195	0x3c5e71c3	0.013576928
196	0xbdbccf20	-0.092191935
197	0x3e80bfe1	0.25146392
198	0xbe6d6c9f	-0.23185967
199	0xbe6f93f9	-0.23396291
200	0x3e802533	0.2502838
201	0xbe162027	-0.14660703
202	0x3cee32b2	0.029076908
203	0xbd86c946	-0.065813586
204	0xbd40a179	-0.047028992
205	0xbd4b10de	-0.049576633
206	0x3e284a7d	0.16434665
207	0x3c885fef	0.016647307
208	0xbe88aace	-0.26692814
209	0xbe113eb7	-0.1418408
210	0xbd894898	-0.06703299
211	0x3e031529	0.1280104
212	0xbe25aa8e	-0.16178343
213	0x3e77da9a	0.24204484
214	0xbd4d4b78	-0.0501208
215	0xbd1fbacb	-0.0389965
216	0x3e4ce8e3	0.20010714
217	0x3dff978e	0.12480079
218	0x3e23f021	0.1600957
219	0x3de07816	0.109604046
220	0xbd8f5694	-0.06998935
221	0xbe233872	-0.15939501
222	0xbc535e8d	-0.012900961
223	0x3e58f079	0.21185483
224	0xbdabd65c	-0.08390495
225	0xbe6d681e	-0.23184249
226	0x3dd1e224	0.10248211
227	0x3e79356c	0.24336785
228	0xbd91c200	-0.07117081
229	0xbe53f95a	-0.20700589
230	0xbe683510	-0.22676492
231	0x3d804e90	0.062649846
232	0xbc9b12f0	-0.018929929
233	0xbe0146d8	-0.12624681
234	0x3d4efba8	0.050532967
235	0x3dc26fc0	0.09493971
236	0x3e4b9a06	0.19882974
237	0x3e46c0fc	0.19409555
238	0xbd1946b0	-0.03742093
239	0xbe61bb7e	-0.22044179
240	0xbe3b29c0	-0.18277645
241	0x3e689e60	0.22716665
242	0x3de6e115	0.112734
243	0x3dd9605d	0.10614083
244	0xbe5d7f20	-0.21630526
245	0x3e661d40	0.22472095
246	0x3e6c4e31	0.23076703
247	0x3e60922b	0.21930759
248	0xbe5cdea3	-0.21569304
249	0xbd88d581	-0.06681348
250	0xbe007cfa	-0.12547675
251	0x3e995aea	0.29952174
252	0xbde8feb7	-0.11376708
253	0xbdf7e273	-0.12103739
254	0x3dff9a34	0.12480584
255	0xbdf81113	-0.12112632

fc3.bias f4 [16]
0	0xbdfc2bdc	-0.12313053
1	0xbd259f0a	-0.040434875
2	0xbbc6eb5b	-0.006070537
3	0xbe5ba935	-0.21451266
4	0x3e4281f0	0.1899488
5	0xbdb3fa22	-0.087879434
6	0x3db34ef8	0.087552965
7	0x3e7015dc	0.23445839
8	0x3e12bfa7	0.14330922
9	0x3d4d8ab9	0.050181124
10	0x3e59d1c4	0.21271425
11	0x3d09a708	0.03360656
12	0xbe09a857	-0.13443123
13	0x3e5f4502	0.21803668
14	0x3d725c60	0.059170127
15	0xbe67ea66	-0.2264801

fc4.weight f4 [1, 16]
0	0xbd91c318	-0.07117289
1	0xbe312a51	-0.17301299
2	0x3e5a2b5e	0.21305606
3	0xbd3cc5a0	-0.046086907
4	0xbe6b1e54	-0.22960788
5	0xbd97d7e9	-0.074142285
6	0x3e18478d	0.14871044
7	0x3d70c27f	0.058779236
8	0x3d9464cc	0.07245788
9	0x3c934385	0.017976532
10	0x3dbee218	0.09320468
11	0xbd797fe8	-0.060912997
12	0xbdd213d4	-0.10257688
13	0xbe711739	-0.23544015
14	0xbe40dab0	-0.18833423
15	0x3dceb913	0.10093894
