pth_models/best_model.pth (torch, 4815 bytes, 7 tensors)

fc1.weight f4 [16, 4]
0	0xbb755400	-0.00374341
1	0x3e89545e	0.2682218
2	0xbed2b316	-0.41152257
3	0xbebc6680	-0.3679695
4	0xbaeba6b8	-0.0017978763
5	0x3d2a961c	0.04164706
6	0xbd0fd955	-0.035119373
7	0x3f169456	0.5882009
8	0xbd35bf70	-0.044372022
9	0x3e077b4c	0.13230628
10	0xbe1abbac	-0.15110654
11	0xbdc94870	-0.098282695
12	0xbef491b8	-0.47767425
13	0xbea98b52	-0.33114105
14	0xbe530ee8	-0.20611155
15	0x3c97bb00	0.018521786
16	0x3e41b91d	0.18918271
17	0x3e9b5142	0.30335432
18	0xbe7f59dd	-0.24936624
19	0xbe6894f3	-0.2271307
20	0x3e2e437f	0.17017935
21	0x3ed3252c	0.41239297
22	0xbd0634f2	-0.032765336
23	0x3eb96535	0.36210027
24	0xbda50d40	-0.08059168
25	0x3d58b510	0.05290705
26	0x3ee7cd4a	0.4527381
27	0xbeed7bce	-0.46383518
28	0xbeb741c6	-0.3579237
29	0xbe240859	-0.1601881
30	0xbde8babb	-0.11363741
31	0x3ecbc7d5	0.39800897
32	0xbea5ef1a	-0.32408983
33	0xbe6bb0c0	-0.23016644
34	0xbeb2da1a	-0.34932023
35	0xbeefc276	-0.4682805
36	0xbe3b16cc	-0.18270415
37	0x3ee79533	0.45231017
38	0x3e80756d	0.2508959
39	0x3e861793	0.2618986
40	0x3d0015dc	0.031270847
41	0xbe897c31	-0.26852563
42	0xbcf3cca7	-0.029760672
43	0xbeec43eb	-0.46145567
44	0xbe9c4d8e	-0.3052792
45	0xbe6cc765	-0.23122938
46	0x3e0818cc	0.1329071
47	0x3ea47c9b	0.32126316
48	0xbdbe571b	-0.09293958
49	0x3d600cf8	0.054699868
50	0x3e89571c	0.26824272
51	0x3f12244d	0.5708664
52	0x3e4cd09b	0.20001452
53	0x3d4ee81a	0.050514318
54	0x3e52187f	0.20517157
55	0xbe952baa	-0.29134876
56	0x3dc81613	0.09769835
57	0xbecc4665	-0.39897457
58	0xbeeb6cb9	-0.45981386
59	0xbe8148c6	-0.25250834
60	0x3e6061bf	0.21912287
61	0x3e54edbf	0.20793818
62	0xbe453806	-0.19259652
63	0x3e12448d	0.14283963

fc1.bias f4 [16]
0	0x3e8c896e	0.274486
1	0x3d88d72e	0.06681667
2	0x3c9c6440	0.019090772
3	0x3ded4400	0.115852356
4	0x3e9cb3eb	0.30606017
5	0x3ef19877	0.47186634
6	0xbec54796	-0.38531178
7	0xbe5e7a76	-0.21726403
8	0x3e493898	0.19650495
9	0x3edee1d6	0.43531674
10	0x3eddcc75	0.4332005
11	0x3ef07e3f	0.46971318
12	0x3e30784e	0.17233393
13	0xbee14c01	-0.440033
14	0x3d371f35	0.044707496
15	0xbea12bb2	-0.3147865

fc2.weight f4 [16, 16]
0	0xbe6e948c	-0.23298854
1	0x3ebcdfc6	0.36889476
2	0x3e42a6f0	0.19008994
3	0xbe7f5dfe	-0.24938199
4	0x3dcbb916	0.09947412
5	0x3abcbd8c	0.0014399751
6	0xbd2882b8	-0.041140288
7	0xbda6a9a6	-0.081378266
8	0x3dc4e48c	0.09613904
9	0xbdf810b2	-0.121125594
10	0x3dc49f00	0.09600639
11	0x3e10558d	0.14095135
12	0x3e4f40a0	0.20239496
13	0x3d850561	0.064951666
14	0xbe861562	-0.2618819
15	0xbddeb623	-0.108745836
16	0x3dffa638	0.124828756
17	0xbc9da7fa	-0.019245137
18	0xbe47b396	-0.195021
19	0xbe1368e8	-0.14395487
20	0x3e6a9aa3	0.22910552
21	0x3e2646a1	0.1623788
22	0xbddf3eb0	-0.109006286
23	0xbd04deb0	-0.032438934
24	0xbe73dd78	-0.23814952
25	0x3c95b60f	0.018275289
26	0xbe455bcf	-0.19273303
27	0xbe377c5f	-0.17918538
28	0x3adbc72a	0.001676773
29	0x3d027dfd	0.031858433
30	0xbddd1c87	-0.10796457
31	0x3e11ad6a	0.14226308
32	0xbe1bc938	-0.15213478
33	0x3e80596f	0.25068232
34	0x3e2f6fd0	0.17132497
35	0xbe57e164	-0.21082073
36	0xbddf090a	-0.10890396
37	0x3d0630d2	0.032761402
38	0x3d156718	0.03647527
39	0x3dab3a5b	0.0836074
40	0x3dc8ec5c	0.09810707
41	0x3cf2f26e	0.029656615
42	0xbdf9d1cc	-0.12198219
43	0x3df64845	0.12025503
44	0xbe59f229	-0.21283783
45	0x3c6a1ed4	0.014289577
46	0xbd6f7e5a	-0.058470108
47	0xbdd83e68	-0.10558778
48	0xbdb31d5c	-0.08745834
49	0xbe246b99	-0.1605667
50	0xbd59d200	-0.053178787
51	0x3d5ae2f8	0.05343911
52	0xbe228601	-0.15871431
53	0xbc0e5a1f	-0.008688479
54	0x3e374200	0.17896271
55	0xbd885c57	-0.066582374
56	0x3be3ac80	0.006948054
57	0xbd873738	-0.06602329
58	0x3d58e4a7	0.052952435
59	0x3ddbc39c	0.10730669
60	0x3e4773e7	0.19477807
61	0x3e265a0d	0.16245289
62	0x3e76afd6	0.24090514
63	0xbc643b34	-0.013930131
64	0xbe65f866	-0.22458038
65	0xbdf2ba40	-0.118519306
66	0x3e2e4fce	0.1702263
67	0xbad46b00	-0.0016206205
68	0xbdfe7cdc	-0.12426159
69	0xbe442d02	-0.19157794
70	0xbe6f9400	-0.23396301
71	0xbe5810ec	-0.21100205
72	0xbd4fb470	-0.050709188
73	0x3e0c6456	0.1371015
74	0x3e0a6774	0.13516027
75	0xbe76e502	-0.24110797
76	0x3e1fb02e	0.15594551
77	0xbe48528a	-0.19562736
78	0xbd587bf0	-0.05285257
79	0xbdcf9a1c	-0.10136816
80	0xbd453cf0	-0.048153818
81	0xbe3937a1	-0.18087627
82	0xbe65b8ba	-0.22433749
83	0xbe5d0a44	-0.21585947
84	0xbd3d5c51	-0.046230618
85	0xbb7ce7f5	-0.0038590406
86	0xbde896b8	-0.11356872
87	0x3dfabb0f	0.1224271
88	0xbe666a3a	-0.2250146
89	0xbc01cc9d	-0.007922319
90	0x3e5b4f48	0.21416962
91	0xbdb36d14	-0.087610394
92	0x3e61d9b5	0.22055705
93	0x3dab94d6	0.083779976
94	0xbe6dda8c	-0.232279
95	0x3e1ab0b1	0.15106465
96	0xbcec53f0	-0.028848618
97	0xbe8daccf	-0.27670905
98	0x3e4cb614	0.19991332
99	0xbe4edf54	-0.2020238
100	0x3caa6028	0.020797804
101	0xbd6f0482	-0.05835391
102	0x3e36d016	0.17852816
103	0x3d7e2a1b	0.062051874
104	0x3df604cc	0.12012634
105	0x3db4d140	0.08828974
106	0xbd8428fe	-0.06453131
107	0xbd575a50	-0.052576363
108	0xbe80c4db	-0.2515019
109	0x3e04f572	0.12984255
110	0x3e459f2c	0.19299
111	0x3e28fe6d	0.16503306
112	0xbe3493ac	-0.17634457
113	0xbd467ffe	-0.048461907
114	0xbe347690	-0.17623353
115	0xbe0cec88	-0.13762105
116	0xbe1bfb9f	-0.15232705
117	0x3da1608c	0.07879743
118	0xbe188dc4	-0.1489783
119	0x3cb4abb1	0.022054525
120	0x3c2c4fa0	0.010517031
121	0x3e3dfc0f	0.18553184
122	0xbe46c6b5	-0.19411738
123	0xbe25923c	-0.16169065
124	0xbdff4181	-0.12463666
125	0x3e2cc15f	0.1687064
126	0xbdc4b888	-0.09605509
127	0x3e511f44	0.20422083
128	0x3db924a0	0.09040189
129	0x3e58027c	0.21094698
130	0xbaf3ed00	-0.001861006
131	0xbd4a6d08	-0.049420387
132	0x3d150456	0.03638109
133	0xbd55578a	-0.052085437
134	0xbae63e00	-0.0017566085
135	0xbd909dd0	-0.0706135
136	0xbe483e98	-0.19555128
137	0xbe52b3a7	-0.20576344
138	0x3e520ff9	0.20513906
139	0xbd3bcdc9	-0.04585055
140	0x3c947c47	0.018125666
141	0x3e80f61d	0.2518777
142	0x3dc214a4	0.09476593
143	0x3c461459	0.012089812
144	0xbe5dda26	-0.21665248
145	0x3df221b0	0.11822832
146	0xbe365808	-0.17807019
147	0xbd9156a8	-0.070966065
148	0x3ad19cab	0.0015992125
149	0xbd29f777	-0.041495766
150	0x3b333680	0.0027345717
151	0x3e36397e	0.17795369
152	0x3cffab80	0.031209707
153	0x3e4f4f49	0.20245089
154	0x3e1c9930	0.15292811
155	0xbe2fc0f8	-0.17163455
156	0x3dbc7546	0.09202056
157	0xbe3a95fc	-0.18221277
158	0xbf04039e	-0.5156802
159	0x3dac1df1	0.08404148
160	0x3da90ef0	0.08254802
161	0x3e27c137	0.163823
162	0xbda4d228	-0.080478966
163	0x39d1d400	0.0004002154
164	0x3dc9c5fb	0.09852215
165	0xbe87670c	-0.26445806
166	0x3e391542	0.18074515
167	0xbe5df26d	-0.2167451
168	0x3b61d000	0.0034456253
169	0xbd6f459f	-0.058416005
170	0xbe06d40a	-0.13166824
171	0x3c82188b	0.015880844
172	0x3e3c0079	0.18359555
173	0xbd95aae8	-0.073079884
174	0xbe17fc56	-0.14842352
175	0xbdea8729	-0.11451561
176	0xbe7dbbe6	-0.24778709
177	0x3e596d55	0.21233113
178	0xbdf5e520	-0.12006593
179	0xbe2ad6d0	-0.16683507
180	0xbdd1e92f	-0.10249554
181	0x3ddb4476	0.10706417
182	0x3e079224	0.13239342
183	0x3e27c8df	0.1638522
184	0x3db9b6d8	0.09068078
185	0xbd95c579	-0.073130555
186	0xbd8f13d4	-0.06986204
187	0x3dbd4629	0.092418976
188	0x3e41bbf0	0.18919349
189	0xbd8c5a60	-0.06853175
190	0x3e999647	0.29997465
191	0xbdf60b7e	-0.12013911
192	0xbe720a42	-0.23636726
193	0xbdf4a3f0	-0.11945331
194	0xbe0fa9a8	-0.14029562
195	0xbe643e50	-0.22289395
196	0x3e57f6df	0.21090268
197	0xbe2ec151	-0.17065932
198	0xbce8fbd0	-0.028440386
199	0x3d92af48	0.071623385
200	0x3c027de0	0.007964581
201	0xbe2c41fa	-0.16822043
202	0xbe5647a6	-0.20925769
203	0x3e4c0d98	0.1992706
204	0x3e11ce59	0.14238872
205	0x3e4c2669	0.19936527
206	0xbdbc040f	-0.091804616
207	0x3d85c425	0.06531552
208	0xbd6a2a18	-0.05716905
209	0xbe1ab133	-0.15106659
210	0xbe1bea52	-0.15226105
211	0x3dad28ac	0.08455023
212	0x3d8ebe7c	0.06969926
213	0xbc6d421f	-0.0144810965
214	0xbd664cc0	-0.05622554
215	0xbe27828f	-0.16358398
216	0x3e310914	0.1728862
217	0xbe3e9294	-0.18610603
218	0x3dc026dc	0.09382412
219	0xbdac296c	-0.08406338
220	0xbe37d683	-0.17952923
221	0x3d126ca6	0.035748146
222	0xbe0e53ff	-0.1389923
223	0x3d45a3f3	0.048252057
224	0x3d491810	0.049095213
225	0xbdc5aa07	-0.09651571
226	0x3d2a7e98	0.041624635
227	0x3dda1364	0.1064823
228	0x3daaef3e	0.08346413
229	0xbd404531	-0.046940986
230	0xbe51dd9a	-0.2049469
231	0xbd1dda90	-0.038538516
232	0x3db1d250	0.08682692
233	0xbdbad12c	-0.091219276
234	0x3d9f7162	0.07785298
235	0x3e2a7c86	0.16649064
236	0xbe0dd503	-0.13850789
237	0xbc5b695d	-0.01339182
238	0x3db2ddb6	0.08733694
239	0x3b85a3ee	0.00407838
240	0x3cab1290	0.020882875
241	0x3de26b9e	0.110556826
242	0xbe4940fa	-0.19653693
243	0x3ca0f2e0	0.019647062
244	0x3e35b555	0.17744954
245	0x3e6b1dea	0.2296063
246	0x3e1676d8	0.14693773
247	0x3b6d11e5	0.0036173996
248	0x3def1c7c	0.11675355
249	0xbe16f2bc	-0.14741033
250	0xbe518d18	-0.20463979
251	0xbe6c8d1c	-0.23100704
252	0x3e711909	0.23544706
253	0x3e267833	0.1625679
254	0xbe2d205e	-0.16906878
255	0x3dd12eac	0.1021398

fc2.bias f4 [16]
0	0x3e89cd4d	0.26914445
1	0x3e7fa831	0.24966504
2	0x3e7a5ca4	0.24449402
3	0x3e443af0	0.19163108
4	0xbd6ac2f0	-0.057314813
5	0xbdb76ac8	-0.08955914
6	0x3e52007c	0.20507997
7	0x3e0e4333	0.13892822
8	0xbe1b44a5	-0.15162905
9	0x3e580e62	0.21099237
10	0x3dc87633	0.0978817
11	0x3dc2d91c	0.095140666
12	0xbe242091	-0.16028048
13	0x3d8610f4	0.06546202
14	0xbdd715f7	-0.10502236
15	0x3e45e976	0.1932734

fc3.weight f4 [16, 16]
0	0xbd384258	-0.044985145
1	0x3dc753f8	0.09732813
2	0x3d35e280	0.04440546
3	0x3dd9d6f8	0.10636705
4	0xbdadfde0	-0.084956884
5	0x3df9a2f4	0.12189284
6	0xbe32cefe	-0.17461774
7	0x3d674688	0.05646375
8	0xbe2d3520	-0.16914797
9	0xbe7c8dba	-0.2466344
10	0xbe4d9510	-0.20076394
11	0x3e4a1ab6	0.19736752
12	0x3e0a8150	0.13525891
13	0x3e702ee8	0.23455393
14	0x3e4d1648	0.20028031
15	0xbe649ea0	-0.22326136
16	0xbe4af3b0	-0.19819522
17	0xbd0e00ae	-0.034668617
18	0xbe19675c	-0.14980835
19	0x3e33c7ec	0.17556733
20	0xbe4189ba	-0.18900195
21	0xbdecf2ab	-0.11569723
22	0xbe71b770	-0.23605132
23	0xbe0b4cff	-0.1360359
24	0x3e56b8a8	0.20968878
25	0x3e4e8472	0.20167711
26	0x3e0258e0	0.12729216
27	0x3e1ecd76	0.15508065
28	0x3e699363	0.2281013
29	0xbd6bb0e7	-0.057541754
30	0x3deca64b	0.11555155
31	0x3e691dfb	0.22765343
32	0x3de1b7ac	0.11021361
33	0x3e79a238	0.24378288
34	0x3deef128	0.11667091
35	0x3e1ca12f	0.15295862
36	0xbdb3322c	-0.08749804
37	0x3de80bcc	0.11330375
38	0x3cbb096b	0.02283164
39	0xbd872a14	-0.06599823
40	0xbe14f263	-0.14545588
41	0xbe0cd1c5	-0.13751896
42	0xbe0fdf5b	-0.14050047
43	0x3e52b6e2	0.20577577
44	0x3e2fa59c	0.17153019
45	0xbd1082f9	-0.035281155
46	0xbe1a35dc	-0.15059608
47	0x3e40616e	0.18787166
48	0x3e31fb94	0.17381126
49	0x3cc1d77a	0.023662318
50	0xbc9c1799	-0.019054221
51	0x3e6c8793	0.23098592
52	0x3dd160ac	0.10223517
53	0xbe3c84b2	-0.18409994
54	0x3e79efed	0.2440793
55	0x3e47ca9c	0.19510883
56	0xbdb3c380	-0.08777523
57	0x3e3df488	0.18550313
58	0xbe2e8d09	-0.17045988
59	0xbdc98694	-0.09840122
60	0x3e5ea905	0.21744163
61	0x3c84f60b	0.016230604
62	0xbe300058	-0.17187631
63	0xbda27814	-0.07933059
64	0xbdd6a064	-0.10479811
65	0xbd2de5a6	-0.042455338
66	0x3f4717b3	0.7777054
67	0x3e6ed54c	0.23323554
68	0x3c5b4d20	0.013385087
69	0xbe17932b	-0.14802234
70	0x3c9647eb	0.01834484
71	0x3e00d72a	0.12582079
72	0x3e033632	0.12813643
73	0xbd356324	-0.044284
74	0xbd373cb0	-0.04473561
75	0xbe5603ee	-0.20899937
76	0xbdce7a3d	-0.10081909
77	0x3dc5d569	0.096598454
78	0xbe3010a2	-0.17193845
79	0x3dc880b9	0.09790177
80	0x3e7e68eb	0.2484471
81	0x3cd99817	0.02656178
82	0xbde4d043	-0.11172535
83	0xbdfdf78b	-0.12400731
84	0x3d5f9ad8	0.05459103
85	0xbe38a21d	-0.18030591
86	0x3d6d2dcd	0.057905007
87	0xbe6dc63e	-0.23220155
88	0xbe805777	-0.2506673
89	0xbe2f9cba	-0.1714963
90	0xbdac7059	-0.08419866
91	0x3e409933	0.18808441
92	0xbe7c354d	-0.24629708
93	0x3e54c8ae	0.20779678
94	0xbdcccfcc	-0.100005716
95	0x3dab9a37	0.083790235
96	0x3c126a56	0.008936485
97	0xbe69d227	-0.22834073
98	0x3e510894	0.20413429
99	0x3e168ab4	0.14701349
100	0x3e7e7680	0.24849892
101	0x3e002bba	0.1251668
102	0xbe28fa48	-0.16501725
103	0x3e521a91	0.20517947
104	0x3c5c2320	0.013436109
105	0x3df3d052	0.11904968
106	0xbe4d44ac	-0.20045727
107	0xbd9349cc	-0.0719181
108	0xbe7b5c54	-0.24546939
109	0xbdc76b90	-0.09737313
110	0x3d5ce8a0	0.053932786
111	0xbe499e21	-0.19689228
112	0x3de76a75	0.11299602
113	0x3e02b646	0.12764844
114	0x3c237e8c	0.009978902
115	0xbe2e5789	-0.1702558
116	0xbe467b5a	-0.19382992
117	0xbdac5fbf	-0.084166996
118	0x3dd3cd00	0.10341835
119	0x3e75a73c	0.23989576
120	0x3e0e1242	0.13874152
121	0xbd12a173	-0.0357985
122	0x3e0c4e01	0.13701631
123	0xbe542824	-0.20718437
124	0xbe616c01	-0.22013856
125	0x3de029f5	0.10945503
126	0xbe177a3c	-0.14792722
127	0x3dea6f36	0.11446993
128	0xbe55918c	-0.20856303
129	0xbe0561d5	-0.13025601
130	0xbe40f585	-0.18843658
131	0x3e02b23c	0.12763304
132	0xbcd0ae60	-0.025473773
133	0x3e3deaac	0.18546551
134	0x3e18182e	0.14852974
135	0x3e06ea9b	0.13175432
136	0x3b4f6a0a	0.0031648898
137	0xbd6d0091	-0.05786187
138	0xbd5ea668	-0.054357916
139	0x3c064de7	0.008197284
140	0x3df08370	0.1174382
141	0xbe3a9e56	-0.18224463
142	0x3e507f38	0.2036103
143	0xbd068e6a	-0.03285066
144	0xbe3bab0e	-0.18326971
145	0xbe127981	-0.14304163
146	0x3e550240	0.2080164
147	0x3e65599c	0.22397465
148	0xbe6d20aa	-0.23156992
149	0x3e2c32ca	0.1681625
150	0x3df10c41	0.11769915
151	0x3e0f71ee	0.14008304
152	0x3e52119a	0.20514527
153	0xbe0794f8	-0.13240421
154	0x3df8dd79	0.121516176
155	0x3e0e442c	0.13893193
156	0xbda74b6f	-0.08168685
157	0x3d9a77d5	0.075423874
158	0xbda298ec	-0.07939324
159	0x3e16f1db	0.14740698
160	0xbd8e0e88	-0.06936365
161	0xbdbedf14	-0.093198925
162	0x3d80e540	0.06293726
163	0x3db59a68	0.08867341
164	0xbdfa2610	-0.12214291
165	0x3cb50a30	0.022099584
166	0x3e145c74	0.14488393
167	0xbccbc4f0	-0.02487418
168	0x3d9bd1a8	0.07608348
169	0xbd76f9b8	-0.060296744
170	0x3db374b0	0.08762491
171	0xbe3971e6	-0.18109855
172	0xbe16890e	-0.1470072
173	0xbe01f174	-0.12689763
174	0x3e6b444c	0.22975272
175	0xbd89c564	-0.067271024
176	0xba32f000	-0.0006825924
177	0xbdf80fcc	-0.12112388
178	0x3e7f8ff0	0.24957252
179	0x3e7a070e	0.24416754
180	0xbe411260	-0.18854666
181	0xbe4f8810	-0.20266747
182	0xbe420bd4	-0.18949825
183	0xba9e0800	-0.0012056828
184	0xbd8282c4	-0.06372598
185	0xbe27904e	-0.16363642
186	0xbdb7a3e0	-0.089668036
187	0x3d417718	0.047232717
188	0xbe05c1f4	-0.13062268
189	0x3d62e688	0.055395633
190	0xbd6ad1c8	-0.05732897
191	0xbdf818b0	-0.12114084
192	0xbc7f754b	-0.01559193
193	0x3e58352f	0.21114038
194	0xbd87c709	-0.0662976
195	0x3c5b9f8d	0.013404739
196	0xbdbccf20	-0.092191935
197	0x3e80c288	0.25148416
198	0xbe6d71d8	-0.23187959
199	0xbe6f8832	-0.23391798
200	0x3e801df3	0.2502285
201	0xbe15131f	-0.14558075
202	0x3cee32b2	0.029076908
203	0xbd88ae6f	-0.066738956
204	0xbd409489	-0.047016654
205	0xbd4ac19b	-0.049501043
206	0x3e283347	0.16425811
207	0x3c88c2f5	0.016694525
208	0xbe8abc20	-0.27096653
209	0xbe11346d	-0.14180155
210	0xbd94b2b8	-0.072606504
211	0x3e02e86d	0.12783976
212	0xbe25aa8e	-0.16178343
213	0x3e77e234	0.24207383
214	0xbd4d6663	-0.05014647
215	0xbd1f8466	-0.038944624
216	0x3e4cd2e0	0.20002317
217	0x3dfb3032	0.12265052
218	0x3e23f021	0.1600957
219	0x3dda2a85	0.10652641
220	0xbd8f518a	-0.06997974
221	0xbe232781	-0.15933038
222	0xbc54de3e	-0.01299244
223	0x3e58fa0a	0.21189132
224	0xbdabd65c	-0.08390495
225	0xbe6d681e	-0.23184249
226	0x3dd1e224	0.10248211
227	0x3e79356c	0.24336785
228	0xbd91c200	-0.07117081
229	0xbe53f95a	-0.20700589
230	0xbe683510	-0.22676492
231	0x3d804e90	0.062649846
232	0xbc9b12f0	-0.018929929
233	0xbe0146d8	-0.12624681
234	0x3d4efba8	0.050532967
235	0x3dc26fc0	0.09493971
236	0x3e4b9a06	0.19882974
237	0x3e46c0fc	0.19409555
238	0xbd1946b0	-0.03742093
239	0xbe61bb7e	-0.22044179
240	0xbe3b842c	-0.18312138
241	0x3e6894be	0.2271299
242	0x3de1b9c1	0.11021758
243	0x3dd9bbd6	0.1063153
244	0xbe5d7f20	-0.21630526
245	0x3e66162a	0.22469392
246	0x3e6c539d	0.23078771
247	0x3e608760	0.21926641
248	0xbe5cc8c2	-0.21560958
249	0xbda01695	-0.07816807
250	0xbe007cfa	-0.12547675
251	0x3e96083f	0.29303166
252	0xbde90308	-0.11377531
253	0xbdf808d6	-0.1211106
254	0x3dffc851	0.12489379
255	0xbdf8280e	-0.12117015

fc3.bias f4 [16]
0	0xbdfc2bdc	-0.12313053
1	0xbcbab9d5	-0.02279369
2	0xbcc16d37	-0.023611648
3	0xbe494e64	-0.1965881
4	0x3e548bf4	0.20756513
5	0xbdb49be5	-0.08818797
6	0x3db34ef8	0.087552965
7	0x3e5e66f6	0.21718964
8	0x3e01038c	0.1259901
9	0x3d08ed3a	0.033429362
10	0x3e59d1c4	0.21271425
11	0x3d09a708	0.03360656
12	0xbdef242d	-0.11676822
13	0x3e714f44	0.23565394
14	0x3d725c60	0.059170127
15	0xbe79aed9	-0.24383105

fc4.weight f4 [1, 16]
0	0xbd91c318	-0.07117289
1	0xbe3120cf	-0.17297672
2	0x3e5a1f17	0.21300922
3	0xbd3ca3fe	-0.046054833
4	0xbe6b1b52	-0.2295964
5	0xbd93530c	-0.07193574
6	0x3e18478d	0.14871044
7	0x3d7083ec	0.05871956
8	0x3d948f62	0.072539106
9	0x3c9396df	0.018016277
10	0x3dbee218	0.09320468
11	0xbd797fe8	-0.060912997
12	0xbdd1f23c	-0.10251281
13	0xbe710fe5	-0.2354122
14	0xbe40dab0	-0.18833423
15	0x3dceaebb	0.10091921
