pth_models/model_soc_pinn.pth (torch, 36815 bytes, 7 tensors)

fc1.weight f4 [64, 3]
000000 21 2c 1d 3d 18 6b 13 bf 5f 2f 0b be 92 30 09 3f
       0.038372163 -0.5758529 -0.1359229 0.5358974
000010 2e a2 11 3f 71 3b aa 3d 08 01 1e be f1 d0 df be
       0.5688809 0.08312119 -0.15430081 -0.43714097
000020 9b db c4 be 42 8b 7d bc 3f 99 dd bc 7e e5 df 3e
       -0.38448796 -0.015475096 -0.027050612 0.43729776
000030 cc f6 0b be cf 7c d5 be 46 60 17 be c2 ac 68 be
       -0.13668364 -0.41696784 -0.14782819 -0.22722152
000040 d4 50 f1 be 0f 50 5f 3e 7b ca cf 3d 6d 03 d0 be
       -0.4713198 0.21807884 0.10146042 -0.40627614
000050 e9 11 e6 3e 90 ac 8a 3e d5 72 9f 3e 37 ff 9e 3d
       0.4493554 0.2708478 0.31142297 0.07763522
000060 05 5e 08 3f 47 01 0e bf 2a 9e 03 3c d8 c3 ba 3e
       0.5326846 -0.554707 0.008033315 0.36477542
000070 1f 17 9c 3e 87 e7 61 bd ec 89 05 bf 8b af a9 3d
       0.3048639 -0.055152442 -0.5216358 0.08285435
000080 e5 3d a8 be da fa e6 3e 0c e4 a6 3e 0a 3c d1 be
       -0.32859722 0.4511326 0.3259586 -0.4086612
000090 4c f4 c2 3e af 51 e9 be c3 02 78 be 2d 9f f1 3e
       0.3807701 -0.45570132 -0.24219804 0.47191754
0000a0 47 b2 31 be 73 3e e1 3c a9 09 8c bd da f6 a4 bb
       -0.17353164 0.027495598 -0.0683778 -0.00503431
0000b0 a9 b3 b6 3e a9 de f4 3e 8f 1b 04 3f 2f 55 13 be
       0.35683945 0.47826126 0.5160455 -0.14387964
0000c0 89 4a 15 3f f2 82 83 be 12 e9 b1 3e a8 98 23 3d
       0.58316857 -0.2568584 0.3474813 0.039940506
0000d0 49 a0 04 bf 8a be b2 3c 87 ea a5 3e ae 63 9a be
       -0.51807076 0.021819372 0.32405493 -0.30154175
0000e0 85 39 75 bd 6a 8e eb be 26 4d cd 3e 1a c2 a8 be
       -0.059869308 -0.4600709 0.40097922 -0.32960588
0000f0 b0 e6 cb be 5a 65 18 be 69 45 b1 3e 48 66 04 3f
       -0.39824438 -0.14882413 0.34623268 0.5171857
000100 3f 64 85 3e 4d 60 50 3c c5 4b 97 be 8a cd 33 be
       0.26053044 0.012718272 -0.29549995 -0.17558876
000110 68 cc d3 be e8 48 ce be 13 a2 09 3f 8b 5e 98 3d
       -0.41366887 -0.40289998 0.5376293 0.07439908
000120 92 6c 05 3f 99 c1 ea 3e 7a 12 db be 78 41 8d be
       0.5211879 0.45850828 -0.42787534 -0.2758901
000130 40 99 24 3e 20 b1 bb 3d 1b 34 1f bd f4 ca 02 3f
       0.16074085 0.09164643 -0.03886805 0.5109093
000140 39 d9 ef 3b b9 fb b2 3e 22 bb c7 3e 7a 44 04 3e
       0.007319596 0.34957674 0.39009959 0.12916747
000150 41 b2 c8 bc cd 60 06 3f c9 91 9d be d0 e6 e1 be
       -0.02449906 0.52491456 -0.30775288 -0.44121408
000160 aa bd da be 3e 9d d4 3d 7e bb 08 bf e5 61 9a bd
       -0.42722827 0.10381554 -0.5341109 -0.07538203
000170 d9 82 c7 3d 16 0e f6 be fc 7e 03 3c 3c 74 56 3c
       0.09741754 -0.48057622 0.008025881 0.013089236
000180 18 55 01 3f 8f 39 08 bf a3 e8 7b be 23 55 df be
       0.5052047 -0.5321283 -0.24600463 -0.43619642
000190 ee dd 61 3b 8d b4 fb 3e 26 7e e4 3e 75 2f 8b bd
       0.0034464556 0.49161187 0.44627494 -0.06796161
0001a0 2d 64 59 bc b3 c4 dd 3e 9f b8 75 bc ab 11 91 be
       -0.013268513 0.43314132 -0.01499763 -0.28333792
0001b0 73 0f a3 3e cb 55 0a be 96 14 9e 3e f0 34 81 be
       0.31847724 -0.1350929 0.3087508 -0.252357
0001c0 e6 99 c7 be 3d df 8e be 36 a6 11 bf ec 50 8f 3e
       -0.38984603 -0.27904692 -0.5689424 0.27991426
0001d0 4c 32 3e 3e 4a 7a f6 be 95 5a 01 3f 54 aa a7 bc
       0.18573874 -0.48140174 0.5052884 -0.020466961
0001e0 e7 e4 ef be ce 7e 78 3e 10 b8 13 3e ae 13 d5 be
       -0.46854326 0.24267122 0.14425683 -0.41616577
0001f0 7a 94 1f be 61 d1 9e 3e 1c 62 0a 3f 8e 3a 05 3f
       -0.15583983 0.31019118 0.54055953 0.5204247
000200 21 79 2f 3e 9e 29 c3 bd 0f 66 7e 3e e3 f5 ae 3e
       0.17136051 -0.09529422 0.2484362 0.34171972
000210 fb c9 cf be 86 14 96 be 81 62 8e bd 67 4a e1 bb
       -0.40583786 -0.29312533 -0.06952382 -0.0068753245
000220 97 7c 98 be 32 b6 ac be 27 4a e1 3d 26 2f 4f 3c
       -0.29782555 -0.33732754 0.110004716 0.012645518
000230 c1 c4 ab be 60 68 98 be 39 6b 09 3f bf 65 08 bf
       -0.3354855 -0.29767132 0.53679234 -0.5328025
000240 a5 b2 a6 3e 89 93 b8 bd f2 6e 34 be f1 3a bd be
       0.3255817 -0.09012515 -0.17620447 -0.3695903
000250 68 b4 02 3f 6c 92 8d be 60 0f e7 be 9f 97 fd be
       0.5105653 -0.27650774 -0.45128918 -0.4952974
000260 20 aa c7 3e f2 44 e9 3e 3c 0d ed be 27 8f c9 be
       0.38996983 0.45560414 -0.4629916 -0.3936703
000270 cb 08 f7 be 3a c7 07 3e 8d e0 a2 be 5c 81 01 bf
       -0.48248896 0.13259593 -0.31811944 -0.5058801
000280 b4 98 2b 3e dc 44 09 bf 3b 68 31 3e 24 0f cd 3e
       0.1675747 -0.53620696 0.17324917 0.40050614
000290 d3 5d 91 be 4d 55 df 3d 34 b1 0c 3d 55 ae 03 bf
       -0.28391895 0.10904942 0.03434868 -0.51437885
0002a0 b3 07 8f 3d a2 ca b4 3e 0b a8 e3 be 89 29 d8 3c
       0.069838904 0.35310847 -0.44464144 0.026386993
0002b0 0f 61 0d 3e 1a 6c 29 3e 68 df 00 3f 8b 42 f2 3e
       0.13806556 0.16545144 0.5034089 0.47316393
0002c0 6f 58 f4 3e a2 34 a7 be 39 19 d4 3e b1 e4 d3 bd
       0.4772372 -0.32657343 0.41425493 -0.10346354
0002d0 c6 6e f3 3e 7b db 2f 3e cd 93 79 be d3 0c 93 3e
       0.4754545 0.17173569 -0.24372788 0.28720722
0002e0 d3 e6 a3 be d3 8d 07 3f d8 d1 c7 be b1 4d 85 be
       -0.32012042 0.5295078 -0.39027286 -0.26035836
0002f0 a1 51 24 3e 25 57 fe 3e 24 79 d7 be 57 db 87 3e
       0.16046764 0.4967586 -0.4208461 0.2653453

fc1.bias f4 [64]
000000 77 da 14 bf 3a a8 dd 3e 4c 26 0e bf 59 39 a6 3d
       -0.5814585 0.4329241 -0.55527186 0.08116407
000010 b6 c4 95 bd f2 47 b7 be 1c 10 91 bd 42 49 e2 be
       -0.0731291 -0.35797077 -0.07083151 -0.44196516
000020 b2 4c ad 3e e8 81 b4 3e a2 ba b5 3e 58 6e ee be
       0.33847576 0.3525536 0.35493952 -0.4656856
000030 14 4b 80 3e 35 1e 05 3f 1b 18 97 3e a6 fe 9d 3e
       0.2505728 0.5199922 0.2951058 0.30858344
000040 07 75 08 3f a8 3c 3a 3e 2b 3e ab 3d 04 39 33 be
       0.5330357 0.18187201 0.08361467 -0.17502218
000050 c7 02 10 3f 60 13 10 bf a3 e3 e0 3b a8 96 99 3e
       0.5625424 -0.56279564 0.006863074 0.29997754
000060 87 16 58 be e5 bf ef bc f8 50 93 3e 10 99 21 bd
       -0.21102343 -0.029266307 0.28772712 -0.039452612
000070 f4 97 02 be 40 b5 72 be 52 5f a1 3e c9 41 08 3f
       -0.12753278 -0.23701954 0.31518036 0.5322538
000080 11 19 6c be f2 ac da be 89 2c 3e be 78 db 4d 3e
       -0.23056437 -0.42710072 -0.18571676 0.20103252
000090 ce e9 0d bf 3e 05 a6 be 1f d2 5a 3e 40 b4 63 be
       -0.5543488 -0.32425874 0.21369217 -0.22236729
0000a0 2a a8 02 3f b8 f3 0f bf 78 57 82 3d 99 ef 93 be
       0.5103785 -0.5623126 0.063643396 -0.28893736
0000b0 65 35 56 be 38 95 8d bd 1d bd 9c 3e f8 fc 64 3c
       -0.20918806 -0.06913227 0.30613032 0.013976328
0000c0 ae c0 ac be 92 e3 b6 3d 2d d2 72 be 42 6d fd 3e
       -0.33740753 0.08930124 -0.23712988 0.4949742
0000d0 d0 e4 ff 3e 37 21 e5 be 29 3c 0e bf 6c 33 a9 3e
       0.49979258 -0.44751903 -0.5556055 0.33047044
0000e0 d2 c6 91 be 4f 66 45 bb ae 26 0b 3f 0d 12 ca be
       -0.28472 -0.0030120795 0.54355896 -0.39466897
0000f0 50 41 ee 3e 07 66 bd bd 3d 75 03 3d 63 f4 dd be
       0.46534204 -0.09247976 0.03209423 -0.43350515

fc2.weight f4 [64, 64]
000000 e0 0b 3d bd 85 e1 31 bd f4 a8 91 bd fa 6a c5 3d
       -0.046153903 -0.043427963 -0.071123034 0.09639545
000010 3b 64 dd 3d e3 74 c1 bd e5 bf a1 3d e0 84 ab 3d
       0.10810133 -0.094461225 0.07897929 0.08374953
000020 73 17 3b bd 51 f3 11 3e 00 72 c4 ba c4 87 9a 3d
       -0.04567666 0.14252974 -0.0014987588 0.075454265
000030 8f c1 43 bd e6 76 bc 3d 57 3b e5 bd d2 03 70 bd
       -0.047792014 0.092023656 -0.11192959 -0.058597393
000040 92 87 8c 3c ca 7d ef 3c 47 7e b3 bc a0 fa b9 3c
       0.017154489 0.029234786 -0.0219108 0.022702515
000050 54 a1 98 3d 39 f7 8f 3d 80 23 01 bb 61 43 97 3b
       0.07452646 0.07029576 -0.0019704998 0.0046161865
000060 30 78 b0 3c f7 f1 f6 ba c1 89 90 bd a8 da c7 3d
       0.021541685 -0.0018840422 -0.070575245 0.09758502
000070 6c 68 cd 3d b1 5d c1 3d ce 5b dd 3d 4c e0 af bd
       0.100296825 0.09441698 0.10808526 -0.08587703
000080 0b 02 80 bd 1c e3 5c bd a8 52 94 3c 16 ac fd bd
       -0.0625039 -0.053927526 0.01810582 -0.123863384
000090 d2 47 d0 3d f8 ad 3e 3d 96 61 e7 3d 7e 49 6b 3d
       0.10169949 0.04655263 0.1129791 0.057443134
0000a0 19 8c 8a bd c8 63 ae 3d fe 1f 91 bd bd e7 ec 3d
       -0.06765003 0.085151255 -0.0708618 0.11567638
0000b0 15 b6 9c bc 12 3e cc bd 30 3c ce 3d 80 c3 21 bc
       -0.019129792 -0.099727765 0.100700736 -0.009873271
0000c0 46 fb d9 3d 1c 09 84 bd 40 6c d6 3c 20 b8 de bd
       0.1064363 -0.0644705 0.026174664 -0.10874963
0000d0 f0 58 82 bc 14 c5 3a 3d 68 26 bb 3d 8c 1e 50 3d
       -0.01591155 0.045598105 0.09138185 0.05081038
0000e0 c4 a5 0f bd bd 77 e4 3d 3c cb 14 3d d8 a5 76 bd
       -0.035070196 0.11155651 0.036326632 -0.060216755
0000f0 70 91 01 bc ef 62 b7 3d 32 4e cb bd 97 18 ec bd
       -0.00790821 0.08954417 -0.09927024 -0.11528128
000100 36 03 42 3d dd cb 36 3d c0 0b 3e 3c 73 41 af 3d
       0.047366343 0.044628013 0.011599481 0.08557405
000110 ce 39 b7 bd b0 d9 60 3d 1a ca 6b 3d 92 bc 75 3d
       -0.08946572 0.054895103 0.057565786 0.059994288
000120 f5 4c 36 3d e9 72 63 bd 54 95 77 bd bc a9 f3 bd
       0.044506986 -0.05552951 -0.060445145 -0.11897609
000130 ea 33 8b 3a 35 91 7d bd d4 f5 2d bd 45 ba 2a 3c
       0.001062033 -0.06190606 -0.042470768 0.010420387
000140 4d d9 68 3d 2b 70 5b bd d6 40 c1 3d f2 3f 87 3d
       0.05684786 -0.05357377 0.094361946 0.066039935
000150 f2 f0 81 3d 24 36 83 3d fc a2 2d bd e1 83 a9 bd
       0.06344785 0.06406811 -0.042391762 -0.08277107
000160 e0 24 e6 bc ab 5a ef bd 0c 65 36 bc b8 e1 b2 3d
       -0.028093755 -0.116872154 -0.01113249 0.08734459
000170 a8 0c 51 bd f2 d3 c1 bd 3c 61 6c bc c8 8b 95 3d
       -0.05103746 -0.094642535 -0.014427479 0.07302052
000180 be dc f5 bd 59 8a cd bd f9 fb 58 bd 44 a1 c9 3d
       -0.12004994 -0.10036153 -0.052974675 0.09845212
000190 c1 96 c8 bc 20 bd 0d bc 2b d6 05 3d d7 0b 7d bd
       -0.024485948 -0.008651048 0.03267495 -0.06177887
0001a0 f9 c2 a8 b7 97 87 00 bd d4 8f b7 3d b7 c9 a1 ba
       -2.0117952e-05 -0.03137931 0.0896298 -0.0012343441
0001b0 25 05 c7 bd e4 98 25 bd 2c 3d e6 bd 60 d8 62 3d
       -0.09717778 -0.04042901 -0.11242136 0.055382133
0001c0 c0 49 0e bc 00 5b 5b 3a 5b 27 ab bd 5d fa df 3d
       -0.008684576 0.0008367747 -0.08357116 0.10936425
0001d0 2c a6 54 bd c4 12 45 bd 82 24 fd 3d 4c 21 34 bd
       -0.051916286 -0.0481136 0.12360479 -0.043977067
0001e0 dc c5 51 bd 16 f7 fd bc 5c 51 a6 bd 36 f5 b5 3d
       -0.051214084 -0.031001609 -0.08120987 0.08884661
0001f0 58 37 30 3d bd a1 b7 3d 9d 72 06 bd 40 43 57 3c
       0.04302153 0.08966396 -0.032824147 0.013138592
000200 83 da 94 3d 5f 95 09 bd 9c 93 f8 3d 4d 0b 2e bc
       0.0726824 -0.033589717 0.12137529 -0.0106228115
000210 cf 38 7c bd 8b bf dc bc a5 f7 0d 3d 60 fa ca 3d
       -0.061577614 -0.026946804 0.03466 0.099110365
000220 e1 ca 0e 3d 9f c8 d7 bd 00 51 37 bd cc d8 f1 bd
       0.03486145 -0.10536312 -0.044754982 -0.11808929
000230 80 06 fa bc 74 6e 4e 3d 75 fd 34 bb bd 91 1b 3d
       -0.030520678 0.050398305 -0.0027616892 0.037980784
000240 99 69 f7 bd 28 ab 0e bb 79 27 b4 bd 00 ef 01 bb
       -0.12080688 -0.0021769498 -0.08796591 -0.0019826293
000250 e9 c8 d7 3d a2 1d a5 bd 2e 50 c5 3d 5c 65 9f bd
       0.105363674 -0.08062293 0.09634434 -0.07783005
000260 fa e6 a4 bd 57 c5 c1 3b 83 73 ee 3c 4d 07 b6 3d
       -0.08051868 0.0059134173 0.029107815 0.08888111
000270 50 7d 7f 3d 97 94 c1 3c f0 df 3a 3e 62 72 84 3d
       0.062375367 0.023630423 0.18249488 0.06467129
000280 4a 07 ae bc de a4 7e 3c 15 32 03 be 64 bd 92 bd
       -0.02124371 0.015542237 -0.12812074 -0.0716503
000290 ac 3e 89 3d 12 8f a3 3d e5 2f eb 3d 69 6c 9e 3d
       0.06701407 0.07986273 0.114837445 0.07735521
0002a0 3c ee 29 3d f3 99 57 3d c4 c6 9d 3d df 2e b1 3c
       0.041486964 0.05263705 0.07703927 0.021628795
0002b0 5c ff b9 3d 3c 55 6b 3d c8 c1 29 bd 86 32 9a bd
       0.09081909 0.057454333 -0.04144457 -0.07529168
0002c0 b4 a8 28 3d 70 b2 16 3c db 9c 12 bd 7c aa 56 bd
       0.041176513 0.009197816 -0.03579412 -0.05240868
0002d0 a0 22 18 3d f8 65 7e 3d d6 0c f0 bd a8 30 9b 3c
       0.037142396 0.062108964 -0.11721198 0.0189441
0002e0 a0 08 ac 3d b5 9f 01 3e 2c 85 e5 bc 14 c2 17 bd
       0.084000826 0.1265858 -0.028017603 -0.03705032
0002f0 0c b6 57 bd 68 9f d4 3d b7 4e 79 3d 1e 79 30 bd
       -0.052663848 0.10381967 0.060866084 -0.043084256
000300 f0 8e 01 be bb 90 5c 3d cc af 95 3d 4c 7b e9 3d
       -0.12652183 0.053848963 0.07308921 0.1140047
000310 12 e5 8e bd ea 1c ed 3d d7 a2 2c bd be f3 5e bd
       -0.069772854 0.115777805 -0.042147484 -0.05443167
000320 40 6a cf bd e3 79 ef 3d 68 d7 ad 3c 68 79 62 bd
       -0.101276875 0.1169317 0.021220878 -0.055291563
000330 0e 3c eb bd 28 6c 52 3d 87 d1 33 bb 27 f4 3a bd
       -0.11486064 0.051372677 -0.002743812 -0.045642998
000340 6b 9b fa bd 36 f4 fb bd 9e 63 a0 bd fa 45 8c bd
       -0.12236675 -0.12302439 -0.078315005 -0.068492845
000350 b8 9d 93 3d a8 bb ba bd 40 fc fe bc 9f 3c 8b 3d
       0.07207817 -0.09117824 -0.031126142 0.06798672
000360 74 26 13 bd 2e f7 fb 3d d6 42 86 3d 06 c2 fc bb
       -0.035925344 0.12303005 0.06555717 -0.007713559
000370 bc d1 e6 3d e2 0b a0 3d 85 32 aa 3d 24 48 bb 3d
       0.112704724 0.078147665 0.08310417 0.09144619
000380 00 41 bd 3a f3 a7 e6 bd b1 d0 52 bd 56 9f eb 3d
       0.0014438927 -0.112625025 -0.051468555 0.11505
000390 e4 b2 ee 3d 02 c8 c4 bd fe f1 f2 bd f6 b9 ba bc
       0.116552144 -0.09608461 -0.118625626 -0.022793751
0003a0 86 ed cd 3d 40 3a f5 3d 4c b8 d6 3d a9 9f 9e 3d
       0.100550696 0.11974001 0.104843706 0.077452965
0003b0 b8 c6 82 3d 8c 29 1e bd 78 40 a1 bd 68 e1 bd bd
       0.06385559 -0.03861384 -0.078736246 -0.092715085
0003c0 40 58 24 bc 90 cb 34 3c 03 a2 88 bd 40 35 3d bb
       -0.010030806 0.011034861 -0.06671526 -0.002887085
0003d0 74 f8 a2 3d 9a c2 c4 3d fc 63 e9 3d 60 16 86 bc
       0.07957545 0.0960743 0.11396024 -0.016368091
0003e0 04 d6 c1 bd 26 7f b3 bd d6 06 1f bd 80 e0 19 bd
       -0.09464648 -0.08764486 -0.03882488 -0.037567616
0003f0 00 17 be 3b 5c b5 38 3d 88 2e c9 bd 80 b7 1f bd
       0.0058010817 0.045094833 -0.09823328 -0.03899336

fc2.bias f4 [64]
000000 b7 b7 9d bc d3 a9 1d 3d 65 dc 02 3c 57 ab 84 bd
       -0.019252641 0.038492035 0.007987116 -0.06477993
000010 9c 47 d7 bb 94 97 2f bd 68 71 33 3d 6d 6e 3a bd
       -0.006569816 -0.042869166 0.043809325 -0.045515466
000020 e8 50 ed 3d d9 14 6d bd 50 61 06 3c f4 8c 76 bd
       0.11587697 -0.05788121 0.008201912 -0.060193017
000030 c8 24 4b bd d7 75 96 bd 90 d1 85 3d 90 c6 b0 3d
       -0.049595624 -0.07346695 0.065341115 0.08631623
000040 e0 da 5d 3d e8 f5 89 bc f0 f7 0d bc 60 6b d5 3b
       0.054163814 -0.01684089 -0.00866507 0.0065130442
000050 cc c7 10 bc 3c d2 ae 3c cc 51 22 3d 49 ee fd 3d
       -0.008836698 0.021340482 0.03962879 0.12398965
000060 82 55 eb 3d 3d 20 b0 3d 00 20 2e ba 4c 0b 27 3c
       0.11490919 0.08599899 -0.00066423416 0.0101955645
000070 7b ad cd 3d 79 65 d4 bd 40 76 5d bd a6 1e b0 bc
       0.100428544 -0.10370917 -0.05406785 -0.02149899
000080 52 1e 3e bd 0c bf ff bd 60 2e c8 bc e0 3c fc bb
       -0.046415634 -0.12487611 -0.024436176 -0.0076976866
000090 e4 01 8c bc fa 00 fc bd 66 ca af bd 41 32 0c bd
       -0.017090745 -0.12304874 -0.08583526 -0.034227613
0000a0 b0 3f 87 bc 97 41 7e 3b 88 c4 0a 3d 0f 82 d4 3d
       -0.01650986 0.0038796419 0.033878833 0.10376369
0000b0 94 7a 84 3d 04 20 f3 3d 0e 90 86 3d ac a7 cd bd
       0.064686924 0.11871341 0.06570445 -0.100417465
0000c0 1c 33 28 bd e3 98 10 3d f0 fe af bc f2 5e 89 bc
       -0.041064367 0.035302054 -0.021483868 -0.016768906
0000d0 85 fe 85 bd e8 ea c6 bc 98 88 18 3d 28 d3 ab 3d
       -0.065426864 -0.024281934 0.03723964 0.08389884
0000e0 04 89 8a 3d 4e e2 df 3d 10 24 9f 3d 9f 99 e1 bb
       0.06764415 0.10931836 0.0777055 -0.006884768
0000f0 e9 42 29 bc 0a a5 c2 bd 06 ca 51 bd c2 19 61 3d
       -0.010330894 -0.09504135 -0.051218055 0.054956205

fc3.weight f4 [64, 64]
000000 ac 88 33 bd 10 97 23 3d fe e0 8b bd 4a 65 d6 3d
       -0.043831512 0.039938986 -0.06830023 0.10468538
000010 58 95 d3 bd 3e 68 e5 bd a0 30 99 bc 1c 41 8d bd
       -0.103312194 -0.11201523 -0.018699944 -0.06897184
000020 80 6f c3 3a 78 a6 d1 3c a4 15 b5 bd e0 84 53 3c
       0.0014910549 0.025592074 -0.08842018 0.012910098
000030 de 55 90 3d 20 a1 ff bc 42 9c c9 3d ca 4f e2 bd
       0.07047628 -0.03120476 0.09844257 -0.11050375
000040 5e e8 f4 3d d8 dc 9a 3c 80 41 5a bd 24 83 0f bd
       0.11958383 0.018904135 -0.053285122 -0.035037175
000050 32 ca c6 3d 00 bc 59 b9 22 97 db 3d 08 18 48 bd
       0.097065344 -0.00020764768 0.10722186 -0.048851043
000060 14 03 54 bd d8 92 63 bd 10 01 9a 3c 20 5d bc 3b
       -0.051760748 -0.055559963 0.018799335 0.005748406
000070 50 24 2d bc a0 12 c3 3c c6 1f 9b bd e4 7e 88 bd
       -0.01056774 0.023812592 -0.0757442 -0.066648275
000080 7a f6 89 bd d8 3a e8 bc a8 1f f6 3d 6c 8d 19 bd
       -0.06736465 -0.028348371 0.12017757 -0.037488386
000090 18 32 8d 3d 90 39 56 bc e0 15 85 3c 80 d1 56 3c
       0.0689432 -0.013075247 0.016245782 0.013111472
0000a0 54 d4 2f bd 40 5c a8 bc 20 96 9c bc 30 de 1c bc
       -0.0429271 -0.0205518 -0.019114554 -0.009574458
0000b0 ec 8e 99 bd 44 78 fa 3d 22 da b0 bd 82 0a f5 3d
       -0.07497963 0.1222997 -0.086353555 0.11964895
0000c0 bc a0 0e 3d 48 59 2e 3d 38 12 c9 bd 10 17 3c 3c
       0.034821257 0.042565614 -0.09817928 0.011480108
0000d0 f0 c3 eb bd b0 c6 b8 bd 60 43 45 bc 12 17 c8 bd
       -0.115119815 -0.09022272 -0.012039989 -0.09770025
0000e0 c0 11 42 bd c8 d5 8f 3d a6 29 a0 bd 9a b3 ee bd
       -0.04738021 0.070231974 -0.07820444 -0.1165535
0000f0 5e bf e3 3d f0 19 cc 3d 2a 8b c7 3d 18 6a bb bc
       0.11120485 0.09965885 0.0974334 -0.022877738
000100 48 e3 99 bc d8 c3 95 3d 44 a9 90 3d c4 89 40 3d
       -0.018785134 0.07312745 0.07063535 0.047006384
000110 88 25 31 3d 78 aa 39 bd c8 04 ba bd 68 61 33 3d
       0.043248683 -0.045328587 -0.09082943 0.043794066
000120 56 5d b1 bd 48 ea 55 bd 48 04 c3 3c ae c1 cb bd
       -0.086603805 -0.05222538 0.023805752 -0.09949051
000130 b0 77 4c bd dc e5 5c bd c2 7b 89 bd 60 e2 ef 3b
       -0.04991883 -0.05393015 -0.06713058 0.007320687
000140 b0 bc 38 bd fe 31 d3 bd 1e 34 fb 3d ec 91 e6 bd
       -0.04510182 -0.1031227 0.122658 -0.11258301
000150 84 71 21 3d c2 7c e7 bd 26 f8 e5 bd dc b9 97 bd
       0.039414898 -0.113030925 -0.11228971 -0.07408497
000160 ae 78 bb bd 00 e4 40 3d 8a 24 ca bd 8e 0b 85 bd
       -0.09153877 0.047092438 -0.098702505 -0.064963445
000170 24 d2 b3 bd 98 a5 01 3d ec 31 09 bd 56 fc a5 bd
       -0.087803155 0.031652063 -0.033494875 -0.0810477
000180 00 11 00 3c ea d7 da bd 96 c5 a0 bd 62 33 e4 bd
       0.007816553 -0.106857136 -0.078501865 -0.11142613
000190 46 f5 d5 3d ee 13 fd 3d 80 b9 1d bb d0 f7 07 3c
       0.10447173 0.12357317 -0.0024066865 0.008298829
0001a0 8e b4 b3 3d a8 14 a2 bc 60 02 00 bd 28 7c 80 3d
       0.087746724 -0.01978524 -0.031252265 0.06273681
0001b0 00 d9 dd 3d 0e 61 a2 bd a0 02 12 3d cc 33 3c bd
       0.10832405 -0.07928668 0.035647035 -0.045947835
0001c0 20 e4 10 3d 00 ba 77 3c f4 07 14 3d e8 e6 29 bd
       0.035373807 0.015120029 0.036140397 -0.041479975
0001d0 90 61 8b bd d0 fd 4c 3c 1a 0f b5 bd 8e f9 e1 3d
       -0.06805718 0.0125116855 -0.08840771 0.11033927
0001e0 cc db 67 bd e8 47 21 bd b0 04 4f 3c 28 25 07 bd
       -0.0566061 -0.039375216 0.012635395 -0.03299442
0001f0 90 f1 fa bd 8e 8d 84 bd 7c ed 2c bd fc fb d6 bd
       -0.12253106 -0.06472312 -0.04221867 -0.10497281
000200 e4 14 f0 3d 48 1b 74 bc 23 fe 9b 3d d9 9f ad bc
       0.117227346 -0.0148990825 0.07616832 -0.021194385
000210 77 58 bc bd 82 b7 9a 3d 0f b2 d9 3d 60 01 4d 3d
       -0.09196561 0.075545326 0.10629665 0.05005014
000220 b4 58 2e bd 65 a3 c2 bd f0 b2 c7 bc 54 4f ee bd
       -0.042565063 -0.09503821 -0.024377316 -0.116362244
000230 f8 f5 82 bd d7 78 86 3d b4 fa a9 bd b0 2d 0e 3c
       -0.06394571 0.06566017 -0.08299771 0.008677885
000240 78 4a d6 bd c0 9e c3 bd 80 87 66 3d 40 b8 91 bd
       -0.104634225 -0.095517635 0.056281567 -0.07115221
000250 b0 99 9d bc 63 f3 d5 bd 8c a7 40 bd 41 f9 54 bc
       -0.019238323 -0.10446813 -0.047034785 -0.01299888
000260 46 b2 9b 3d c2 59 f2 3d a0 5a 46 bc 3a f3 9c 3d
       0.07602362 0.11833526 -0.012106568 0.07663579
000270 f3 7a 79 3d 07 b4 cb 3d 58 51 e0 bd 22 c5 8c bd
       0.06090827 0.09946447 -0.10953015 -0.068735376
000280 0b 4a 54 bd ce 06 e9 3d d0 cd e0 bd ba db 4f bd
       -0.051828425 0.11378251 -0.109767556 -0.050746657
000290 90 9d a4 3d c7 b5 66 bd a2 2c a4 3d 6c 26 d6 3d
       0.08037865 -0.0563257 0.080163255 0.10456547
0002a0 c0 fd 1d 3c d8 47 da 3d 96 7e b1 3d 2c c6 f0 3d
       0.009643018 0.10658234 0.086667225 0.11756548
0002b0 89 49 aa 3d 33 2b 6d 3d fa 66 7d bd 74 71 8f 3c
       0.08314807 0.057902526 -0.061865784 0.017510153
0002c0 da c8 97 3d 1d 53 a8 3d 74 63 1d bd 78 3f 82 bd
       0.07411356 0.082189776 -0.038424924 -0.06359762
0002d0 a4 51 f7 bc e2 fc 17 bd 48 26 7c bd 5c 4a 0d 3d
       -0.030190296 -0.037106402 -0.061559945 0.034494743
0002e0 1e 20 c2 3d 48 0c ab 3c 1a 37 df 3d df e4 05 be
       0.09478782 0.02087988 0.10899182 -0.13075589
0002f0 56 1c 96 bd 6b 86 01 bc 9b 3f e3 bc d4 70 aa 3d
       -0.073296234 -0.007905583 -0.02774029 0.083223015
000300 b2 5d c3 3d ab e9 8a 3d 05 d5 65 3d 6f 0e d5 bd
       0.09539355 0.0678285 0.056111354 -0.104031436
000310 84 98 a4 bc eb 05 44 bd c4 e2 e8 3d 31 55 99 3d
       -0.020092256 -0.047857206 0.11371377 0.07486952
000320 74 5e 53 3d 46 66 74 bd a0 46 6a bd a8 c6 27 bd
       0.05160375 -0.059667848 -0.05719626 -0.040960938
000330 74 76 7f 3d c0 76 95 3d 7a 6b b1 3d 48 17 1a bd
       0.062368825 0.072980404 0.08663078 -0.03761986
000340 54 4a 24 bd 00 08 4f 3a 20 8f e0 bc bc b7 c1 3d
       -0.040109947 0.00078976154 -0.027411997 0.09458873
000350 fc 67 a5 3d ba 2d e6 3d a6 7f c2 bd d5 52 8a bd
       0.08076474 0.112391904 -0.09497003 -0.0675408
000360 38 97 f3 bd 94 58 fb bc 38 6a e8 3d 8c a3 9e bd
       -0.11894077 -0.030681886 0.113483846 -0.07746038
000370 9a ff df 3d 97 a0 c2 bb 80 b8 8f 3b c9 5f a4 bd
       0.10937424 -0.005939554 0.004386008 -0.08026082
000380 69 fd 8b bd 9c ea 07 3d 80 15 29 bb e0 6b 98 bc
       -0.068354435 0.033182725 -0.0025800169 -0.018606126
000390 fb b0 75 bc a9 31 9a bd e2 98 8c bd 77 56 c4 bd
       -0.014995809 -0.07529003 -0.068650976 -0.09586804
0003a0 80 52 81 3c 10 e1 d1 bd 3d c2 83 3d 65 05 8f 3d
       0.01578641 -0.102480054 0.064335324 0.06983451
0003b0 a4 f0 96 bd 72 40 e7 bd d1 bc 1d bd 65 b6 d9 bc
       -0.07370117 -0.11291589 -0.038510147 -0.02657623
0003c0 28 98 a4 bd 6b 59 d6 3c e0 70 c7 3d b0 d5 17 bc
       -0.08036834 0.026165685 0.09738326 -0.009267256
0003d0 12 18 f4 bd da 26 2a 3d 00 4f a6 3c 68 c5 e7 3c
       -0.119186535 0.041540958 0.020301342 0.028292373
0003e0 70 60 a0 3d 34 fc 00 be 0a 7d 8a 3d ce 2f 56 be
       0.07830894 -0.12596208 0.067621306 -0.20916674
0003f0 f3 4d 09 bc 6d e4 8b bd 9f b3 d6 bd 03 46 63 bb
       -0.008380401 -0.06830678 -0.10483479 -0.0034679181

fc3.bias f4 [64]
000000 ce ee 96 3d 70 00 65 bd ea e6 cd 3d 47 69 e4 bd
       0.07369767 -0.05590862 0.10053809 -0.111528926
000010 67 a1 a6 3c 6a fe e5 bd 29 47 96 bd 88 b7 85 3c
       0.020340635 -0.11230166 -0.073377915 0.016322866
000020 30 5a 8f bd 67 7b 9f bc 4d 40 99 3d d0 fa 8b 3c
       -0.06999624 -0.019468023 0.074829675 0.01708737
000030 80 9b 6a 3b 9f 46 a2 3d 71 c0 f5 bd 9c 60 ed bd
       0.0035798252 0.07923626 -0.11999596 -0.115906924
000040 df 5b 3c 3d 7c 8c ae 3d a0 8b 4a 3d fb 60 9d bd
       0.045986053 0.08522889 0.049449563 -0.07684513
000050 74 03 e4 3c a4 e6 00 bd 73 6d 5d 3d 70 7e 5b 3d
       0.027833678 -0.031469956 0.054059457 0.053587377
000060 b4 a9 b7 bd c3 a5 de 3d 15 a9 e9 3d 7e 3c 11 bd
       -0.08967915 0.1087146 0.11409203 -0.03545808
000070 40 11 00 be 14 12 1e 3d 32 6e 38 3d 99 21 2e bc
       -0.1250658 0.03859146 0.045026965 -0.0106281275
000080 8a c9 f5 3d 86 b9 9e 3d e9 6f 9b bc 65 0e d0 bd
       0.12001331 0.077502295 -0.018974261 -0.101589955
000090 34 ed ed bd ea 5e c3 bd 58 fd 47 bc c4 be 01 bd
       -0.116175085 -0.09539588 -0.012206398 -0.03167607
0000a0 f4 68 4f 3d 8f 2a a0 bd 77 30 16 3c 09 68 cc bd
       0.0506372 -0.078206174 0.009166828 -0.09980781
0000b0 04 b0 0f bd 26 d1 8b 3d 90 83 77 bd 06 67 db 3d
       -0.03507997 0.06827001 -0.060428202 0.107130095
0000c0 ce d0 6f 3d 0a ec 44 bd 01 7d d7 bd de a6 cc 3d
       0.05854874 -0.048076667 -0.105218895 0.09992765
0000d0 d8 57 8c 3c 20 9d 77 3d 20 d5 aa 3c 8c 90 b5 3c
       0.01713173 0.06045258 0.020853579 0.022163652
0000e0 28 cb ef bd c4 ef b0 bd 83 98 33 bc 76 03 d2 3d
       -0.11708671 -0.08639482 -0.010961655 0.10254566
0000f0 1c a5 5b 3d 8c f2 e6 bd da 2e 03 bd d0 00 75 3d
       0.053624257 -0.11276731 -0.032027103 0.059815228

fc4.weight f4 [1, 64]
000000 94 48 85 3d a8 16 a7 3c 36 2c 54 3d 15 95 18 bd
       0.06507984 0.020396546 0.051799975 -0.03725155
000010 10 02 15 3e fa 02 0b 3b ac 85 33 bd 5e 23 f4 3d
       0.14551568 0.002121149 -0.04382865 0.11920808
000020 58 25 be 3d c6 30 2e 3d b3 fc a7 3c a8 ca 90 3c
       0.092844665 0.042526983 0.020506239 0.017674759
000030 54 89 5a 3d 0c e0 f2 3d 59 42 81 bd 3c 4e 15 3d
       0.053353623 0.1185914 -0.06311483 0.036451563
000040 a1 c7 97 bd a6 90 d3 3d fa d7 80 3d 5d 22 09 3d
       -0.07411123 0.10330324 0.06291194 0.033480037
000050 8d f1 2c 3d f6 83 c2 bc f4 a2 c8 3d 38 c8 8c 3d
       0.04222255 -0.023744565 0.09796706 0.06874126
000060 38 21 8e 3d a2 c5 9c bd 67 df ca 3d 91 f9 ae 3c
       0.0693993 -0.07654883 0.09905892 0.021359237
000070 b9 b4 92 3e 66 f8 d8 bd 17 fd bd bd 68 55 c4 3d
       0.28653505 -0.10594253 -0.09276789 0.095866024
000080 40 f6 3c 3d a0 e4 c2 bd 52 18 ab 3d 57 a5 6e 3b
       0.04613328 -0.09516263 0.08354248 0.0036414468
000090 b5 39 4f bd a0 5f ee bb 90 87 24 bd dc ad 88 bd
       -0.050592143 -0.007274583 -0.040168345 -0.06673786
0000a0 e6 54 e1 bd 2f 07 59 3d 68 62 c5 bd 09 c8 e3 bd
       -0.11002521 0.052985366 -0.0963791 -0.11122138
0000b0 a0 10 87 3d d4 a7 27 3d 56 fe ae bd 70 95 7a bd
       0.06594968 0.040931538 -0.085446045 -0.06117767
0000c0 e3 c3 b7 bd 82 8e bf 3d 0f 57 a3 3d b0 52 c3 3c
       -0.08972909 0.09353353 0.079755895 0.02384314
0000d0 da c5 e1 bc a8 1f 3c 3d 65 e7 78 bd 17 1e 49 ba
       -0.027560163 0.045928627 -0.06076755 -0.0007672025
0000e0 f1 a4 d8 bd b0 a1 45 bd 24 7f fd bd 3a 09 f1 bd
       -0.10578335 -0.0482499 -0.12377766 -0.11769338
0000f0 98 fc 83 bd c6 b5 a8 3d 32 ba 4a bc ae bd b2 bd
       -0.06444663 0.082377955 -0.012373494 -0.08727585
