pth_models/model_soc_ocv.pth (torch, 70785 bytes, 11 tensors)

fc1.weight f4 [64, 2]
0	0xbc876331	-0.01652679
1	0x3f0c629c	0.54837966
2	0x3d428dcf	0.04749852
3	0xbf01ceba	-0.50706065
4	0xbd307ecc	-0.043089673
5	0xbe3beedc	-0.18352836
6	0x3e733ef9	0.23754491
7	0x3e48dd20	0.19615602
8	0xbf0ddc7d	-0.55414563
9	0x3e881da8	0.26585126
10	0x3eb72abf	0.357748
11	0x3f619d51	0.8813067
12	0xbf0a34d2	-0.5398685
13	0x3f0223c7	0.5083584
14	0xbda711c0	-0.081576824
15	0xbebef58d	-0.37296715
16	0xbf15dbca	-0.58538496
17	0xbf2c7af5	-0.6737512
18	0xbcdb5896	-0.02677564
19	0xbdb46b3e	-0.08809517
20	0x3d82820c	0.06372461
21	0x3f794907	0.97377056
22	0xbecf823a	-0.40529042
23	0xbeb39864	-0.35077202
24	0x3e1425f8	0.14467609
25	0xbe51b265	-0.20478208
26	0x3eb3a65c	0.3508786
27	0x3e0764b9	0.13222016
28	0x3e2d8c02	0.1694794
29	0xbed5ad37	-0.41733715
30	0xbe4aa49a	-0.19789353
31	0xbe58a651	-0.21157195
32	0x3da6ab22	0.0813811
33	0xbe0e9de4	-0.13927418
34	0xbb06105b	-0.0020456526
35	0x3efdc465	0.495639
36	0x3da34cfe	0.079736695
37	0xbe1414d4	-0.1446107
38	0xbc8808a8	-0.01660569
39	0x3e99bb08	0.30025506
40	0x3ea78143	0.32715806
41	0x3f530d28	0.8244195
42	0x3cf4d442	0.029886369
43	0x3f93ecde	1.1556661
44	0xbf1aa1f0	-0.60403347
45	0xbe3fd7ba	-0.18734637
46	0x3ebc5e89	0.36790875
47	0x3ee98fbd	0.45617476
48	0xbce93d28	-0.028471544
49	0xbe3c1e37	-0.18370901
50	0x3dd12886	0.10212807
51	0xbf21e1ce	-0.63235176
52	0x3e50e0e0	0.20398283
53	0x3e78ef2b	0.24309985
54	0x3f2260d5	0.63429004
55	0x3e3a3a69	0.18186344
56	0x3e499090	0.19684052
57	0x3f19ef07	0.6013035
58	0x3ea75bc3	0.32687196
59	0x3d7cab53	0.061686825
60	0xbf2d0b5f	-0.67595476
61	0xbe5a9d61	-0.21349098
62	0x3f3023e7	0.6880478
63	0xbe981439	-0.2970293
64	0xbf1fdebd	-0.62449247
65	0x3e3ffb47	0.18748198
66	0x3ce7b357	0.028283758
67	0x3eb8347a	0.35977536
68	0x3f0bc247	0.5459332
69	0x3eebdbdb	0.46066174
70	0xbee1fc40	-0.44137764
71	0xbf1e2462	-0.61774266
72	0xbf2bf951	-0.671773
73	0x3f247a7b	0.6424939
74	0x3f336024	0.70068574
75	0x3dab62d0	0.08368456
76	0x3d60046e	0.054691724
77	0x3f655920	0.8958912
78	0x3e49d339	0.19709481
79	0x3f14b18c	0.58083415
80	0xbea87d6a	-0.32908183
81	0xbf018ddc	-0.50607085
82	0xbed68bd5	-0.41903558
83	0xbede5a89	-0.43428448
84	0xbf2c2e0e	-0.67257774
85	0x3eab6afb	0.33480057
86	0xbf164377	-0.58696693
87	0x3d3a5f69	0.045501146
88	0xbd9b116a	-0.07571681
89	0x3e1b6acc	0.15177459
90	0xbe37c7e1	-0.17947342
91	0xbf236947	-0.63832515
92	0xbf0ab36c	-0.54180026
93	0x3f214fa2	0.63012135
94	0xbed63895	-0.41840044
95	0xbe00bd7f	-0.12572287
96	0xbe6b00b6	-0.2294949
97	0x3e9deec1	0.30846217
98	0xbedc61fe	-0.43043512
99	0xbf12a5e4	-0.5728438
100	0x3efe6619	0.4968727
101	0x3f68f226	0.9099449
102	0x3f2bf907	0.6717686
103	0xbdde98cd	-0.10868988
104	0xbebd4c9d	-0.36972514
105	0x3ee2c202	0.4428864
106	0x3e8db95c	0.2768048
107	0x3ebd09e7	0.36921617
108	0xbeae86ac	-0.3408712
109	0x3f335a5f	0.7005977
110	0x3f0db566	0.5535492
111	0xbea53d8d	-0.32273522
112	0xbf29735d	-0.66191655
113	0xbeb46ab6	-0.35237664
114	0xbe649e14	-0.22325927
115	0x3f29c4bb	0.6631581
116	0x3ee668d0	0.4500184
117	0x3e851ac9	0.25996998
118	0x3f1b35ac	0.6062877
119	0x3e61a76e	0.22036526
120	0x3f1153f2	0.56768715
121	0xbea4fdb6	-0.32224816
122	0xbf178d00	-0.59199524
123	0xbf15bf0b	-0.58494633
124	0xbdbfb010	-0.09359753
125	0x3d27fe96	0.041014276
126	0x3ca01a4f	0.019543795
127	0x3fabc751	1.3420202

fc1.bias f4 [64]
0	0xbe6d8ffa	-0.23199454
1	0x3e94e9f4	0.29084742
2	0x3eb726d6	0.35771817
3	0x3da8c279	0.08240218
4	0xbddf678c	-0.10908422
5	0x3d875818	0.066085994
6	0xbed3fab9	-0.41402224
7	0x3e5471d0	0.20746541
8	0x3f0e12a4	0.55497193
9	0x3f06d2f0	0.52665615
10	0x3ef719ad	0.48261777
11	0xbe8fdc6b	-0.28097853
12	0x3eb8c469	0.3608735
13	0x3e9519f8	0.29121375
14	0xbf083336	-0.5320314
15	0x3f259f07	0.6469578
16	0xbd1ec113	-0.03875835
17	0x3f2afb46	0.6678966
18	0xbe68cd5a	-0.22734585
19	0x3da7bea3	0.08190658
20	0x3d23c0be	0.039978735
21	0xbee41995	-0.44550768
22	0xbe3c4745	-0.18386562
23	0x3f29f8db	0.6639535
24	0x3f0864c8	0.5327878
25	0xbf0f6d93	-0.5602657
26	0x3f227e80	0.63474274
27	0x3f086ff2	0.53295815
28	0xbe7798cd	-0.24179383
29	0xbe9027e7	-0.28155443
30	0x3cfe71cb	0.03106012
31	0xbeebd9bf	-0.46064565
32	0xbe5a716e	-0.21332332
33	0xbe6fd42d	-0.23420782
34	0x3c489d8e	0.012244595
35	0x3eca6b15	0.39534822
36	0x3e8f2002	0.27954108
37	0xbe47e20e	-0.19519827
38	0xbdd40c18	-0.10353869
39	0x3e600199	0.2187561
40	0x3ee72f6c	0.45153368
41	0xbe8c0aae	-0.27351898
42	0x3ed7b06c	0.42126787
43	0x3f083d9c	0.5321901
44	0x3f250a4b	0.6446883
45	0xbf28b686	-0.6590351
46	0x3eb493a0	0.3526888
47	0xbf30b00c	-0.69018626
48	0xbe892cef	-0.26792094
49	0xbf0ac359	-0.54204327
50	0xbf186486	-0.59528387
51	0x3efd2032	0.49438626
52	0xbe1bbce9	-0.15208782
53	0xbd97382b	-0.0738376
54	0xbf26c0ed	-0.6513813
55	0x3ea7b014	0.32751524
56	0x3ee45578	0.44596457
57	0xbe789c4b	-0.24278371
58	0xbb89669f	-0.0041931416
59	0xbd58d158	-0.05293402
60	0x3ef58dc1	0.47959712
61	0x3ee01510	0.4376607
62	0x3f04acc9	0.5182615
63	0xbf131ba6	-0.57464063

fc2.weight f4 [64, 64]
0	0x3ddeca5c	0.10878441
1	0xbd93a070	-0.072083354
2	0x3bf72e20	0.0075433403
3	0x3c321230	0.010868594
4	0xbd6b2888	-0.0574117
5	0x3ca87288	0.020562425
6	0xbcd06f10	-0.025443584
7	0xbd2c94d8	-0.042134136
8	0xbcc85a38	-0.024457082
9	0x3d318648	0.04334095
10	0x3d6d09a0	0.057870507
11	0x3d51f930	0.051263034
12	0x3de38d84	0.11110976
13	0xbccb0ac0	-0.0247854
14	0x3d65e868	0.056129843
15	0xbcb09440	-0.021555066
16	0x3d8eefb6	0.06979315
17	0xbd53851c	-0.051640615
18	0x3d1fabb8	0.038982123
19	0x3cbc6148	0.022995606
20	0x39148800	0.00014165044
21	0xbcd77738	-0.026301965
22	0xbd9dfbea	-0.077140644
23	0xbdd58bba	-0.10427041
24	0x3d4754a8	0.04866472
25	0xbd4a8d74	-0.049451306
26	0xbd54af28	-0.051924855
27	0xbce88378	-0.028383002
28	0xbbb088e0	-0.0053874105
29	0xbd1f1d18	-0.038846105
30	0xbdf35d2a	-0.11883004
31	0x3ca11d30	0.019667238
32	0x3d270b44	0.040782228
33	0xbdff2b50	-0.12459433
34	0xbd47c5d0	-0.048772633
35	0x3d191160	0.037370086
36	0xbdce1ba2	-0.10063864
37	0xbd8ae6d6	-0.0678231
38	0x3ca61c68	0.020277217
39	0xbde82d54	-0.11336771
40	0xbc11fcb0	-0.008910343
41	0x3db70b1e	0.08937667
42	0xbdf1f0c6	-0.11813502
43	0xbd41c6fc	-0.047308907
44	0xbde66656	-0.11249988
45	0xbdfce0e0	-0.12347579
46	0x3d6db6b4	0.058035567
47	0x3c8065b8	0.015673503
48	0x3dfadc54	0.122490555
49	0x3de6d08a	0.112702444
50	0x3c94f738	0.01818429
51	0xbdd6c3e2	-0.104865804
52	0xbd2a80c4	-0.041626707
53	0xbd75fcac	-0.06005542
54	0x3dbf651a	0.093454555
55	0x3deecc88	0.11660105
56	0xbd2869a8	-0.041116387
57	0xb8bc4000	-8.9764595e-05
58	0x3dc513fa	0.09622951
59	0x3dbb2be2	0.09139229
60	0x3d6185d4	0.05505927
61	0x3bfc63a0	0.007702306
62	0xbd7501b4	-0.059816077
63	0x3da1e0b4	0.07904187
64	0x3dd17e72	0.10229196
65	0x3d0287b4	0.031867698
66	0x3d600280	0.054689884
67	0x3cc6aa17	0.024251027
68	0xbd125b4c	-0.0357316
69	0xbc20fe12	-0.0098262
70	0xbc7b4a80	-0.015337586
71	0xbdb8ec48	-0.09029442
72	0x3de193bc	0.11014506
73	0x3d95629c	0.07294199
74	0xbda74ebc	-0.08169314
75	0x3bd3c9c0	0.0064632595
76	0x3d105bf1	0.035243932
77	0x3d802454	0.06256929
78	0xbdba72ed	-0.091039516
79	0xbda29c3a	-0.07939954
80	0xbda50831	-0.08058203
81	0x3dce6fb4	0.100798994
82	0x3d29cdcd	0.041456033
83	0xbd47d7ac	-0.048789665
84	0x3d93afae	0.072112426
85	0xbe0dedad	-0.13860197
86	0x3dce22cc	0.10065231
87	0x3dc5dbfb	0.096610986
88	0xbcb3d0d8	-0.02195017
89	0x3da7fbae	0.08202301
90	0x3d8b6433	0.06806221
91	0xbdee0bdc	-0.11623356
92	0xbdef97b2	-0.116988555
93	0x3ca36738	0.01994668
94	0x3daddc26	0.084892556
95	0x3dd3e762	0.10346867
96	0xbd789810	-0.060691893
97	0x3d19cc1a	0.037548162
98	0xbe0d3285	-0.13788803
99	0x3de81380	0.11331844
100	0x3d480f98	0.048842996
101	0x3db9b090	0.0906688
102	0xbe0e3596	-0.13887629
103	0xbda9b711	-0.0828687
104	0x3de939a0	0.11387944
105	0xbc9c9740	-0.01911509
106	0xbd889678	-0.06669325
107	0x3d59ca88	0.053171664
108	0xbd86b0aa	-0.06576665
109	0x3dbbb83c	0.09165999
110	0x3d4bc69c	0.049749956
111	0xbd6e0b50	-0.058116257
112	0x3dda3b8e	0.106558904
113	0x3c9adc10	0.018903762
114	0xbde13230	-0.10995901
115	0xbdf71a90	-0.12065613
116	0xba3a7f00	-0.00071142614
117	0x3d40aec5	0.047041673
118	0xbc759d50	-0.0149911195
119	0x3dd72f05	0.10507015
120	0xbbab1120	-0.0052205473
121	0x3da51094	0.08059803
122	0xbe06f7ef	-0.13180517
123	0xbcd9feb5	-0.026610712
124	0x3d50df1b	0.05099402
125	0xbd1d42c8	-0.038393766
126	0xbd579cfc	-0.052639946
127	0x3da5be5e	0.0809295
128	0xbdc59d0c	-0.09649095
129	0xbdea2f7a	-0.11434837
130	0xbbc3f1c0	-0.0059797466
131	0xbdc3d464	-0.09561995
132	0x3d9d48c2	0.07679893
133	0x3da73f40	0.08166361
134	0x3aa34180	0.0012455434
135	0x3cab3a90	0.020901948
136	0xbddb26a8	-0.107007325
137	0xbd682f10	-0.056685507
138	0x3c96ee60	0.018424213
139	0xbc133a10	-0.008986011
140	0x3da3a646	0.079906985
141	0xbd5e9e78	-0.054350346
142	0xbd3c8a68	-0.046030432
143	0xbdbc2caa	-0.091882065
144	0xbc1b2a30	-0.0094705075
145	0xbd586724	-0.052832738
146	0xbae9cd00	-0.0017837584
147	0xbd7dbb44	-0.06194617
148	0xbd85f88c	-0.06541547
149	0xbd34d85c	-0.04415165
150	0xbd68cfb8	-0.05683872
151	0x3ddad3d4	0.10684934
152	0xbcc54ef0	-0.024085492
153	0xbcd3f620	-0.025874197
154	0xbdcbe16c	-0.09955105
155	0x3d214f9c	0.039382562
156	0x3d335174	0.04377885
157	0xbd4bfb28	-0.04980007
158	0x3d8c9120	0.06863618
159	0xbdbf584a	-0.09343012
160	0xbdf499b8	-0.11943382
161	0xbd92e678	-0.07172865
162	0x3deb1d64	0.11480215
163	0x3d660a00	0.05616188
164	0xbda067d4	-0.07832304
165	0xbd98b050	-0.07455504
166	0x3d3bbe98	0.04583606
167	0xbdf034f6	-0.117288515
168	0xbda5ea12	-0.08101286
169	0x3dcfa394	0.10138622
170	0x3d630b70	0.05543083
171	0xbcb20f88	-0.021735922
172	0xbdb0efba	-0.08639474
173	0xbdabad58	-0.08382672
174	0x3da80986	0.082049415
175	0xbda87cac	-0.08226904
176	0x3c3a69c0	0.011377752
177	0xbcfd9c00	-0.030958176
178	0x3ded59cc	0.11589393
179	0xbd9162ee	-0.070989475
180	0xbd9abd5c	-0.07555649
181	0xbd72f7d4	-0.05931838
182	0xbd684c48	-0.056713372
183	0xbc5c1e20	-0.013434917
184	0xbd65a73c	-0.05606769
185	0xbcbaee18	-0.02281861
186	0x3dd01b9a	0.101615146
187	0xbcc9e5e8	-0.02464576
188	0x3db312f6	0.08743851
189	0x3dff511c	0.12466642
190	0xbd9e6e88	-0.07735926
191	0xbd25cb8c	-0.04047732
192	0x3d6c5c04	0.05770494
193	0x3dd83e63	0.10558774
194	0x3dab954e	0.08378087
195	0x3d34a9f8	0.044107407
196	0xbcdf1948	-0.027233735
197	0x3db90dcd	0.090358354
198	0xbd5d77ec	-0.054069445
199	0xbdbdd8a4	-0.092698365
200	0x3d63e79c	0.0556408
201	0xba481c00	-0.0007633567
202	0xbd1a9d96	-0.037747942
203	0xbd168564	-0.036748305
204	0xbcfd8562	-0.030947391
205	0x3d586fa1	0.052840833
206	0xbe076617	-0.13222538
207	0xbdbe14e4	-0.09281328
208	0x3de37980	0.11107159
209	0x3ddbc6e8	0.10731298
210	0xbd9402ec	-0.0722712
211	0x3dfa2e64	0.122158796
212	0xbb875863	-0.0041304096
213	0x3cbeaa73	0.023274636
214	0x3bdf61e0	0.0068170875
215	0xbd0fd621	-0.03511632
216	0xbdc8168a	-0.09769924
217	0xbd81e663	-0.06342771
218	0xbd7f93d8	-0.062396854
219	0x3caa38d7	0.020779056
220	0x3da3c8eb	0.079973064
221	0xbd79a1cd	-0.06094532
222	0x3d66a3fc	0.05630873
223	0x3b68689f	0.003546275
224	0xbdf8a0be	-0.12140034
225	0xbbe10129	-0.0068665934
226	0xbca21ce0	-0.01978916
227	0xbd65aac0	-0.056071043
228	0xbd90764a	-0.07053812
229	0xbd360b36	-0.044444285
230	0x3d6c6e0c	0.057722136
231	0xbdb34ffb	-0.087554894
232	0x3d599b64	0.053126708
233	0xbca9c128	-0.020721987
234	0x3d23c7b4	0.039985374
235	0xbd1f7d88	-0.038938075
236	0x3d5440e4	0.051819697
237	0xbdb0136c	-0.085974544
238	0x3dd9f744	0.10642865
239	0xbd3642a0	-0.044497132
240	0x3d4d089c	0.05005704
241	0xbdd55ea6	-0.104184434
242	0xbde98016	-0.114013836
243	0xbd680437	-0.056644645
244	0x3dcaf54e	0.099100694
245	0xbe00debc	-0.12584966
246	0x3d85efa8	0.065398514
247	0x3de4ede9	0.1117819
248	0xbd3596e0	-0.04433334
249	0xbd0cf98c	-0.034417674
250	0x3d6ef4ea	0.058339037
251	0x3d41587b	0.047203522
252	0xbd753d02	-0.059872635
253	0xbd343074	-0.04399152
254	0x3d0e9408	0.034809142
255	0xbe0a1285	-0.13483627

fc2.bias f4 [64]
0	0x3bb356c0	0.005472988
1	0xbc0fe056	-0.008781513
2	0xbbf82ee0	-0.0075739473
3	0xbdf03770	-0.11729324
4	0x3df3223e	0.118717656
5	0x3dbcda04	0.09221271
6	0xbdd183c6	-0.10230212
7	0x3d5d404c	0.054016396
8	0xbdc384fa	-0.09546848
9	0x3db93c5a	0.09044714
10	0xbdf8c984	-0.12147811
11	0xbdbb992a	-0.09160073
12	0xbd3ea3a4	-0.04654278
13	0x3d86ac95	0.06575886
14	0x3d64276e	0.055701666
15	0xbd95fde0	-0.073238134
16	0xbd346ad8	-0.044047207
17	0xbdd807bc	-0.1054835
18	0xbd811b52	-0.06304039
19	0x3dfec8a2	0.124406114
20	0x3cd3b3b3	0.025842523
21	0xbcd23c08	-0.02566339
22	0xbc5ba297	-0.013405464
23	0x3dd2a68e	0.10285674
24	0x3da74205	0.08166889
25	0xbbb113aa	-0.0054039555
26	0x3df2de8c	0.11858854
27	0x3d2cac38	0.042156428
28	0x3d61e6bc	0.055151686
29	0x3d9a7f4a	0.0754381
30	0x3d64a4b3	0.055821132
31	0x3dd22e25	0.102627076
32	0x3cb469f0	0.022023171
33	0xbda77fa0	-0.081786394
34	0xbdb667fc	-0.08906552
35	0x3d89bac9	0.067250796
36	0x3ddadc66	0.10686569
37	0x3decb932	0.11558761
38	0xbd921b44	-0.07134107
39	0x3d93b7d8	0.072128
40	0x3db4441d	0.08802054
41	0xbd352cf4	-0.044232324
42	0x3da3fb82	0.08006956
43	0x3de9c62a	0.1141475
44	0xbd263e30	-0.04058665
45	0xbd646a8c	-0.055765674
46	0x3d4ada2c	0.04952447
47	0x3ddeb427	0.10874205
48	0x3d1cc40b	0.0382729
49	0xbdf47048	-0.119354784
50	0xbde04f5a	-0.10952635
51	0x3d3058b8	0.04305336
52	0x3d98cfcb	0.07461508
53	0x3d8992a6	0.06717424
54	0x3d79831d	0.060916055
55	0xbd9ad1fe	-0.07559584
56	0xbaff3974	-0.0019472078
57	0x3b98d12a	0.004663606
58	0x3cb316c3	0.02186144
59	0xbdbe9870	-0.09306419
60	0x3ca6d298	0.02036409
61	0xbdf13a6c	-0.11778721
62	0x3b83191a	0.004000795
63	0xbd9c1ac0	-0.0762229

fc3.weight f4 [64, 64]
0	0x3d0b7e2c	0.034055874
1	0xbc846330	-0.016160578
2	0xbd4b1234	-0.049577907
3	0x3d0b2bc0	0.03397727
4	0xbca0ee28	-0.019644812
5	0x3dcca626	0.09992628
6	0xbd05f54c	-0.032704636
7	0x3cef9a90	0.029248506
8	0x3dd6804a	0.10473688
9	0xbdf5401e	-0.1197512
10	0x3ce78768	0.028262809
11	0xbda857c2	-0.082198635
12	0xbd0d333c	-0.03447269
13	0xbcd6e350	-0.026231438
14	0xbd6d6870	-0.057960927
15	0x3a926d00	0.00111714
16	0xbd350184	-0.0441909
17	0x3d535bb8	0.05160114
18	0xbd1d2cd8	-0.038372844
19	0xbdcd0dae	-0.10012375
20	0xbd9c9b3a	-0.076467946
21	0xbdc7c88a	-0.09755047
22	0xbda8b43e	-0.082375035
23	0xbd79eac4	-0.061014906
24	0xbd858f12	-0.06521429
25	0x3d6b7930	0.05748862
26	0x3d1c4758	0.038153976
27	0xbd3bf044	-0.045883432
28	0xbd99bb50	-0.0750643
29	0xbd8ce336	-0.068792745
30	0xbd6850dc	-0.05671774
31	0xbd67b22c	-0.056566402
32	0xbdfa4086	-0.12219338
33	0xbdf22b5e	-0.11824678
34	0x3c26c750	0.010179356
35	0x3d497128	0.04918018
36	0xbd363108	-0.044480354
37	0xbcc963e0	-0.024583757
38	0x3d87251c	0.06598875
39	0xbde3d0b6	-0.11123793
40	0xbd2bd6ac	-0.041952774
41	0x3c2ec7c0	0.010667741
42	0x3c869128	0.016426638
43	0xbd5ddb14	-0.054164007
44	0x3df3c1e2	0.119022146
45	0x3cc46e80	0.023978472
46	0xbdcfc3f6	-0.101447985
47	0xbce19720	-0.027537882
48	0x3ddd588e	0.10807906
49	0xbc92c928	-0.017918184
50	0xbd059a18	-0.03261766
51	0x3c4251b0	0.011860296
52	0x3da5da88	0.08098322
53	0x3da20388	0.0791083
54	0xbdc46268	-0.09589082
55	0x3cc84e78	0.02445148
56	0xbde0b75a	-0.109724715
57	0xbd2bef68	-0.041976362
58	0xbc0045d0	-0.007829145
59	0xbdc926fa	-0.09821887
60	0x3dbd381c	0.09239218
61	0x3c5cd5b0	0.013478681
62	0xbdf9e85a	-0.12202521
63	0xbde46ff8	-0.11154169
64	0xbdb41188	-0.08792406
65	0xbd7eda6f	-0.062220033
66	0x3dcf005e	0.10107492
67	0xbd980f9f	-0.074248545
68	0x3d3f9000	0.04676819
69	0xbda7520c	-0.08169946
70	0x3ded58cc	0.11589202
71	0xbd1ee6e8	-0.038794428
72	0x3df9ca2e	0.12196766
73	0xbd8936a9	-0.06699879
74	0xbd1e907c	-0.03871201
75	0x3da3a05c	0.079895705
76	0x3d9b1ab3	0.07573452
77	0x3e072900	0.13199234
78	0x3dd3089e	0.10304378
79	0xbd93b63b	-0.07212492
80	0xbd469a54	-0.048487023
81	0x3cd8d2f7	0.026467783
82	0x3cbcfc88	0.023069635
83	0x3d73dfdc	0.05953966
84	0x3def2113	0.1167623
85	0xbdb460ea	-0.088075474
86	0x3e06437f	0.13111685
87	0xbd97061e	-0.07374214
88	0xbd3b977d	-0.045798767
89	0x3ded8c26	0.11598997
90	0xbd943d20	-0.07238221
91	0xbd6b7ce0	-0.057492137
92	0xbc938e39	-0.018012153
93	0xbdb99f98	-0.09063643
94	0x3d001005	0.031265277
95	0xbd177ca1	-0.03698409
96	0xbd102a60	-0.035196662
97	0xbc9dfad8	-0.01928465
98	0xbd279fcd	-0.040923882
99	0xbdd35f59	-0.103209205
100	0xbd794514	-0.060856894
101	0x3c915558	0.01774089
102	0xbd700cf6	-0.05860611
103	0x3d22325c	0.039598808
104	0xbd154560	-0.036443114
105	0xbd59fcc0	-0.053219557
106	0xbc015e00	-0.0078959465
107	0x3c083a70	0.008314714
108	0x3ba0c700	0.004906535
109	0x3da123d8	0.07868165
110	0xbde2c57a	-0.11072822
111	0x3df23e3c	0.118282765
112	0x3d35f79f	0.044425603
113	0x3d732eb9	0.05937073
114	0x3d664c08	0.056224853
115	0xbdbb275c	-0.091383666
116	0x3df2cec7	0.11855846
117	0xbde458a0	-0.111497164
118	0x3d2bee8b	0.04197554
119	0xba982f80	-0.0011610836
120	0x3db44731	0.08802641
121	0xbd8419ec	-0.06450257
122	0x3d8e2cfd	0.069421746
123	0x3ddaa56a	0.106760815
124	0xbdab2397	-0.083563976
125	0xbd322590	-0.043492854
126	0x3dfed3f9	0.12442774
127	0x3dda4d60	0.10659289
128	0x3d891024	0.06692532
129	0xbd979f96	-0.074034855
130	0x3d26d4c4	0.040730253
131	0xbd96cdb0	-0.073634505
132	0xbbb34d41	-0.005471856
133	0xbdd56994	-0.10420528
134	0x3c9f3a70	0.019437045
135	0x3c9802d8	0.018556044
136	0xbd591580	-0.05299902
137	0x3d92f80a	0.07176216
138	0x3d799e24	0.06094183
139	0x3de4450b	0.111459814
140	0x3da2aff1	0.079437144
141	0x3d28e428	0.04123321
142	0xbd416692	-0.04721696
143	0xbae292ac	-0.0017286143
144	0x3d4087e8	0.04700461
145	0x3d855a06	0.06511311
146	0x3dd3090c	0.1030446
147	0xbd89ea64	-0.067341596
148	0xbd116618	-0.035497755
149	0x3df452be	0.11929844
150	0xbbad3a31	-0.005286478
151	0x3dd0e14a	0.101992205
152	0xbd796d92	-0.06089551
153	0xbdf0819d	-0.11743472
154	0x3de1ef60	0.11031985
155	0xbd94c610	-0.0726434
156	0xbdbd5d02	-0.092462555
157	0x3da45f40	0.0802598
158	0x3d3ae377	0.045627084
159	0xbdbf8ce4	-0.09353045
160	0xbcdaa5a8	-0.02669032
161	0x3d58ac88	0.052898914
162	0xbdac4935	-0.08412401
163	0x3d33b27c	0.043871388
164	0x3da3cfb4	0.079986006
165	0xbccd80c8	-0.025085822
166	0xbde3503a	-0.110992864
167	0x3dbb8c1e	0.091575846
168	0x3df3d212	0.11905302
169	0xbd8f6330	-0.070013404
170	0x3dbe1d06	0.092828795
171	0xbde40e6a	-0.11135562
172	0xbd960238	-0.07324642
173	0x3d9614ae	0.07328163
174	0x3d096324	0.033541813
175	0xbda3fd9a	-0.08007355
176	0x3db63709	0.08897216
177	0xbdc06936	-0.093950674
178	0x3d53ae88	0.051680118
179	0xbc8c3668	-0.017115787
180	0xbd54ab25	-0.05192103
181	0x3dca7ae4	0.09886721
182	0xbd8563c7	-0.06513172
183	0x3d1679d8	0.036737293
184	0xbdee5a5b	-0.11638328
185	0xbdc6a8b9	-0.0970015
186	0xbda484aa	-0.08033116
187	0x3d599524	0.053120747
188	0xbcc83f92	-0.024444375
189	0x3db918de	0.09037946
190	0xbd9082c0	-0.070561886
191	0xbd38ee38	-0.045149058
192	0x3d6dd7f4	0.058067277
193	0xbd9a57fa	-0.075363114
194	0x3d387468	0.04503289
195	0xbd4d4920	-0.050118566
196	0xbd19213c	-0.03738521
197	0xbdf46314	-0.1193296
198	0xbb980780	-0.004639566
199	0xbdbb2a6c	-0.09138951
200	0xbda418a6	-0.08012514
201	0x3dc10f6e	0.09426771
202	0x3d7077cc	0.058707997
203	0x3dea4a82	0.114399925
204	0x3d2f7658	0.04283747
205	0xbb85b8a0	-0.004080847
206	0xbba5d260	-0.005060479
207	0xbd49ac60	-0.049236655
208	0x3d898c82	0.06716253
209	0x3d2a9670	0.041647375
210	0x3d0dcbc4	0.034618154
211	0x3dc978fe	0.098375306
212	0xbdce8d10	-0.10085499
213	0xbdf034dc	-0.11728832
214	0xbccf5b48	-0.025312081
215	0xbda1d5ac	-0.07902083
216	0xbca4b790	-0.02010706
217	0x3d31daec	0.04342167
218	0xbd96793c	-0.07347342
219	0xbc096530	-0.008385941
220	0xbdd54574	-0.10413638
221	0xbd7801fc	-0.060548767
222	0x3cbe5fa0	0.023238957
223	0xbd8d42ec	-0.0689753
224	0x3d90b51e	0.07065795
225	0x3cbeb030	0.023277372
226	0xbd489f30	-0.048979938
227	0x3dab1a5c	0.08354637
228	0xbcc09c70	-0.023512095
229	0xbdb065d0	-0.08613169
230	0xbd405670	-0.046957433
231	0xbdacaea2	-0.08431746
232	0xbd0fcabc	-0.035105452
233	0xbcd8bbc8	-0.026456729
234	0xbd5adf90	-0.053435862
235	0xbd97cf52	-0.0741259
236	0xbded9dea	-0.11602385
237	0xbb912440	-0.00442937
238	0x3de0047e	0.10938357
239	0x3cd2bb58	0.025724098
240	0xbdabcd1c	-0.08388731
241	0x3dc7c800	0.09754944
242	0x3db00e40	0.08596468
243	0x3d3d0008	0.046142608
244	0xbd00bf40	-0.03143239
245	0x3da8236c	0.08209881
246	0xbddb1ce8	-0.10698873
247	0x3d1f6930	0.038918674
248	0xb93ba400	-0.00017894804
249	0xbd551cbc	-0.052029356
250	0x3d856404	0.06513217
251	0xbb0ce400	-0.0021498203
252	0x3d6dad3c	0.058026537
253	0x3cacfe60	0.02111739
254	0xbdb016a6	-0.0859807
255	0x3dca11aa	0.098666504

fc3.bias f4 [64]
0	0x3d6b9254	0.057512596
1	0xbc8050ef	-0.015663592
2	0xbd236a4d	-0.0398963
3	0xbdd93938	-0.10606617
4	0x3d93de00	0.072200775
5	0x3dc461d0	0.09588969
6	0xbd7e6ffb	-0.06211851
7	0x3d8d5228	0.06900436
8	0x3d84fca4	0.064935
9	0x3de65d0e	0.112482175
10	0xbdd4527a	-0.10367294
11	0x3d0d42a2	0.034487374
12	0xbdf7010a	-0.12060745
13	0xbc22a937	-0.009928039
14	0xbdaf6b9c	-0.08565447
15	0xbce112d9	-0.027474808
16	0x3dbb4512	0.091440335
17	0x3cbf7c00	0.023374557
18	0xbdc93540	-0.0982461
19	0xbd1fd6a5	-0.03902306
20	0x3de73976	0.11290257
21	0xbdbf8fba	-0.093535855
22	0xbcc1bb0d	-0.023648763
23	0xbc137186	-0.008999234
24	0xbde2864e	-0.11060773
25	0x3b907fff	0.0044097896
26	0x3da9007d	0.08252046
27	0xbd6219d0	-0.055200398
28	0x3d246d56	0.040143333
29	0xbb044700	-0.002018392
30	0x3da9b57a	0.08286567
31	0x3dc43b46	0.09581618
32	0x3d648af2	0.05579657
33	0xbd760b7a	-0.06006954
34	0x3d7f16f8	0.062277764
35	0x3d053585	0.032521743
36	0x3d65012c	0.05590932
37	0x3db01830	0.085983634
38	0x3dc3b4bd	0.095559575
39	0x3dd46658	0.10371083
40	0xbc17f910	-0.00927569
41	0x3c557030	0.013027236
42	0xbd2537d3	-0.04033644
43	0x3d9ba024	0.07598904
44	0x3d0a57e6	0.033775233
45	0x3e0491bf	0.12946223
46	0x3c8a4284	0.01687742
47	0x3dabc47a	0.08387084
48	0x3c7c4d50	0.015399292
49	0x3d143974	0.036187604
50	0xbd837a40	-0.06419802
51	0x3b82a934	0.0039874557
52	0x3df46cc3	0.11934807
53	0x3d13f2a4	0.036120072
54	0x3cb58b58	0.02216117
55	0x3c99dd66	0.018782329
56	0xbdbc57d7	-0.091964416
57	0x3d260da5	0.040540356
58	0xbdf635e0	-0.120219946
59	0x3cbf3338	0.023339853
60	0x3daecfde	0.08535741
61	0xbdeadd1a	-0.11467953
62	0xbd6b27e8	-0.057411104
63	0x3de352aa	0.11099751

fc4.weight f4 [64, 64]
0	0x3d59f330	0.053210437
1	0x3dde503a	0.10855146
2	0x3dbddc0a	0.09270485
3	0x3c7606e0	0.015016288
4	0x3d9f2c74	0.07772151
5	0xbccfd0b8	-0.02536808
6	0xbdacbfea	-0.08435042
7	0x3de0defa	0.109800294
8	0xbd1ee9db	-0.03879724
9	0xbd61b72c	-0.055106327
10	0xbd0593b0	-0.03261155
11	0x3d9a50c3	0.07534935
12	0xbd679098	-0.05653438
13	0x3d0454c2	0.032307394
14	0xbcf74790	-0.03018549
15	0xbd8cf9bd	-0.06883571
16	0x3db2aa6e	0.08723913
17	0x3d4cbd18	0.04998502
18	0x3cd457a8	0.025920704
19	0x3cbf7500	0.02337122
20	0x3dab9a0a	0.0837899
21	0x3d8dcfe0	0.06924415
22	0x3d5ffb3c	0.054682955
23	0xbbaea1cf	-0.0053293477
24	0xbdb78576	-0.089610025
25	0x3d963a98	0.073353946
26	0x3d1f27ff	0.038856503
27	0x3dea6b8a	0.11446293
28	0xbc5a7ae1	-0.013334961
29	0xbd3692ac	-0.04457347
30	0x3e04b92f	0.12961267
31	0xbddbf576	-0.10740177
32	0xbd73bdf7	-0.059507336
33	0xbd0af84d	-0.033928204
34	0xbd8e583c	-0.06950423
35	0x3dae679b	0.08515855
36	0xbdd769c6	-0.105182216
37	0x3dbdf820	0.09275842
38	0x3dd88aaf	0.10573327
39	0xbc219840	-0.009862959
40	0x3daddc6c	0.08489308
41	0x3d969406	0.07352452
42	0xbdbee518	-0.0932104
43	0x3de51bce	0.11186944
44	0x3dae0f7e	0.08499049
45	0x3dfff40d	0.12497721
46	0x3c92c7f9	0.01791762
47	0x3d06a7d8	0.032874912
48	0xbdc473aa	-0.09592374
49	0x3d489180	0.048966885
50	0x3d6b7fb6	0.05749484
51	0xbdd55490	-0.1041652
52	0x3dae8897	0.08522146
53	0xbde5d932	-0.11223067
54	0xbdc4b436	-0.09604685
55	0x3defb183	0.117037795
56	0xbc14b1b0	-0.009075567
57	0xbdd3b955	-0.10338084
58	0xbd7755a8	-0.060384423
59	0xbded72b4	-0.115941435
60	0x3dcd0774	0.10011187
61	0x3d7bcdd0	0.061475575
62	0x3cefd5a8	0.029276684
63	0x3dd1b492	0.10239519
64	0xbc841060	-0.01612109
65	0xbdc1485a	-0.09437628
66	0xbd09ee2f	-0.033674415
67	0x3dae6826	0.085159585
68	0xbd1d5d6f	-0.038419183
69	0xbddd2706	-0.10798459
70	0x3e0abae1	0.13547851
71	0xbd0b8b47	-0.034068372
72	0x3dba37f9	0.09092707
73	0xbd7e4dd1	-0.06208593
74	0x3d870e3c	0.06594512
75	0xbdd1ba07	-0.1024056
76	0xbdd8965a	-0.10575552
77	0xbc2ee779	-0.010675305
78	0x3d25a86c	0.040443823
79	0x3dce6d7e	0.10079478
80	0xbd5bfa54	-0.05370553
81	0x3dd4c786	0.103896186
82	0xbdcfdab2	-0.10149135
83	0xbc838bcc	-0.016057871
84	0xbcfc5610	-0.030802757
85	0xbbe98f60	-0.0071276873
86	0xbde100f6	-0.109865114
87	0xbd79a133	-0.060944747
88	0x3d8a28c6	0.06746058
89	0xbdaab706	-0.0833569
90	0xbc2a0145	-0.010376279
91	0x3deb1f70	0.114806056
92	0x3d96b42a	0.07358582
93	0xbd0886a0	-0.033331513
94	0x3d59946c	0.05312006
95	0x3d667104	0.056260124
96	0x3d7d0ff4	0.061782792
97	0xbc38ac9b	-0.011271621
98	0xbc4e5d60	-0.0125955045
99	0x3e07e029	0.13269104
100	0x3d799b1c	0.06093894
101	0xbd16e78c	-0.036841914
102	0xbdb9d264	-0.09073332
103	0x3ca64c48	0.020300046
104	0xbdd5dd64	-0.104426175
105	0xbdb5fd46	-0.08886199
106	0x3d963626	0.07334547
107	0xbd431fb4	-0.047637656
108	0x3d96f4de	0.073709235
109	0x3dffb372	0.12485398
110	0x3d35eed9	0.044417236
111	0xbdab4940	-0.08363581
112	0x3c94a488	0.01814486
113	0xbdeed132	-0.116609946
114	0xbd5e2f61	-0.054244403
115	0x3dda880e	0.106704816
116	0x3ca6a025	0.020340035
117	0x3d4d7b5c	0.050166473
118	0x3d9f3bde	0.07775091
119	0x3b9e9876	0.004839952
120	0x3e09eda8	0.13469565
121	0x3da58e15	0.080837406
122	0x3d0b5534	0.034016803
123	0xbd657ed8	-0.05602917
124	0x3de3b047	0.111176066
125	0xbd28573a	-0.04109881
126	0xbde037ec	-0.10948166
127	0x3d20c8bc	0.039253935
128	0x3d8e9ee0	0.06963897
129	0x3d07c388	0.033145458
130	0x3c9bc808	0.01901628
131	0xbdeb9a14	-0.115039974
132	0xbdf711a6	-0.12063913
133	0x3df28098	0.118409336
134	0xbdea06ce	-0.11427079
135	0xbdf4fbb8	-0.11962074
136	0xbdd10014	-0.10205093
137	0x3d258da4	0.040418282
138	0xbc1854a0	-0.00929752
139	0xbcb72358	-0.02235572
140	0x3d8bda88	0.06828791
141	0x3c78f5f0	0.015195355
142	0x3dcf2ba0	0.10115743
143	0x3db51f4a	0.088438585
144	0x3cbd23f8	0.02308844
145	0x3cd02df8	0.025412545
146	0xbd09c7cc	-0.033637807
147	0xbd0381bc	-0.032106146
148	0x3db2ca44	0.08729985
149	0xbd29e714	-0.04148014
150	0xbd417a94	-0.04723604
151	0x3dd03ab4	0.10167447
152	0x3da54d32	0.080713645
153	0xbdd6e2f4	-0.104925066
154	0xbdd37158	-0.10324353
155	0xbdbac6ea	-0.09119971
156	0xbc7f2ce0	-0.015574664
157	0xbdd3e73e	-0.1034684
158	0x3db811b2	0.0898775
159	0xbcc889d8	-0.024479792
160	0xbd46ba28	-0.048517376
161	0xbddb90f6	-0.107210085
162	0x3da8d1b6	0.08243124
163	0xbdc2ea64	-0.09517363
164	0x3d3f38e8	0.04668513
165	0xbdc68f38	-0.096952856
166	0x3d888604	0.066661865
167	0x3be9e900	0.0071383715
168	0x3de35024	0.1109927
169	0xbdfa7676	-0.12229626
170	0xbde1d06e	-0.11026083
171	0x3c78c920	0.015184671
172	0x3dd084b8	0.10181564
173	0x3dc9f842	0.098618045
174	0xbd04d6ac	-0.03243129
175	0xbdb96d5c	-0.09054062
176	0x3d3a6880	0.045509815
177	0x3be0dba0	0.006862119
178	0xbd80017c	-0.06250283
179	0xbc10cfa0	-0.008838564
180	0xbd4e96e4	-0.05043687
181	0x3c819878	0.015819773
182	0x3dcc1f3e	0.099668965
183	0x3da4a9f8	0.080402315
184	0x3d9dfde6	0.07714443
185	0x3bee0dc0	0.0072648227
186	0xbdbf4314	-0.09338966
187	0xbd56d4b4	-0.052448943
188	0x3d89dd22	0.06731631
189	0xbd9f9ff4	-0.077941805
190	0x3d873f48	0.06603867
191	0xbd3c499c	-0.045968637
192	0x3c884b28	0.0166374
193	0x3dc3b344	0.095556766
194	0xbd2ac708	-0.041693717
195	0x3b057580	0.0020364225
196	0x3d4f8f4c	0.050673768
197	0x3df08b2e	0.117452964
198	0xbd6d86b4	-0.05798979
199	0xbd89a310	-0.06720555
200	0xbd2be860	-0.041969657
201	0x3db1012e	0.08642803
202	0x3dd60c78	0.10451597
203	0x3de0c4ea	0.109750584
204	0xbcad8e68	-0.021186069
205	0x3d573ef4	0.05255027
206	0x3d189a10	0.0372563
207	0x3d6c0ea4	0.05763115
208	0x3da5e7e0	0.08100867
209	0x3cf24300	0.029572964
210	0xbd077afc	-0.03307627
211	0xbdce4f02	-0.10073663
212	0x3dfb28b8	0.12263626
213	0xbc8eec10	-0.017446548
214	0xbd88b776	-0.066756174
215	0xbc94f9c8	-0.018185511
216	0x3d25ea5c	0.040506706
217	0xbc54d490	-0.012990132
218	0xbcd9df40	-0.026595712
219	0xbd80036e	-0.06250654
220	0xbd8eeaa4	-0.06978348
221	0x3df568c4	0.11982873
222	0xbda8c53a	-0.08240743
223	0xbca9c250	-0.020722538
224	0xbc99f158	-0.01879184
225	0x3dad5620	0.08463693
226	0x3d5c52c0	0.053789854
227	0x3cda20d8	0.02662699
228	0xbddf540a	-0.10904701
229	0x3d86bc40	0.065788746
230	0x3d3fc234	0.046816066
231	0x3c76e880	0.015070081
232	0x3d81afec	0.063323826
233	0x3c389290	0.011265412
234	0xbd00e48c	-0.03146796
235	0xbdd3335e	-0.10312532
236	0xbce58bb0	-0.02802071
237	0xbdde259c	-0.10847017
238	0x3d99cc06	0.075096175
239	0x3d87b662	0.06626584
240	0xbdacf27a	-0.08444686
241	0x3d88e3e6	0.06684093
242	0xbd8aabe6	-0.06771068
243	0xbdab0bae	-0.08351837
244	0x3dcfb300	0.101415634
245	0x3d652d8c	0.05595164
246	0x3dcb0cea	0.099145725
247	0xbda00f60	-0.078154325
248	0xbdfc7196	-0.12326352
249	0xbd069d40	-0.03286481
250	0x3d8315fa	0.06400676
251	0xbcd9e2a8	-0.026597336
252	0x3d8eb624	0.06968334
253	0x3d9675f6	0.07346718
254	0x3caa4f88	0.020789877
255	0xbde29ec6	-0.1106544

fc4.bias f4 [64]
0	0x3dfedcef	0.124444835
1	0xbb998d57	-0.0046860385
2	0xbcbf5d70	-0.023359984
3	0xbde0792a	-0.1096061
4	0xbd0ebfb8	-0.034850806
5	0x3d8daf7c	0.069182366
6	0x3d8c0302	0.06836511
7	0xbd2f6c48	-0.042827874
8	0xbda40ee5	-0.080106534
9	0x3c47eeb0	0.012202904
10	0x3db76af0	0.089559436
11	0xbdc8b090	-0.097993016
12	0xbce64b6b	-0.028112134
13	0xbdcd30ee	-0.10019098
14	0x3c198a87	0.009371406
15	0x3d749c2c	0.05971925
16	0xbd68e07c	-0.05685471
17	0x3daf37df	0.085555784
18	0x3e0355b4	0.12825662
19	0xbdb72cd4	-0.08944097
20	0x3d20255c	0.03909813
21	0xbdf59be4	-0.119926244
22	0x3d7ecb42	0.06220556
23	0xbdb63095	-0.08895985
24	0x3d13cae7	0.036082175
25	0xbc30f5a7	-0.010800756
26	0xbdbdd7b4	-0.09269658
27	0x3db3fb58	0.087881744
28	0x3defd7a1	0.1171105
29	0x3de0049e	0.10938381
30	0xbc34a0a7	-0.011024631
31	0x3c21f65d	0.009885398
32	0x3d00771b	0.031363588
33	0xbb391367	-0.0028240324
34	0xbda9779b	-0.08274766
35	0x3de71bf1	0.11284626
36	0xbd84f459	-0.06491918
37	0xbdce86fa	-0.100843385
38	0xbd228d54	-0.039685562
39	0x3d9a3eda	0.07531519
40	0xbd06e21c	-0.03293048
41	0xbd8f6b3b	-0.070028745
42	0xbdff2b5e	-0.124594435
43	0x3dd9d57a	0.106364205
44	0x3e06f49f	0.13179253
45	0xbd0e84c0	-0.03479457
46	0xbd9748dc	-0.07386944
47	0x3d525914	0.051354483
48	0xbd830622	-0.06397654
49	0x3d023fe8	0.031799227
50	0xbcea4990	-0.02859953
51	0xbdffd3ec	-0.12491593
52	0x3d92f422	0.07175471
53	0x3c866f73	0.016410565
54	0x3d03cfa6	0.03218045
55	0x3d3976bd	0.045279253
56	0x3abdd04f	0.0014481636
57	0xbdaa78dd	-0.08323834
58	0xbe006f3f	-0.12542437
59	0x3c004057	0.00782784
60	0x3cb65350	0.022256523
61	0x3c7454ed	0.014912826
62	0x3dc7c5f1	0.09754551
63	0x3d4ae1b3	0.04953165

fc5.weight f4 [64, 64]
0	0xbcef4528	-0.029207781
1	0x3da8445a	0.08216162
2	0x3c93a1a0	0.018021405
3	0x3d1ecdd4	0.03877051
4	0xbdfd3d5e	-0.123652205
5	0x3d64a037	0.055816855
6	0xbdc2f1da	-0.09518786
7	0xbdd8bcea	-0.105829075
8	0xbc96a234	-0.018387891
9	0x3dc1c0a0	0.094605684
10	0x3dcd5778	0.10026449
11	0xbdc05260	-0.09390712
12	0xbd90aa67	-0.07063752
13	0x3da89010	0.08230603
14	0x3d86deda	0.06585474
15	0x3d49d061	0.04927099
16	0x3de76202	0.112979904
17	0xbd54ccbb	-0.05195306
18	0x3dddff32	0.1083969
19	0xbc9d7723	-0.019221848
20	0xbdcc9a2e	-0.09990345
21	0xbd8725de	-0.065990195
22	0x3cc09237	0.02350722
23	0xbd7f503c	-0.062332377
24	0x3c9463d1	0.018114002
25	0x3dde6a66	0.10860138
26	0x3d7e7ad4	0.062128857
27	0xbdafbf66	-0.08581428
28	0x3df238d1	0.11827243
29	0x3dec2468	0.115303814
30	0x3d00b985	0.031426925
31	0xbda1d266	-0.079014584
32	0x3db086e8	0.08619481
33	0xbd25d341	-0.04048467
34	0x3cf920bb	0.030411115
35	0x3d75809d	0.05993711
36	0x3e08bd9f	0.13353585
37	0xbce781c0	-0.028260112
38	0xbd8a18cd	-0.067430116
39	0xbc9c1bf8	-0.019056305
40	0xbdba92f0	-0.09110057
41	0x3e13587d	0.14389224
42	0xbdffe40c	-0.12494668
43	0x3d8b967a	0.068158105
44	0x3dd83967	0.10557824
45	0xbdf2c2d8	-0.1185357
46	0xbdbaf0c1	-0.091279514
47	0x3d6d179e	0.05788385
48	0xbcd54b6c	-0.02603694
49	0x3db972b4	0.09055081
50	0xbb444dc0	-0.002995357
51	0xbd3ce484	-0.046116367
52	0xbdba34da	-0.09092112
53	0xbda0c81b	-0.07850667
54	0xbd863145	-0.06552366
55	0x3dd7b151	0.10531867
56	0xbd79ff27	-0.061034348
57	0x3dbfe867	0.09370499
58	0xbdb3d986	-0.08781724
59	0xbdbcb756	-0.09214656
60	0x3bce0ac0	0.0062879026
61	0xbcafbdf3	-0.02145288
62	0xbd0240be	-0.031800024
63	0xbec1050b	-0.3769916
64	0xbcced796	-0.025249284
65	0x3ddac707	0.10682493
66	0xbd591a08	-0.05300334
67	0x3c8528a0	0.016254723
68	0x3d8f1082	0.069855705
69	0x3d0346d0	0.032049954
70	0xbd52ac04	-0.051433578
71	0xbdce95b6	-0.10087149
72	0xbcf01fc9	-0.029312031
73	0xbdae9a3a	-0.0852551
74	0xbd8355b0	-0.06412828
75	0x3dc15e78	0.094418466
76	0x3d53ea2c	0.051736996
77	0xbdc134ce	-0.094339
78	0xbd6a7488	-0.05724004
79	0xbda243b2	-0.07923068
80	0xbb9301a8	-0.0044862814
81	0x3dda9da0	0.10674596
82	0x3d4e1c23	0.050319802
83	0xbbc0277d	-0.0058640824
84	0xbdae2f60	-0.0850513
85	0xbd24d788	-0.04024461
86	0xbdd751dc	-0.1051366
87	0x3dbc3b55	0.09191004
88	0x3ced34e6	0.028955888
89	0x3dc422b1	0.09576929
90	0xbc4d4da0	-0.012530714
91	0x3b71de7c	0.0036906293
92	0x3dacf1a3	0.08444526
93	0xbdc332ee	-0.095311984
94	0xbc9b35d1	-0.01894656
95	0xbdfa5fe9	-0.12225325
96	0x3df304d2	0.11866154
97	0x3d822902	0.06355478
98	0x3d1ba60b	0.038000148
99	0xbd0f1b2a	-0.034938015
100	0x3d794a04	0.060861602
101	0x3d6cbd24	0.057797566
102	0xbc9590c0	-0.018257499
103	0x3d332c00	0.043743134
104	0xbc4c3b97	-0.012465379
105	0x3d3d8eec	0.04627888
106	0x3de8e382	0.11371519
107	0x3d73b2e0	0.05949676
108	0xbd4720df	-0.048615333
109	0xbd6e5810	-0.05818945
110	0xbddbc05c	-0.10730049
111	0xbe039eac	-0.12853497
112	0xbdc1f675	-0.09470836
113	0xbd4c5b70	-0.04989189
114	0xbdd7e80c	-0.10542306
115	0x3dc1209e	0.09430049
116	0x3d1d0174	0.038331464
117	0x3db3042e	0.087410316
118	0xbdc4800d	-0.09594736
119	0x3d61bf6c	0.055114195
120	0x3dc19e88	0.094540656
121	0xbdd0afce	-0.10189782
122	0xbddd3b35	-0.108023085
123	0x3d0fd762	0.035117514
124	0x3d09d68c	0.033651873
125	0xbcd08038	-0.025451764
126	0x3d8c1292	0.068394795
127	0x3dff6c32	0.124718085
128	0xbda1c432	-0.078987494
129	0x3db8ba00	0.09019852
130	0xbda6e434	-0.08148995
131	0x3dd475f0	0.10374057
132	0xbde1f77e	-0.110335335
133	0x3dab55aa	0.083659485
134	0x3db4612a	0.08807595
135	0x3d10413c	0.035218462
136	0x3cfbb470	0.030725688
137	0xbceec810	-0.029148132
138	0xbc0709b0	-0.008242056
139	0x3d006a88	0.031351596
140	0x3d643d7c	0.0557227
141	0xbdc02c28	-0.09383422
142	0x3c399b00	0.011328459
143	0xbd28404c	-0.041076943
144	0xbd32781c	-0.043571576
145	0xbd8ad7c4	-0.06779435
146	0x3da5455e	0.08069871
147	0x3d1b6338	0.03793642
148	0xbc4dd1f0	-0.01256226
149	0xbb2acfc0	-0.002606377
150	0xbdda09ec	-0.10646424
151	0x3d1feccc	0.039044186
152	0x3d600440	0.054691553
153	0x3d8e8bd0	0.06960261
154	0x3d87ced8	0.06631249
155	0xbd881758	-0.066450775
156	0xbd56752c	-0.052357838
157	0xbbd68e80	-0.006547749
158	0x3b677980	0.0035320222
159	0x3dbfaeb0	0.09359491
160	0xbdd378c6	-0.1032577
161	0x3da1a868	0.07893449
162	0x3d8c4976	0.06849949
163	0x3dad0074	0.08447352
164	0xbd807248	-0.062717974
165	0xbc7b5da0	-0.015342146
166	0xbc88eb40	-0.016713738
167	0x3d624eec	0.055251047
168	0x3d4a28e4	0.049355403
169	0x3ddbcc24	0.10732296
170	0xbde19722	-0.110151544
171	0x3dda4062	0.10656811
172	0xbc6c3cd0	-0.014418796
173	0x3d90769e	0.070538744
174	0x3defbb12	0.11705603
175	0xbcf58648	-0.029971257
176	0xbdff1392	-0.124549046
177	0x3dea1b8a	0.11431034
178	0x3d7cd43c	0.06172584
179	0xbd94672a	-0.072462395
180	0x3da454f2	0.080240145
181	0xbd049d34	-0.032376483
182	0xbd3bfecc	-0.04589729
183	0xbdaf9dc8	-0.08575016
184	0x3c1528d0	0.009103969
185	0xbdbecf38	-0.093168676
186	0x3df29f92	0.11846842
187	0x3d038d2c	0.032117054
188	0xbd5b6f30	-0.053572834
189	0xbd2cd684	-0.042196766
190	0xbd708174	-0.058717206
191	0xbd20210c	-0.039094016
192	0x3daeea8e	0.085408315
193	0x3db6b88c	0.08921918
194	0x3da0c8a4	0.07850769
195	0x3cb0cf70	0.021583289
196	0x3db0abb4	0.086265
197	0xbd4d5763	-0.050132167
198	0xbdb4bcf4	-0.088251024
199	0xbd80c75a	-0.06288023
200	0x3d31e7a8	0.043433815
201	0x3ca823c8	0.020524874
202	0xbdb5ca60	-0.088764906
203	0xbd9b24dc	-0.0757539
204	0xbd927d5a	-0.07152815
205	0x3b0b0e00	0.0021218061
206	0x3db39170	0.087679744
207	0xbe096429	-0.13417114
208	0xbdfc101f	-0.12307762
209	0xbb9a8f00	-0.004716754
210	0x3c47f6df	0.012204855
211	0x3dc31219	0.09524936
212	0xbdd49ee4	-0.103818685
213	0xbce2cea0	-0.027686417
214	0x3d64bd18	0.055844396
215	0x3d6c113c	0.057633623
216	0x3b2ca631	0.0026344175
217	0x3db99866	0.09062271
218	0xbd0b59e0	-0.03402126
219	0xbd13972b	-0.036032837
220	0xbdb18697	-0.08668249
221	0xbd7bc054	-0.061462715
222	0xbdd9530e	-0.106115445
223	0x3d46792d	0.048455406
224	0x3cdad7e0	0.026714265
225	0x3b72a6fb	0.0037025798
226	0xbe06dc1c	-0.13169903
227	0xbd4b232c	-0.04959409
228	0xbd81fb5d	-0.06346772
229	0x3d84c3bc	0.06482646
230	0x3c777a41	0.015104831
231	0x3ca0b478	0.019617304
232	0xbd28ca25	-0.041208405
233	0xbd735e13	-0.059415888
234	0xbd333794	-0.043754175
235	0xbb8fce40	-0.0043886006
236	0xbd855887	-0.06511026
237	0x3c8196f8	0.015819058
238	0x3d660775	0.056159455
239	0xbd3edac5	-0.046595354
240	0x3da86e41	0.08224154
241	0x3d4222b0	0.04739636
242	0xbd92f47e	-0.071755394
243	0x3a920400	0.0011140108
244	0x3d49e954	0.049294785
245	0x3dfb97fa	0.122848466
246	0xbd880b66	-0.06642799
247	0xbdeb7b4a	-0.11498125
248	0x3be2ab51	0.006917395
249	0xbd6bbca3	-0.057552945
250	0xbded3803	-0.11582949
251	0xbe01894f	-0.12650035
252	0xbc59c9f0	-0.013292775
253	0xbdef2883	-0.11677649
254	0xbd95426c	-0.072880596
255	0xbc8f5010	-0.017494231

fc5.bias f4 [64]
0	0x3dc82dd1	0.09774364
1	0xbbfb6a9a	-0.00767262
2	0xbd992956	-0.07478587
3	0xbd97bf07	-0.074094824
4	0xbd8d83fc	-0.0690994
5	0xbd89512a	-0.06704934
6	0x3cb07f78	0.021545157
7	0xbdd32a88	-0.103108466
8	0x3dc1804f	0.09448301
9	0x3ce446ff	0.027865885
10	0x3d79ddb0	0.061002433
11	0x3d2b1f58	0.04177794
12	0xbde205bc	-0.1103625
13	0x3d1f186c	0.03884165
14	0xbd0fc0cc	-0.035095975
15	0x3d9ce9d8	0.0766179
16	0x3b3cea40	0.0028826147
17	0x3de5cee0	0.11221099
18	0xbd5864f2	-0.052830644
19	0xbdd99fe4	-0.106262
20	0x3d8508dc	0.064958304
21	0xbdd00bf9	-0.101585336
22	0x3e0c3218	0.13690984
23	0x3dda7efe	0.10668753
24	0xbd72c884	-0.059273258
25	0xbbea92bd	-0.007158606
26	0x3d62aac5	0.05533864
27	0x3dcb5e54	0.09930101
28	0xbbe86d66	-0.0070931194
29	0x3dd43c05	0.1036301
30	0xbdf21078	-0.118195474
31	0x3d43af94	0.047774866
32	0xbd25f422	-0.040516026
33	0x3c7fc9e0	0.015612096
34	0x3db3b3f3	0.08774557
35	0xbc8cb590	-0.01717642
36	0x3d3155f2	0.043294854
37	0xbd45fd31	-0.048337165
38	0x3d3c3728	0.04595104
39	0xbdae455c	-0.08509323
40	0xbda210e4	-0.07913378
41	0x3dd70a64	0.10500029
42	0x3ca5ae50	0.02022472
43	0x3db58ce0	0.088647604
44	0xbdb99d4e	-0.090632066
45	0x3db7d48e	0.089760885
46	0x3e067e54	0.13134128
47	0xbd1ab278	-0.037767857
48	0xbdf201a6	-0.11816721
49	0x3d561c9d	0.05227338
50	0x3e030a06	0.12796792
51	0x3c476557	0.012170157
52	0x3c042c3d	0.008067188
53	0x3dd37aa3	0.103261255
54	0x3ce0469c	0.02737742
55	0x3d8f9864	0.07011488
56	0x3d898783	0.067153
57	0xbd336ff6	-0.043807946
58	0x3c9ec667	0.019381715
59	0xbdb69980	-0.089159966
60	0x3cf30951	0.029667528
61	0xbd5596b8	-0.05214569
62	0x3d0a6ed4	0.0337971
63	0x3d8ab7c7	0.06773334

fc6.weight f4 [1, 64]
0	0x3defdd77	0.11712163
1	0xbda83dd7	-0.0821492
2	0x3d89eb42	0.06734325
3	0xbca54157	-0.020172758
4	0xbc291c00	-0.010321617
5	0x3d9630ae	0.07333504
6	0xbda8ad46	-0.08236174
7	0xbda90c88	-0.08254343
8	0xbde70087	-0.112793975
9	0x3da05b05	0.078298606
10	0xbd85593f	-0.06511163
11	0xbdc35988	-0.09538561
12	0x3b402280	0.0029317439
13	0xbd10556b	-0.03523771
14	0x3c0665c0	0.00820297
15	0x3d1ad762	0.03780306
16	0xbdd6718c	-0.10470876
17	0x3d830c8a	0.06398876
18	0x3dfbf78f	0.123030774
19	0xbbb97322	-0.005659477
20	0x3e023481	0.12715341
21	0x3dba17e0	0.09086585
22	0x3d84d507	0.06485944
23	0xbb260122	-0.0025330265
24	0x3df34224	0.1187785
25	0x3cd0e2e0	0.025498807
26	0xbd974ccc	-0.07387695
27	0x3d1bd9b4	0.038049415
28	0x3e0fa26e	0.14026806
29	0x3e0ec89b	0.13943712
30	0x3d95b570	0.07309997
31	0xbdeb37d6	-0.11485259
32	0x3e0594de	0.1304507
33	0xbd0b8118	-0.03405866
34	0x3be50db6	0.00699016
35	0xbdfb758e	-0.12278281
36	0x3ded88d8	0.115983665
37	0x3da22feb	0.07919296
38	0x3d66ba9a	0.0563303
39	0xbdc594c2	-0.09647514
40	0x3dde3f18	0.10851878
41	0x3df29658	0.11845082
42	0x3d96495e	0.073382124
43	0x3d73ffa4	0.05956997
44	0x3c49d040	0.012317717
45	0x3d108eb0	0.035292327
46	0x3c8efe22	0.017455164
47	0xbd6e8ff4	-0.058242753
48	0x3df8e148	0.12152344
49	0x3dc0ccf5	0.094140925
50	0x3d49c0a1	0.04925597
51	0x3dbce98e	0.092242345
52	0x3d893361	0.06699253
53	0x3dc882cb	0.09790572
54	0xbd5ea456	-0.05435594
55	0x3c225c5a	0.009909714
56	0x3e0a7568	0.1352135
57	0x3d84deaa	0.06487782
58	0x3dad1811	0.08451856
59	0xbca19830	-0.019725889
60	0x3d99ac27	0.075035386
61	0x3dec032e	0.11524044
62	0x3da29d44	0.07940152
63	0xbd75896c	-0.05994551
