pth_models/model_soc_pinn.pth (torch, 6287 bytes, 7 tensors)

fc1.weight f4 [20, 4]
000000 19 2b e5 bc e8 fc 23 3e 13 73 89 be ba 36 04 bf
       -0.027974652 0.16014445 -0.26845607 -0.51646006
000010 98 96 8a be 24 8e 4a bd 00 6d 09 bf 0c 1e ec 3d
       -0.2706802 -0.049451962 -0.53681946 0.115291685
000020 09 2b 12 bd 78 bf af 3d a9 d9 a7 3e bf 06 d9 bd
       -0.035685573 0.08581442 0.3278325 -0.1059699
000030 83 a0 d0 bf cc 5e 1e bf bb 22 a7 3e f9 7d 68 3e
       -1.6298984 -0.618634 0.32643685 0.22704305
000040 6d e2 28 be a2 2a 4f 3f 98 0f 7a bf 9b 3b 1a be
       -0.16492625 0.8092443 -0.97680044 -0.150618
000050 04 9a 51 3e 48 40 de 3e ee e0 fc bd 59 c8 d1 3e
       0.20468909 0.43408418 -0.123475894 0.40973166
000060 7e 8c 6f 3c 31 9d 69 3e c1 26 6a 3f d5 bf 13 be
       0.014620898 0.2281387 0.91465384 -0.14428647
000070 0d fe 65 bf 9b 9b 2c bf c4 ba 69 bf 7e 98 80 3e
       -0.89840776 -0.67424935 -0.91300607 0.25116342
000080 bd 70 9d be 66 8c 53 be 54 e5 c2 be 24 68 ec be
       -0.30750075 -0.20659027 -0.38065588 -0.46173203
000090 79 dd 9c bf 19 af 68 3f 7e 61 03 3f ed b1 c6 3d
       -1.2255088 0.9089218 0.51320636 0.097019054
0000a0 1a 1f 98 3b ae 77 89 be 10 77 c3 3d b6 70 f2 be
       0.0046423795 -0.2684912 0.09544194 -0.47351617
0000b0 37 66 05 c0 93 fe c6 3e af a0 83 3f 4c 72 77 3e
       -2.0843637 0.388661 1.0283412 0.24164695
0000c0 4f 92 72 be 95 ca 74 bc 71 46 a8 3e 68 51 0b 3f
       -0.23688625 -0.014940877 0.32866243 0.5442109
0000d0 d4 d4 3a 3e 07 dc bd bd 0a ce bb 3c 76 92 08 bf
       0.1824525 -0.092704825 0.022925396 -0.5334848
0000e0 4b c7 36 3f be e8 cc be 57 14 0c c0 34 fc d9 bd
       0.71397847 -0.40021318 -2.1887414 -0.10643807
0000f0 0c 0c 04 3f c2 0d ac 3e af a9 27 3f b0 f5 ae 3e
       0.5158088 0.33604246 0.6549329 0.3417182
000100 2a 7a 89 3e 1b 1c 9a bf 5a 2e 15 3f ef 29 4b 3e
       0.26851016 -1.2039827 0.5827385 0.19840215
000110 62 29 97 3e 07 c7 7b 3f 82 39 be bd 5a f8 5c be
       0.2952376 0.98350567 -0.092883125 -0.21579114
000120 4c 6d 5c 3e 43 55 e4 3e 3e 73 db 3e dd 0f fd 3e
       0.21526068 0.445963 0.4286136 0.49426165
000130 6d d6 96 3f fa 7c 2f bf 8f 9a a9 be 32 41 ce 3c
       1.1784188 -0.68550074 -0.3312573 0.025177572

fc1.bias f4 [20]
000000 20 52 0d bf 0e aa 25 bd c6 1d 35 3f cb 87 2d 3e
       -0.5520344 -0.04044538 0.70748556 0.16946332
000010 8a a5 64 3e 72 a7 8b bd a6 bd 00 3f 0c 38 e6 3d
       0.22328773 -0.06819047 0.5028938 0.11241159
000020 ec 19 51 3e d0 8e ae be f1 cc 30 3e fa cf fd 3e
       0.20420045 -0.34093332 0.17265679 0.49572736
000030 cc 5e b2 3e 70 8b ff 3b 36 7e 0b bd db 02 04 be
       0.3483795 0.0077986047 -0.03405591 -0.12891714
000040 73 91 82 3e 7b 78 03 bc 3c 63 bf be cc 4a 8e 3e
       0.25501594 -0.00802433 -0.37380397 0.2779144

fc2.weight f4 [20, 20]
000000 94 93 2f 3e 49 19 79 3e 92 4a b3 be 66 75 c6 bd
       0.1714614 0.24326052 -0.3501783 -0.09690361
000010 5a 87 f1 be 45 6a 0e 3d 55 87 ac be 96 32 fd b9
       -0.47173578 0.034769315 -0.33697 -0.0004829361
000020 79 56 51 bd 11 05 b5 3d 56 7d 05 be b1 66 29 3e
       -0.051107857 0.08838857 -0.13036093 0.1654308
000030 af 3c c7 bd 28 de 27 3e a8 68 e6 3c bc 9b 14 be
       -0.09728371 0.1639334 0.028126076 -0.14512533
000040 3c 24 4f 3e 7f 96 e3 bd 6c 41 92 3d a0 7c 57 be
       0.20228666 -0.11112689 0.071413845 -0.21043634
000050 f7 33 91 3d cd f2 7d bc 7f 04 c8 3c 96 92 d1 3d
       0.0708999 -0.015499783 0.024416206 0.10233037
000060 97 9a 86 3d 43 c6 ec bd d6 62 42 3c f4 ed 67 bd
       0.065724544 -0.11561253 0.011864385 -0.056623414
000070 6c dc c2 bd 8d d6 f4 be 1f 11 84 bd 5e b3 01 3d
       -0.095146984 -0.4781994 -0.06448578 0.0316652
000080 41 d7 03 be c7 2b e7 bc 56 31 16 3f 4b 3b 26 bc
       -0.12875082 -0.028219117 0.5866903 -0.0101459725
000090 74 fc ca be b0 28 25 bc fd ab 7e 3d 46 aa c9 3e
       -0.3964573 -0.010080501 0.06217574 0.3938772
0000a0 02 63 da 3d 0f 8c 8f 3e 23 0c e5 bb 15 46 c0 3c
       0.106634155 0.28036544 -0.006989972 0.023470918
0000b0 b6 b2 1f bf 02 bd 46 ba bc 0c d7 3b 63 9e df 3e
       -0.62382066 -0.0007581265 0.0065627974 0.43675527
0000c0 24 95 5d be 69 59 63 bf a1 07 a1 be 60 b4 1b bd
       -0.21638924 -0.88808304 -0.31451133 -0.038013816
0000d0 ea 4f 75 3d 2e 0f 91 3c d9 da 8d 3e a1 b4 ea bd
       0.059890665 0.017707434 0.2770603 -0.114602335
0000e0 65 30 4f 3f 03 50 81 bf 96 76 6d 3d 40 9a 3c 3e
       0.8093322 -1.0102543 0.05797442 0.18418217
0000f0 62 4c 04 3e 5f 06 0f be b1 0c 84 be 38 97 84 bf
       0.12919763 -0.13967274 -0.25790933 -1.0358648
000100 4c 56 d8 3f 51 6f 2d be 32 32 03 be b5 7d 0a bf
       1.6901336 -0.16936995 -0.12812117 -0.54098064
000110 bb 8b ed bc f0 05 54 3f 2d e0 bc 3e fd b8 0d bd
       -0.028997293 0.8282156 0.36889783 -0.034600247
000120 99 f2 f2 3c de 8c 81 3e db b6 13 3d 58 59 ad bc
       0.029656695 0.25302786 0.036063056 -0.021160766
000130 f5 56 f7 bf 06 f4 94 3f f2 91 d6 3b a7 65 74 bf
       -1.9323412 1.163697 0.0065481598 -0.9546761
000140 11 59 53 3d 25 18 3f be 50 35 ff 3e e0 b5 a2 3d
       0.051598612 -0.18661554 0.49845362 0.07944846
000150 ec 79 01 3f f4 15 52 3d 1a 33 82 3e f5 44 9d bf
       0.50576663 0.051290467 0.25429612 -1.2286669
000160 71 59 20 be 66 21 05 3f b8 24 52 3e 66 2d ba 3b
       -0.15659119 0.52004087 0.2052182 0.0056816814
000170 47 db 3d be 33 bd 19 3d 9e aa 1f bf 8b 3d 17 be
       -0.18540679 0.03753395 -0.62369716 -0.1476957
000180 d6 cf 4e bf c8 d9 9e 3f f2 ca 24 be 03 cf c7 be
       -0.8078588 1.2410212 -0.16093042 -0.39025125
000190 88 32 2c be ef 99 3b 3e fd 07 52 3d ee 38 78 c0
       -0.16816151 0.1832044 0.05127715 -3.8784747
0001a0 96 15 06 40 5b 3a ab 3e 62 ef b4 3e c5 02 a7 c0
       2.0950675 0.3344296 0.35338885 -5.219088
0001b0 9a c5 c6 bd 0e ed 80 bd 28 e4 37 be 25 4e bf 3d
       -0.09705658 -0.062952146 -0.17958128 0.09341077
0001c0 c6 e9 52 3e 92 3f 6a be da 80 d2 3c 60 d5 45 3e
       0.2059699 -0.22875813 0.025696207 0.19319677
0001d0 2b 5d d4 c0 f1 e1 e5 40 85 8a b7 3e a8 6d 6f bf
       -6.636373 7.1838307 0.3584787 -0.935267
0001e0 bd 07 0f bd db 13 42 3e 35 aa b9 3d 75 1e 52 3e
       -0.03491949 0.18952887 0.090656675 0.20519431
0001f0 34 fb 8c be eb 9e 04 3e a4 8d df bd 1c 9d 21 be
       -0.27535403 0.12951247 -0.10915688 -0.15782589
000200 a1 08 c0 bd 19 c8 5f be 4b 80 85 bc d9 7b e3 3e
       -0.09376646 -0.21853675 -0.016296526 0.44430426
000210 12 1b 3f 3d e8 ae 39 3e 24 d0 09 3d 6c 54 ed bd
       0.046656676 0.18133128 0.033645764 -0.11588368
000220 52 92 1a 3f cb 79 f0 be 5f b4 9b bd 9d d5 1c 3f
       0.6037952 -0.4696792 -0.076027624 0.6126345
000230 b6 e0 0b 3d 76 dc 21 3e 83 46 27 3e 0f 7e 78 be
       0.034149848 0.15806755 0.16335492 -0.24266838
000240 22 d7 2c 3f 04 ae 34 be 4f 29 a4 3e 26 ff 23 bf
       0.67515767 -0.17644507 0.32062766 -0.640612
000250 ee 67 16 bd 3b 20 ae be ed 5a 21 be 55 bc 2b bd
       -0.03672021 -0.34008965 -0.15757342 -0.041927654
000260 cc 19 66 3e be 05 d7 bd 90 a0 47 3e 96 af 52 bd
       0.22470778 -0.10499142 0.19494843 -0.051436983
000270 41 a7 27 c0 0d ea e2 3f 54 6b 8a bd 3d 8c b9 bf
       -2.6195834 1.7727677 -0.067587525 -1.4495922
000280 20 9a 03 be 4a 5d 9a 3e 6a d7 75 3e 46 e7 3c 3f
       -0.12851763 0.301493 0.24007955 0.73790395
000290 da c8 07 3f 03 c4 98 bd e0 d4 82 be 03 df 88 3f
       0.5304085 -0.07459261 -0.25553036 1.0693058
0002a0 1d 23 3c 3e e3 cc 0d 3f 48 d9 d8 bd b5 c2 3f 3f
       0.1837277 0.5539076 -0.10588318 0.74906474
0002b0 9e 66 58 be 95 88 45 3d b4 51 17 bf 00 fc 5f be
       -0.21132895 0.048225958 -0.59109044 -0.21873474
0002c0 e8 b0 02 bd ca 82 34 3e 3b b0 cf bc 06 18 d0 be
       -0.031906992 0.17628017 -0.025352588 -0.40643328
0002d0 0c 74 90 bc 77 0c 05 be 80 cb ca bd da 6e b2 3e
       -0.01763346 -0.12993036 -0.09902096 0.34850198
0002e0 4e c2 81 bf 5d 04 57 3e c9 32 a3 bd b4 dc 00 3f
       -1.0137422 0.20997758 -0.07968671 0.50336766
0002f0 69 d5 9a bd f0 0a 43 3e c2 82 24 be 71 e5 82 3f
       -0.07560236 0.19047141 -0.16065505 1.022627
000300 4f e6 c2 3d 61 f4 ed bc b2 16 aa be a3 02 ec bd
       0.09516584 -0.029047193 -0.3322044 -0.115239404
000310 6e ba ef 3f 8d 95 a7 bf 57 b7 ed 3d 92 75 8a 3c
       1.8728769 -1.3092514 0.11607235 0.016901765
000320 19 c9 3a be f7 a9 30 3e 92 1d bb be f5 76 d3 3b
       -0.18240775 0.17252336 -0.36545998 0.00645339
000330 86 0a af 3c 7d a4 bb bd 87 f9 f6 bd 3d ed 19 3f
       0.021367323 -0.09162233 -0.12059312 0.6012762
000340 92 1f 67 3c 16 4a c6 3d ee f2 83 be ce 08 47 3e
       0.014106648 0.096820995 -0.25771278 0.19436952
000350 79 b6 1b 3e 86 f1 1f be 44 9a 11 be 67 82 69 3e
       0.15206327 -0.15619478 -0.14219004 0.22803651
000360 d9 2d 1d 3d b1 c9 13 be 04 de 2a 3e 55 9e cc be
       0.0383738 -0.14432408 0.16686255 -0.39964548
000370 1d 50 3c 3d 8d 75 92 3d d2 c4 e6 be ba 07 14 3d
       0.04597484 0.07151327 -0.45072037 0.03614018
000380 51 0e 5b 3e 1e 3d 32 3e 5a 70 46 bd c5 00 f1 3e
       0.2139218 0.17406127 -0.04844699 0.470709
000390 5e 07 07 3e e6 2c f6 bd c2 a7 21 be ae 6c 5b be
       0.13186404 -0.120202824 -0.15786651 -0.21428177
0003a0 3c 55 48 3e 0e 46 2d 3e 2a bc 36 be 65 5b 85 3d
       0.19563764 0.16921255 -0.17845216 0.06511573
0003b0 ce 69 93 be 40 b1 10 3e ac 1e 2c 3e fa 52 25 3e
       -0.2879166 0.14130116 0.16808575 0.16144934
0003c0 d1 18 07 bd 6e 36 1f be db 6f e0 3e 86 d1 27 3e
       -0.03298265 -0.15548107 0.4383534 0.1638852
0003d0 ad f1 f0 3c e6 40 3b 3e f6 77 8e 3e 5c 80 26 be
       0.029412115 0.18286476 0.27825898 -0.16259903
0003e0 2b d6 f9 bd 64 a6 7f 3c 9d ad 76 bd 93 04 31 3e
       -0.121990524 0.015603635 -0.060224164 0.17286901
0003f0 7c 33 6f bd fd e4 d7 3d 7e c9 f9 3d 75 0a 94 3d
       -0.05839871 0.10541723 0.12196635 0.07228557

fc2.bias f4 [20]
000000 ce 60 2c be 70 d2 32 3e 4a 86 5e 3e d9 70 23 bd
       -0.16833803 0.17463088 0.21730915 -0.03990254
000010 40 7d 25 3e 90 1f 6b 3d 55 fe b6 3d f4 76 06 3e
       0.1616106 0.057403147 0.08935229 0.13131315
000020 9a 25 87 bd 44 5d cb 3d 94 f1 24 3c 7d f0 e2 3d
       -0.06598969 0.099298984 0.010067362 0.11081026
000030 75 41 a4 bd 3e db aa 3d 19 cc c1 3d 80 95 b9 3d
       -0.080202974 0.083425984 0.09462757 0.09061718
000040 f3 83 2a be 02 fb 7d 3d ad c1 c7 3d 00 d7 83 bc
       -0.16651897 0.062006958 0.097537376 -0.01609373

fc3.weight f4 [20, 20]
000000 b4 9a 2b 3e 10 de 07 bd 6e f1 25 3e d4 59 ca be
       0.16758233 -0.03317076 0.1620538 -0.39521658
000010 3c 44 98 bc e1 67 07 be 15 5d 33 3e 36 5c 18 bd
       -0.018587224 -0.1322322 0.17515977 -0.037197314
000020 b6 b0 98 3c be 0f 1b be e3 b0 5e 3e 29 fb 54 3e
       0.01863895 -0.15142724 0.21747164 0.20798935
000030 d6 f1 60 be f5 dc 37 be e5 55 01 be ed c6 28 3c
       -0.21967253 -0.17955382 -0.12630422 0.010301334
000040 b9 77 bc bd 7f 45 65 be ee c5 f7 3d 32 a2 f5 3e
       -0.09202523 -0.22389792 0.12098299 0.47975308
000050 36 41 a6 be 30 43 3b 3e 78 07 a3 bd dd 2e cb bb
       -0.32471627 0.18287349 -0.07960409 -0.006200655
000060 26 c4 5c 3d c5 3d 83 3c cf a5 85 be 40 e0 e4 bd
       0.053898 0.016020665 -0.26103064 -0.11175585
000070 38 13 1a be 2d 13 44 3e fc 79 ab be a8 11 a5 be
       -0.15046394 0.1914794 -0.33491504 -0.32240033
000080 62 7f c5 3e 4d c6 5a be fb de 93 3d ed f4 d3 bc
       0.38573748 -0.21364708 0.072202645 -0.025873626
000090 2f 47 5d 3c 80 30 a6 3d b0 4f 23 3f a3 44 55 be
       0.013505741 0.081147194 0.6379347 -0.20826964
0000a0 37 46 c9 be f2 4a 9e bd 64 0a 8d be d3 dc a4 3e
       -0.39311382 -0.077291384 -0.2754699 0.32199726
0000b0 3c b7 08 be ca 8f 85 3e 3b b9 fb bd 08 2c fa bd
       -0.13351148 0.26086265 -0.12291189 -0.122154295
0000c0 4e 4e aa 3e 70 11 30 3e c0 a2 0a 3e 9f 26 b2 3d
       0.33262867 0.17194152 0.13538647 0.08698773
0000d0 fc 31 5b 3d 91 29 2e be 0a c9 d2 bb a3 eb 81 3e
       0.053514466 -0.17008044 -0.006432657 0.2537509
0000e0 23 8c 80 3c c6 25 ea bd 77 98 ae 3e 26 b8 2b 3e
       0.015691822 -0.11432986 0.34100696 0.16769466
0000f0 41 c3 f4 3e 3c 2a 4b bf 9d 0a 88 bf 9f f2 94 3f
       0.47805217 -0.7936132 -1.0628239 1.1636542
000100 94 88 5e be f3 8f a0 be 87 66 b5 40 25 5e fb 3f
       -0.21731788 -0.31359825 5.6687655 1.9638106
000110 79 64 c6 3d 9b 15 93 3e bb de 69 3e 2e 33 da 3d
       0.096871324 0.2872742 0.22838871 0.10654293
000120 7c 08 f8 be ad b4 a4 be d0 56 59 3c d1 2b 31 be
       -0.48443973 -0.32169095 0.013265327 -0.17301871
000130 f6 d6 ae be 45 5f 6d be cb 35 7c 3f 64 e0 75 3e
       -0.34148377 -0.23180874 0.9851958 0.2401138
000140 0c 7c 93 be 09 b2 b1 bd d7 e9 d7 be 88 90 07 3f
       -0.28805578 -0.08676536 -0.42170593 0.5295491
000150 55 24 6a bd ae 35 2f 3c 64 8f 6a bc 62 21 b0 bd
       -0.057163555 0.010693951 -0.014316414 -0.08600117
000160 81 55 05 bd bb 8e ae ba 6b 18 0e bd 9d ad 3b be
       -0.032552246 -0.0013317683 -0.034691256 -0.18327947
000170 95 28 8a 3e 95 38 d0 bd cf 37 2c bd f0 b4 3a 3e
       0.26984087 -0.10167042 -0.04204541 0.18233085
000180 fc db 53 3e 84 30 b0 3d c1 0f d1 3e 23 31 14 bf
       0.20689386 0.086030036 0.40832332 -0.57887477
000190 41 06 41 3c f0 67 2a 3e b7 ee 04 3f 3a 3a dc bf
       0.011781276 0.16641212 0.5192675 -1.7205269
0001a0 b6 62 c8 bd 51 49 da 3e 53 b9 1f 3f 5d 49 1e 3e
       -0.097844526 0.4263406 0.6239216 0.15457673
0001b0 5f 07 46 bf cf 09 54 bc ae ab 10 3e 56 d4 e5 3c
       -0.77355 -0.012941792 0.1412799 0.028055351
0001c0 06 ac 3b 3e 86 7c fd bd 07 e7 9f 3e cb 6f ab 3e
       0.1832734 -0.123772666 0.31230947 0.3348373
0001d0 bb ec 9d bf e0 0a 4d be 5e c9 4c be 5e dc a8 3e
       -1.233787 -0.2002368 -0.1999869 0.32980627
0001e0 4f 66 77 be 79 06 d4 3d 99 f0 e4 b8 34 f0 57 3d
       -0.24160121 0.10352797 -0.00010916702 0.05271931
0001f0 8a 3e 90 be 84 f8 fc 3d 0f 78 5a be 6b fc 3b 3e
       -0.28172714 0.12352088 -0.21334861 0.18358009
000200 43 45 3f be 15 26 cb 3c cc 97 ac 3d 15 ec f6 bd
       -0.18678765 0.024798432 0.084273905 -0.12056748
000210 fe ba 7e 3e 57 5a 2c be 29 7c 3e be 6d db 13 be
       0.2487602 -0.16831337 -0.18602051 -0.14439173
000220 88 6c 1a 3e 53 2c 86 3e 38 ba 71 bd 82 2e 79 be
       0.15080464 0.26205692 -0.059015483 -0.24334148
000230 ba 51 81 be 74 a3 89 3c c3 84 51 3e 67 12 60 be
       -0.25257665 0.016801573 0.20460801 -0.2188202
000240 a3 1e fc bb b9 47 61 3e ab 48 49 3d 25 e3 24 3d
       -0.007694082 0.22000016 0.049141567 0.040255684
000250 de 4f 82 bd 76 1f a9 3e 20 55 98 be 7e 02 f5 bd
       -0.0636289 0.33031815 -0.29752445 -0.11963366
000260 94 2e d2 3d 57 1d a3 3d 3f 41 56 3e 28 89 5c 3e
       0.1026279 0.079645805 0.20923327 0.21536696
000270 b8 62 7f 3d 97 42 d3 bd 39 fb ac 3e 68 20 d9 3a
       0.062350005 -0.103154354 0.33785418 0.0016565444
000280 f4 f2 11 3f e0 c1 b6 be 20 42 91 be 7c cc 85 3e
       0.5701134 -0.3569479 -0.28370762 0.26132572
000290 bf 49 c4 3e a5 e9 89 bc cb 5a 9d 3e e0 ce 87 bd
       0.38337514 -0.016835043 0.30733332 -0.06631255
0002a0 ae 0d 81 3e af 11 11 3e 3e ba 5f 3d 3e 11 3e be
       0.2520575 0.14166902 0.054620974 -0.18561265
0002b0 60 b9 43 3e 74 86 5a 3e 5d 1b 3a 3e 1f 9a 84 3d
       0.19113684 0.21340352 0.18174501 0.06474709
0002c0 cc df e7 3e ed c6 2f be 31 43 b1 be 58 cc 04 3e
       0.4528793 -0.17165728 -0.34621575 0.12968576
0002d0 f3 33 0e 3d e4 5c 3a bd 58 42 e0 be 9d 38 12 3e
       0.03471751 -0.045498744 -0.43800616 0.14279409
0002e0 ef 1d 46 bd 42 d8 f1 bc f5 ad f8 3e b8 ae 1e 3e
       -0.04836839 -0.029522065 0.4857022 0.15496337
0002f0 67 fd 8d be 39 c1 5c 3d 4a 3b 95 bc 15 5e e4 bd
       -0.27732393 0.05389521 -0.018216748 -0.11150757
000300 a4 41 a6 be ae a6 90 be 32 c9 09 bc 38 ca 2a be
       -0.32471955 -0.28252167 -0.008409785 -0.16678703
000310 c6 86 c5 3e 00 c9 94 3c 76 b7 98 3d 6e 1b 25 3e
       0.38579386 0.01816225 0.074568674 0.16123745
000320 10 7a a2 3e b8 49 6b be 6b 86 b3 be 31 a2 1a be
       0.3173375 -0.2297734 -0.3506349 -0.15100934
000330 cb f8 05 be f4 72 1a bd f1 b8 bf 3f 97 07 60 bf
       -0.13083188 -0.037707284 1.4978315 -0.8751158
000340 a9 ab 82 3f 64 9b 44 3e 8a b5 26 3b 76 22 76 3e
       1.0208637 0.19199902 0.0025437796 0.24036583
000350 78 ba 7d 3c db 14 05 3e 5d 54 ae 3d 79 0d cc 3e
       0.015486352 0.12996237 0.08512185 0.3985403
000360 4b 97 40 bc 75 14 8b bf af 07 ce 3e 71 2f 87 3e
       -0.011754821 -1.0865618 0.40240237 0.26403382
000370 b5 cd ad be 47 0f 70 3d 65 9c 2e 3e 03 7f d2 bd
       -0.33946005 0.05860832 0.17051847 -0.10278132
000380 3c 0f e0 3d e8 77 2a 3e 89 5b c6 3d 03 77 31 be
       0.10940406 0.16647303 0.09685428 -0.17330556
000390 aa f3 5b ba bd 3d c1 3d 4e 52 6a be 25 3d 3e bd
       -0.0008390496 0.09435604 -0.22882959 -0.04644503
0003a0 00 ca 8e 3e d9 c3 4f 3e 03 66 f0 3d 55 fd ee 3d
       0.2788849 0.20289554 0.11738207 0.11669413
0003b0 86 48 7f bc 44 17 dd 3d 36 d6 bb 3d 36 03 8d be
       -0.015581256 0.10795453 0.09171717 -0.27541512
0003c0 a7 7d 41 be a7 82 d2 bd af 1b 37 bf da 4e 71 3f
       -0.18895589 -0.10278826 -0.71526617 0.9426094
0003d0 60 97 8f 3f 8c 21 07 bf b5 b7 05 bf ad 0f bb 3f
       1.1218071 -0.52785563 -0.5223344 1.4614159
0003e0 6d 2d 1f 3e 9e ba 81 3c 78 65 52 3e 3a ac 04 be
       0.15544672 0.015836056 0.2054652 -0.12956324
0003f0 2b 39 fb 3d 6c 71 0d 3f 8f cc 3a 3e d0 1e 2f bf
       0.12266763 0.55251193 0.18242095 -0.6840639

fc3.bias f4 [20]
000000 72 96 fe 3d f2 d0 b8 be 8d 39 8e be 8a bc ee 3e
       0.12431039 -0.36096913 -0.27778283 0.4662822
000010 bc 21 e7 3d a3 f3 73 be 6f 1e c4 3c e4 07 92 be
       0.11285731 -0.23823409 0.023940293 -0.28521645
000020 90 ad 29 3e 44 eb 48 3d b0 9d 66 3e e6 14 97 be
       0.16570115 0.04905249 0.2252109 -0.29508132
000030 70 9d 04 be 9b 6a ab 3d 3b b5 6d 3e 50 ab 35 3e
       -0.12950683 0.08369943 0.23213665 0.17741132
000040 f9 35 53 3e 89 7f 1e be 09 b2 f3 3d 75 fe 23 be
       0.20626058 -0.15478338 0.11899192 -0.16015036

fc4.weight f4 [1, 20]
000000 0a 2b 9c 3c ee 0f 67 be 21 b7 1f bd 47 e7 d3 3d
       0.019063491 -0.2256467 -0.038993005 0.10346847
000010 28 3e f2 bc f9 38 bb be 1f d9 b4 bd 36 7c 78 be
       -0.029570654 -0.36566904 -0.08830475 -0.24266133
000020 14 d8 f2 3d 90 f3 5a b6 1d 6d c9 bd b7 aa 1f be
       0.1185762 -3.2626303e-06 -0.09835265 -0.15592466
000030 5b 00 87 be 4d 00 4e bd 15 b6 1e 3e 58 a0 a3 3b
       -0.2636746 -0.050293256 0.15499146 0.0049934797
000040 23 02 48 3e a3 25 28 be f9 7a 06 3e b7 53 d1 3c
       0.19532065 -0.16420607 0.13132848 0.025552614
