pth_models/model_soc_pinn.pth (torch, 4815 bytes, 7 tensors)

fc1.weight f4 [16, 4]
-0.00374341 0.2682218 -0.41152257 -0.3679695 -0.0017888794 0.018148715 0.02046814 0.59177506
-0.044372022 0.13230628 -0.15110654 -0.098282695 -0.47767425 -0.33114105 -0.20611155 0.018521786
0.18916142 0.3389357 -0.22942981 -0.22597067 0.17014818 0.44353792 -0.016349288 0.3629984
-0.08059168 0.05290705 0.4527381 -0.46383518 -0.3526496 -0.15937895 -0.10941025 0.39955348
-0.32408983 -0.23016644 -0.34932023 -0.4682805 -0.18584628 0.45423448 0.2169462 0.26403257
0.03114212 -0.31190112 -0.051727135 -0.46548724 -0.3042732 -0.23074393 0.12233473 0.32077566
-0.0951745 0.05331271 0.2613077 0.56961083 0.20002542 0.0078093843 0.17637402 -0.2928576
0.097715445 -0.43916008 -0.4847303 -0.2538951 0.2191032 0.24603301 -0.1689719 0.14409673
00000000: 0054 75bb 5e54 893e 16b3 d2be 8066 bcbe
00000010: d578 eaba 9dac 943c cdac a73c 927e 173f
00000020: 70bf 35bd 4c7b 073e acbb 1abe 7048 c9bd
00000030: b891 f4be 528b a9be e80e 53be 00bb 973c
00000040: 88b3 413e fb88 ad3e a6ef 6abe db64 67be
00000050: 533b 2e3e 6717 e33e f1ee 85bc edda b93e
00000060: 400d a5bd 10b5 583d 4acd e73e ce7b edbe
00000070: 7d8e b4be 3c34 23be 7b12 e0bd 4692 cc3e
00000080: 1aef a5be c0b0 6bbe 1ada b2be 76c2 efbe
00000090: 7d4e 3ebe 6c91 e83e 2527 5e3e 472f 873e
000000a0: c21d ff3c 81b1 9fbe d5df 53bd 5854 eebe
000000b0: b2c9 9bbe 2348 6cbe a28a fa3d b53c a43e
000000c0: d9ea c2bd 6e5e 5a3d 1fca 853e 04d2 113f
000000d0: 77d3 4c3e dde5 ff3b 649b 343e 6ef1 95be
000000e0: 091f c83d 97d9 e0be 922e f8be 8afe 81be
000000f0: 975c 603e 14f0 7b3e f806 2dbe 188e 133e

fc1.bias f4 [16]
0.274486 0.07034967 0.019090772 0.115852356 0.32150823 0.48530495 -0.38531178 -0.21670939
0.19650495 0.43667874 0.4126224 0.46979636 0.1711119 -0.4586659 0.02719289 -0.29823428
00000000: 6e89 8c3e 7d13 903d 4064 9c3c 0044 ed3d
00000010: ba9c a43e e479 f83e 9647 c5be 11e9 5dbe
00000020: 9838 493e 5b94 df3e 3e43 d33e 2689 f03e
00000030: f537 2f3e 42d6 eabe a0c3 de3c 2ab2 98be

fc2.weight f4 [16, 16]
-0.23298854 0.38829672 0.19008994 -0.24938199 0.099576384 0.002342625 -0.041140288 -0.07883975
0.09613904 -0.11868924 0.09600639 0.14250897 0.20173025 0.049625162 -0.23897605 -0.10773417
0.124828756 -0.029744167 -0.195021 -0.14395487 0.22910778 0.16240937 -0.109006286 -0.030282231
-0.23814952 0.019234026 -0.1930104 -0.17808701 0.0051282197 0.031828925 -0.10810373 0.1422574
-0.15213478 0.2543974 0.17132497 -0.21082073 -0.09137841 0.027275616 0.03647527 0.08179676
0.09810707 0.029168911 -0.12198219 0.11652163 -0.21676224 0.010812813 -0.055130374 -0.10725382
-0.08745834 -0.15021297 -0.053178787 0.05343911 -0.15872169 -0.008736278 0.17896271 -0.06947568
0.006948054 -0.069451526 0.053236343 0.10356376 0.19126122 0.16247164 0.24104549 -0.013928557
-0.22458038 -0.118519306 0.1702263 -0.0016206205 -0.12426159 -0.19157794 -0.23396301 -0.21100205
-0.050709188 0.1371015 0.13516027 -0.24110797 0.15594551 -0.19562736 -0.05285257 -0.10136816
-0.048153818 -0.19137034 -0.22433749 -0.21585947 -0.046229858 -0.003822148 -0.11356872 0.1245141
-0.2250146 -0.011436877 0.21389902 -0.08626161 0.22841428 0.08375227 -0.23242013 0.15105677
-0.028848618 -0.28720754 0.19991332 -0.2020238 0.02080146 -0.05831269 0.17852816 0.062051874
0.12012634 0.08828974 -0.06481626 -0.052576363 -0.25485787 0.12981977 0.19284728 0.16502765
-0.17634457 -0.05895566 -0.17623353 -0.13762105 -0.1523263 0.07883486 -0.1489783 0.024408488
0.010517031 0.18941736 -0.19439083 -0.16057838 -0.117407806 0.16868284 -0.09619182 0.20421389
0.09040189 0.2214413 -0.001861006 -0.049420387 0.036375184 -0.0521301 -0.0017566085 -0.07160848
-0.19555128 -0.20844436 0.20541827 -0.04390891 0.014834285 0.25189194 0.09490581 0.012094035
-0.21665248 0.11863788 -0.17807019 -0.070966065 0.0025338086 -0.040667813 0.0027345717 0.17654441
0.031209707 0.20174679 0.15292811 -0.17190956 0.08868238 -0.19799909 -0.47886348 0.0863927
0.08254802 0.163823 -0.080478966 0.0004002154 0.09852215 -0.26445806 0.18074515 -0.2167451
0.0034456253 -0.058416005 -0.13166824 0.015880844 0.18359555 -0.073079884 -0.14842352 -0.11451561
-0.24778709 0.21263394 -0.12006593 -0.16683507 -0.10251526 0.1073934 0.13239342 0.16452885
0.09068078 -0.068063475 -0.06986204 0.093065195 0.19820221 -0.06765665 0.29936942 -0.120036036
-0.23636726 -0.12994322 -0.14029562 -0.22289395 0.21089871 -0.17063953 -0.028440386 0.071623385
0.007964581 -0.16822043 -0.20952053 0.1992706 0.16410066 0.19933939 -0.09193748 0.06530465
-0.05716905 -0.16166788 -0.15226105 0.08455023 0.069691025 -0.014461589 -0.05622554 -0.16358398
0.1728862 -0.18610603 0.09359038 -0.08406338 -0.06119252 0.035714187 -0.13911496 0.04823639
0.049095213 -0.08598178 0.041624635 0.1064823 0.083429776 -0.04699492 -0.2049469 -0.038538516
0.08682692 -0.091219276 0.07799058 0.16649064 -0.13850789 -0.013405105 0.0873884 0.00405061
0.020882875 0.1210451 -0.19653693 0.019647062 0.17744285 0.22956896 0.14693773 0.0024365722
0.11675355 -0.14897236 -0.20435964 -0.2311493 0.2320888 0.1625881 -0.16892627 0.10214165
00000000: 8c94 6ebe d4ce c63e f0a6 423e fe5d 7fbe
00000010: b4ee cb3d ba86 193b b882 28bd bc76 a1bd
00000020: 8ce4 c43d 5813 f3bd 009f c43d dfed 113e
00000030: 6092 4e3e c143 4b3d 23b6 74be bca3 dcbd
00000040: 38a6 ff3d 0aaa f3bc 96b3 47be e868 13be
00000050: 3b9b 6a3e a44e 263e b03e dfbd 7112 f8bc
00000060: 78dd 73be ad90 9d3c 85a4 45be 715c 36be
00000070: a00a a83b 0c5f 023d 7d65 ddbd edab 113e
00000080: 38c9 1bbe 6040 823e d06f 2f3e 64e1 57be
00000090: 9b24 bbbd 1d71 df3c 1867 153d 0f85 a73d
000000a0: 5cec c83d a4f3 ee3c ccd1 f9bd e4a2 ee3d
000000b0: ecf6 5dbe 3a28 313c 63d0 61bd e4a7 dbbd
000000c0: 5c1d b3bd 6ed1 19be 00d2 59bd f8e2 5a3d
000000d0: f087 22be 9b22 0fbc 0042 373e 4449 8ebd
000000e0: 80ac e33b 9a3c 8ebd 5a0e 5a3d 3d19 d43d
000000f0: fbd9 433e f75e 263e a1d4 763e 9a34 64bc
00000100: 66f8 65be 40ba f2bd ce4f 2e3e 006b d4ba
00000110: dc7c febd 022d 44be 0094 6fbe ec10 58be
00000120: 70b4 4fbd 5664 0c3e 7467 0a3e 02e5 76be
00000130: 2eb0 1f3e 8a52 48be f07b 58bd 1c9a cfbd
00000140: f03c 45bd 96f6 43be bab8 65be 440a 5dbe
00000150: 855b 3dbd 017d 7abb b896 e8bd 4001 ff3d
00000160: 3a6a 66be bd61 3bbc 5808 5b3e eda9 b0bd
00000170: 6fe5 693e 4f86 ab3d 8bff 6dbe a0ae 1a3e
00000180: f053 ecbc de0c 93be 14b6 4c3e 54df 4ebe
00000190: d367 aa3c 4ad9 6ebd 16d0 363e 1b2a 7e3d
000001a0: cc04 f63d 40d1 b43d 63be 84bd 505a 57bd
000001b0: bb7c 82be 79ef 043e c279 453e 02fd 283e
000001c0: ac93 34be 7d7b 71bd 9076 34be 88ec 0cbe
000001d0: 6dfb 1bbe 2c74 a13d c48d 18be 4ff4 c73c
000001e0: a04f 2c3c a0f6 413e 640e 47be a96e 24be
000001f0: 8173 f0bd 32bb 2c3e 3800 c5bd 721d 513e
00000200: a024 b93d 82c1 623e 00ed f3ba 086d 4abd
00000210: 25fe 143d 5f86 55bd 003e e6ba 77a7 92bd
00000220: 983e 48be 7072 55be 2b59 523e d4d9 33bd
00000230: 800b 733c fbf7 803e fa5d c23d 0f26 463c
00000240: 26da 5dbe 6bf8 f23d 0858 36be a856 91bd
00000250: 410e 263b 4b93 26bd 8036 333b 0fc8 343e
00000260: 80ab ff3c b696 4e3e 3099 1c3e 0f09 30be
00000270: 1c9f b53d 46c0 4abe 982d f5be a8ee b03d
00000280: f00e a93d 37c1 273e 28d2 a4bd 00d4 d139
00000290: fbc5 c93d 0c67 87be 4215 393e 6df2 5dbe
000002a0: 00d0 613b 9f45 6fbd 0ad4 06be 8b18 823c
000002b0: 7900 3c3e e8aa 95bd 56fc 17be 2987 eabd
000002c0: e6bb 7dbe b6bc 593e 20e5 f5bd d0d6 2abe
000002d0: 85f3 d1bd 12f1 db3d 2492 073e 407a 283e
000002e0: d8b6 b93d dd64 8bbd d413 8fbd f798 be3d
000002f0: 85f5 4a3e 928f 8abd f346 993e 74d5 f5bd
00000300: 420a 72be d60f 05be a8a9 0fbe 503e 64be
00000310: d5f5 573e 21bc 2ebe d0fb e8bc 48af 923d
00000320: e07d 023c fa41 2cbe 8d8c 56be 980d 4c3e
00000330: 010a 283e a01f 4c3e b849 bcbd 72be 853d
00000340: 182a 6abd 448c 25be 52ea 1bbe ac28 ad3d
00000350: 2bba 8e3d 4df0 6cbc c04c 66bd 8f82 27be
00000360: 1409 313e 9492 3ebe 50ac bf3d 6c29 acbd
00000370: 02a5 7abd 0a49 123d 2774 0ebe 8593 453d
00000380: 1018 493d 3717 b0bd 987e 2a3d 6413 da3d
00000390: 3bdd aa3d bf7d 40bd 9add 51be 90da 1dbd
000003a0: 50d2 b13d 2cd1 babd 86b9 9f3d 867c 2a3e
000003b0: 03d5 0dbe 16a1 5bbc b1f8 b23d fbba 843b
000003c0: 9012 ab3c 7ee6 f73d fa40 49be e0f2 a03c
000003d0: 94b3 353e 2014 6b3e d876 163e e6ae 1f3b
000003e0: 7c1c ef3d 368c 18be a743 51be 67b2 6cbe
000003f0: b0a8 6d3e 7f7d 263e 02fb 2cbe a42f d13d

fc2.bias f4 [16]
0.2886016 0.26693112 0.24696264 0.17389393 -0.057314813 -0.07298456 0.22234276 0.15576196
-0.16931564 0.21100034 0.0978817 0.09555031 -0.14445868 0.07868975 -0.11541247 0.17536078
00000000: 97c3 933e 32ab 883e c6e3 7c3e 4011 323e
00000010: f0c2 6abd ee78 95bd d2ad 633e 1080 1f3e
00000020: 1461 2dbe 7910 583e 3376 c83d e2af c33d
00000030: faec 13be 1728 a13d 605d ecbd c791 333e

fc3.weight f4 [16, 16]
-0.044985145 0.09732813 0.04440546 0.10636705 -0.084956884 0.12189284 -0.17461774 0.05646375
-0.16914797 -0.2466344 -0.20076394 0.19736752 0.13525891 0.23455393 0.20028031 -0.22326136
-0.19416472 -0.034718946 -0.14437833 0.17573787 -0.18900195 -0.115737356 -0.23603114 -0.1360803
0.20977265 0.2038152 0.12729216 0.15814689 0.2280935 -0.057616834 0.115640506 0.22761673
0.10617773 0.24382088 0.1111354 0.15278703 -0.08749804 0.113342494 0.02280361 -0.065947674
-0.14554045 -0.13966796 -0.14050047 0.20269817 0.1715372 -0.03520744 -0.15068449 0.18790682
0.177838 0.023608994 -0.014423035 0.23115584 0.10223517 -0.18413168 0.24409844 0.19506094
-0.08768681 0.18767267 -0.17045988 -0.09541207 0.21743205 0.016152225 -0.17178579 -0.07937888
-0.09927127 -0.042505503 0.8076306 0.23340628 0.013385087 -0.1480514 0.018372193 0.12577654
0.12822041 -0.041647132 -0.04473561 -0.2037487 -0.100828715 0.096522965 -0.17184988 0.09785587
0.2465796 0.027383614 -0.10660751 -0.12400731 0.05459103 -0.18823047 0.057921983 -0.2335471
-0.2550537 -0.16924633 -0.08419866 0.18866602 -0.24677701 0.20779678 -0.100005716 0.08294118
0.008936485 -0.22834073 0.20413429 0.14701349 0.24849892 0.1251668 -0.16501725 0.20517947
0.013436109 0.11904968 -0.20045727 -0.0719181 -0.24546939 -0.09737313 0.053932786 -0.19689228
0.10945521 0.12768394 0.010142677 -0.17042667 -0.19382992 -0.084129944 0.10339425 0.23993555
0.13865791 -0.035594046 0.13701631 -0.20853174 -0.22013286 0.10952713 -0.14801343 0.11451276
-0.19360118 -0.13021936 -0.18843658 0.12746248 -0.025473773 0.18549213 0.14850901 0.13179529
0.0030739633 -0.05786187 -0.054357916 0.008197284 0.11744622 -0.18218325 0.20352389 -0.032806654
-0.18721046 -0.14301124 0.20474668 0.22380202 -0.23156992 0.16818354 0.11767293 0.14011638
0.20506112 -0.13420637 0.121516176 0.13619259 -0.081682675 0.075490974 -0.079480104 0.1474355
-0.06936365 -0.093198925 0.06293726 0.08867341 -0.12214291 0.022099584 0.14488393 -0.02487418
0.07608348 -0.060296744 0.08762491 -0.18109855 -0.1470072 -0.12689763 0.22975272 -0.067271024
-0.0006825924 -0.12112388 0.24957252 0.24416754 -0.18854666 -0.20266747 -0.18949825 -0.0012056828
-0.06372598 -0.16363642 -0.089668036 0.047232717 -0.13062268 0.055395633 -0.05732897 -0.12114084
-0.01192619 0.21110047 -0.0679998 0.013576981 -0.092191935 0.25146392 -0.23185967 -0.23396291
0.2502838 -0.1466074 0.029076908 -0.06581262 -0.047028992 -0.049576662 0.16434665 0.0166473
-0.26692724 -0.1418408 -0.06703233 0.1280104 -0.16178343 0.24204484 -0.0501208 -0.0389965
0.20010714 0.12480118 0.1600957 0.109605424 -0.06998935 -0.15939501 -0.012900928 0.21185483
-0.08390495 -0.23184249 0.10248211 0.24336785 -0.07117081 -0.20700589 -0.22676492 0.062649846
-0.018929929 -0.12624681 0.050532967 0.09493971 0.19882974 0.19409555 -0.03742093 -0.22044179
-0.18277651 0.22716665 0.11273424 0.106140755 -0.21630526 0.22472095 0.23076703 0.21930759
-0.21569304 -0.06681157 -0.12547675 0.29952204 -0.11376708 -0.12103739 0.12480584 -0.12112632
00000000: 5842 38bd f853 c73d 80e2 353d f8d6 d93d
00000010: e0fd adbd f4a2 f93d fece 32be 8846 673d
00000020: 2035 2dbe ba8d 7cbe 1095 4dbe b61a 4a3e
00000030: 5081 0a3e e82e 703e 4816 4d3e a09e 64be
00000040: 1ed3 46be 7435 0ebd ead7 13be a1f4 333e
00000050: ba89 41be b507 edbd 26b2 71be a258 0bbe
00000060: a4ce 563e efb4 503e e058 023e 42f1 213e
00000070: 5891 693e a1ff 6bbd eed4 ec3d 5c14 693e
00000080: b673 d93d 2eac 793e f59a e33d 3474 1c3e
00000090: 2c32 b3bd 1c20 e83d a3ce ba3c 930f 87bd
000000a0: 8e08 15be 1e05 0fbe 5bdf 0fbe 1c90 4f3e
000000b0: 73a7 2f3e ad35 10bd 094d 1abe a56a 403e
000000c0: 2a1b 363e a667 c13c 984e 6cbc 1eb4 6c3e
000000d0: ac60 d13d 048d 3cbe f1f4 793e 0ebe 473e
000000e0: 2495 b3bd 442d 403e 098d 2ebe 6767 c3bd
000000f0: 82a6 5e3e ac51 843c 9de8 2fbe 6591 a2bd
00000100: bc4e cbbd 401a 2ebd e1c0 4e3f 0e02 6f3e
00000110: 204d 5b3c c99a 17be 4881 963c 91cb 003e
00000120: 364c 033e 2f96 2abd b03c 37bd 80a3 50be
00000130: 497f cebd d5ad c53d 6af9 2fbe a968 c83d
00000140: 5d7f 7c3e 9a53 e03c 0a55 dabd 8bf7 fdbd
00000150: d89a 5f3d 7dbf 40be 9a3f 6d3d f926 6fbe
00000160: 6696 82be e94e 2dbe 5970 acbd aa31 413e
00000170: 1db3 7cbe aec8 543e cccf ccbd 11dd a93d
00000180: 566a 123c 27d2 69be 9408 513e b48a 163e
00000190: 8076 7e3e ba2b 003e 48fa 28be 911a 523e
000001a0: 2023 5c3c 52d0 f33d ac44 4dbe cc49 93bd
000001b0: 545c 7bbe 906b c7bd a0e8 5c3d 219e 49be
000001c0: 0e2a e03d 94bf 023e 792d 263c 5484 2ebe
000001d0: 5a7b 46be 524c acbd 5dc0 d33d aab1 753e
000001e0: 57fc 0d3e 10cb 11bd 014e 0c3e 5889 55be
000001f0: 826a 61be c34f e03d d590 17be aa85 ea3d
00000200: 633f 46be 3958 05be 85f5 40be 8685 023e
00000210: 60ae d0bc a6f1 3d3e bf12 183e 58f5 063e
00000220: 8c74 493b 9100 6dbd 68a6 5ebd e74d 063c
00000230: a587 f03d 3f8e 3abe 9168 503e 4560 06bd
00000240: 19b4 3fbe 8a71 12be 1da9 513e 5b2c 653e
00000250: aa20 6dbe 4e38 2c3e 81fe f03d ab7a 0f3e
00000260: 8bfb 513e 656d 09be 79dd f83d 1276 0b3e
00000270: 3f49 a7bd 039b 9a3d 77c6 a2bd 55f9 163e
00000280: 880e 8ebd 14df bebd 40e5 803d 689a b53d
00000290: 1026 fabd 300a b53c 745c 143e f0c4 cbbc
000002a0: a8d1 9b3d b8f9 76bd b074 b33d e671 39be
000002b0: 0e89 16be 74f1 01be 4c44 6b3e 64c5 89bd
000002c0: 00f0 32ba cc0f f8bd f08f 7f3e 0e07 7a3e
000002d0: 6012 41be 1088 4fbe d40b 42be 0008 9eba
000002e0: c482 82bd 4e90 27be e0a3 b7bd 1877 413d
000002f0: f4c1 05be 88e6 623d c8d1 6abd b018 f8bd
00000300: 1166 43bc b92a 583e 7b43 8bbd fc71 5e3c
00000310: 20cf bcbd e1bf 803e 9f6c 6dbe f993 6fbe
00000320: 3325 803e 4020 16be b232 ee3c c4c8 86bd
00000330: 79a1 40bd e610 4bbd 7d4a 283e eb5f 883c
00000340: b0aa 88be b73e 11be 3f48 89bd 2915 033e
00000350: 8eaa 25be 9ada 773e 784b 4dbd cbba 1fbd
00000360: e3e8 4c3e c397 ff3d 21f0 233e cf78 e03d
00000370: 9456 8fbd 7238 23be 6a5e 53bc 79f0 583e
00000380: 5cd6 abbd 1e68 6dbe 24e2 d13d 6c35 793e
00000390: 00c2 91bd 5af9 53be 1035 68be 904e 803d
000003a0: f012 9bbc d846 01be a8fb 4e3d c06f c23d
000003b0: 069a 4b3e fcc0 463e b046 19bd 7ebb 61be
000003c0: c429 3bbe 609e 683e 36e1 e63d 5360 d93d
000003d0: 207f 5dbe 401d 663e 314e 6c3e 2b92 603e
000003e0: a3de 5cbe 81d4 88bd fa7c 00be f45a 993e
000003f0: b7fe e8bd 73e2 f7bd 349a ff3d 1311 f8bd

fc3.bias f4 [16]
-0.12313053 -0.040439215 -0.0060662013 -0.21451698 0.18994448 -0.08787947 0.087552965 0.23446271
0.14331354 0.050185446 0.21271425 0.03360656 -0.13443555 0.21803236 0.059170127 -0.22647578
00000000: dc2b fcbd 97a3 25bd fcc6 c6bb 57aa 5bbe
00000010: ce80 423e 27fa b3bd f84e b33d fe16 703e
00000020: c9c0 123e 418f 4d3d c4d1 593e 08a7 093d
00000030: 79a9 09be e043 5f3e 605c 723d 44e9 67be

fc4.weight f4 [1, 16]
-0.07117289 -0.17301299 0.21305606 -0.046086915 -0.22960788 -0.0741421 0.14871044 0.058779243
0.07245788 0.017976515 0.09320468 -0.060912997 -0.10257688 -0.23544015 -0.18833423 0.10093894
00000000: 18c3 91bd 512a 31be 5e2b 5a3e a2c5 3cbd
00000010: 541e 6bbe d0d7 97bd 8d47 183e 81c2 703d
00000020: cc64 943d 7c43 933c 18e2 be3d e87f 79bd
00000030: d413 d2bd 3917 71be b0da 40be 13b9 ce3d
