pth_models/model_soc_pinn.pth (torch, 4815 bytes, 7 tensors)

fc1.weight f4 [16, 4]
000000 00 54 75 bb 5e 54 89 3e 16 b3 d2 be 80 66 bc be
       -0.00374341 0.2682218 -0.41152257 -0.3679695
000010 70 c3 1d be eb 2d 8b 3e 5e e9 63 3c e6 08 dd 3e
       -0.15406585 0.2718347 0.01391062 0.4317085
000020 16 7c a6 bc 52 c6 49 3e d6 1d 2b be d2 b6 a8 bd
       -0.02032284 0.1970456 -0.167106 -0.08237995
000030 28 e4 e7 be f6 ba bd be 6d 2f 3b be 2c 5f 2a 3c
       -0.45291257 -0.37056702 -0.1827981 0.010398667
000040 8f 5d 41 3e 5f a2 84 3e c7 29 a2 be 1a c7 8d be
       0.18883346 0.2590513 -0.316725 -0.27690965
000050 0a a1 2e 3e 3c 14 f8 3e 38 a2 f1 bd 50 33 ca 3e
       0.17053619 0.48452938 -0.11798519 0.39492273
000060 40 0d a5 bd 10 b5 58 3d 4a cd e7 3e ce 7b ed be
       -0.08059168 0.05290705 0.4527381 -0.46383518
000070 23 13 ad be 39 63 15 be 82 6c 04 be df 1d d2 3e
       -0.33803663 -0.14588632 -0.12932017 0.41038415
000080 1a ef a5 be c0 b0 6b be 1a da b2 be 76 c2 ef be
       -0.32408983 -0.23016644 -0.34932023 -0.4682805
000090 a6 18 41 be 27 56 3a 3f cb 00 ae 3e 95 77 95 3e
       -0.18857059 0.7278771 0.3398498 0.29192796
0000a0 88 34 f3 3c f0 c4 66 be 17 d0 21 be f7 56 d8 be
       0.029688135 -0.22536063 -0.15802036 -0.4225385
0000b0 41 ee 06 be b4 2e a9 be c6 91 71 3e 7f 12 b9 3e
       -0.13176824 -0.33043444 0.23590764 0.36146924
0000c0 f4 0c 4f be f3 7a 13 be 86 6d 98 3e ba d4 f5 3e
       -0.20219785 -0.1440237 0.2977106 0.4801386
0000d0 f4 46 4d 3e 11 2c e5 3d 11 57 57 3d 94 a4 68 be
       0.20046598 0.111900456 0.052573267 -0.22719032
0000e0 32 b5 c8 3d 2d 58 b6 be 52 8e d1 be 21 83 50 be
       0.09800185 -0.35614148 -0.40928894 -0.20362522
0000f0 28 19 60 3e 37 85 50 3e 06 64 20 be 73 49 ba 3d
       0.21884596 0.20363317 -0.15663156 0.090960406

fc1.bias f4 [16]
000000 6e 89 8c 3e c2 19 03 bd 56 a6 0e 3d 0c 2d dd 3d
       0.274486 -0.032006986 0.0348266 0.10799608
000010 8c 9b 80 3e 76 fa 00 3f 96 47 c5 be b1 85 52 be
       0.25118673 0.50382173 -0.38531178 -0.20558812
000020 98 38 49 3e 18 43 d7 3e 23 6e f5 3e ab 4f 06 3f
       0.19650495 0.42043376 0.4793559 0.52465314
000030 81 c3 b7 3d 4e 12 bc be 53 08 ce 3d 4f 10 c0 be
       0.08972836 -0.36732715 0.100601815 -0.37512442

fc2.weight f4 [16, 16]
000000 8c 94 6e be 9a f9 83 3e 3f 39 62 3e 54 22 55 be
       -0.23298854 0.25776368 0.2209215 -0.20813876
000010 a5 a2 e9 3d 61 53 18 3b b8 82 28 bd ed 0d bd bd
       0.11407975 0.0023243057 -0.041140288 -0.09231172
000020 8c e4 c4 3d ca ab 02 be dc b1 bb 3d cf a0 1a 3e
       0.09613904 -0.12760845 0.09164783 0.15100406
000030 c8 34 57 3e 72 20 6c 3c a1 7f 99 be 84 c9 e8 bd
       0.21016228 0.014412032 -0.29980186 -0.11366561
000040 38 a6 ff 3d bb 09 b7 3d 42 80 25 be ce 00 db bd
       0.124828756 0.08937403 -0.16162208 -0.10693513
000050 62 02 6b 3e 27 7f 25 3e b0 3e df bd 79 46 1d bd
       0.22950128 0.16161786 -0.109006286 -0.038397286
000060 78 dd 73 be 7b 12 3a 3d ae d1 3a be 7d d7 30 be
       -0.23814952 0.04542778 -0.18244049 -0.17269702
000070 90 80 81 3c d4 85 04 3d cb 49 da bd 28 75 11 3e
       0.015808374 0.03235419 -0.10658606 0.14204848
000080 38 c9 1b be bc 54 8b 3e 19 e2 5b 3e da 30 1f be
       -0.15213478 0.27213085 0.21472968 -0.15545979
000090 f7 f9 72 3d 21 cc 80 3d 18 67 15 3d a3 68 aa 3d
       0.059320416 0.062889345 0.03647527 0.08320739
0000a0 5c ec c8 3d 44 1d a5 3d cc d1 f9 bd bb 52 0a 3e
       0.09810707 0.080622226 -0.12198219 0.13508122
0000b0 1a 57 54 be 78 95 42 be 60 03 cb be 29 30 94 bd
       -0.20736352 -0.1900233 -0.39651012 -0.07235748
0000c0 5c 1d b3 bd de a9 17 be 01 11 64 3e a4 05 70 3d
       -0.08745834 -0.14810893 0.22272111 0.05859913
0000d0 ed c7 22 be f2 53 cf bb 00 42 37 3e db 2d 0c bb
       -0.15896578 -0.0063271457 0.17896271 -0.0021389637
0000e0 80 ac e3 3b a3 68 4f be 22 7d 2e 3d 7e 61 97 3e
       0.006948054 -0.2025476 0.042599805 0.29566568
0000f0 c4 17 95 3e a6 ea 25 3e a3 49 75 3e 09 c7 54 bc
       0.29119694 0.16202793 0.23953871 -0.012986907
000100 66 f8 65 be 40 ba f2 bd ce 4f 2e 3e 00 6b d4 ba
       -0.22458038 -0.118519306 0.1702263 -0.0016206205
000110 dc 7c fe bd 02 2d 44 be 00 94 6f be ec 10 58 be
       -0.12426159 -0.19157794 -0.23396301 -0.21100205
000120 70 b4 4f bd 56 64 0c 3e 74 67 0a 3e 02 e5 76 be
       -0.050709188 0.1371015 0.13516027 -0.24110797
000130 2e b0 1f 3e 8a 52 48 be f0 7b 58 bd 1c 9a cf bd
       0.15594551 -0.19562736 -0.05285257 -0.10136816
000140 f0 3c 45 bd c4 ca ae bc bd 44 41 be 6a dd 27 be
       -0.048153818 -0.02133692 -0.18873878 -0.16393057
000150 b8 c2 3b bd 09 09 aa bb b8 96 e8 bd 2c de d6 3d
       -0.045839995 -0.0051890654 -0.11356872 0.10491595
000160 3a 6a 66 be c2 b9 24 3d 22 a2 65 3e 14 66 cc bd
       -0.2250146 0.040216215 0.2242513 -0.09980407
000170 41 90 76 3e 33 a6 ac 3d ba 7b 6c be a4 42 1a 3e
       0.24078466 0.084301375 -0.23094073 0.15064484
000180 f0 53 ec bc bc 86 ba bd 48 9c 73 3e 9c 8a e9 bd
       -0.028848618 -0.0910773 0.23790085 -0.11403391
000190 b0 5e ad 3c b4 10 76 bd 16 d0 36 3e 64 17 ba 3d
       0.021163315 -0.060074523 0.17852816 0.09086493
0001a0 cc 04 f6 3d 18 4d 92 3e b4 0a 5e bd 1a 0b 92 bd
       0.12012634 0.28574443 -0.054209426 -0.07131024
0001b0 5e 7f 34 be 5d 76 05 3e 16 05 47 3e 57 62 28 3e
       -0.17626712 0.13033433 0.19435534 0.16443764
0001c0 ac 93 34 be 20 50 69 3d ab f0 f5 bd 55 aa 86 bd
       -0.17634457 0.05696118 -0.120087944 -0.06575457
0001d0 38 8d 1b be 1f 78 a1 3d c4 8d 18 be a0 14 94 3c
       -0.1519059 0.078842394 -0.1489783 0.018076241
0001e0 a0 4f 2c 3c a2 e0 7f 3e a4 f4 3c be 5b 61 25 be
       0.010517031 0.24988034 -0.18452698 -0.1615042
0001f0 cd d9 ea bd 7d 3f 2d 3e dd 1d c2 bd 27 2c 51 3e
       -0.114673235 0.1691875 -0.09478352 0.20426999
000200 a0 24 b9 3d be bb 41 be 00 ed f3 ba 08 6d 4a bd
       0.09040189 -0.18919274 -0.001861006 -0.049420387
000210 7d 95 13 3d 5a 0c 4e bd 00 3e e6 ba c0 a7 02 3d
       0.036031235 -0.050304748 -0.0017566085 0.03189826
000220 98 3e 48 be 7a 2d 06 be 28 26 47 3e 8c a9 39 3e
       -0.19555128 -0.13103285 0.19448149 0.18131083
000230 7a 17 0b bd e3 b3 80 3e be 24 bf 3d 2d 01 50 3c
       -0.033957936 0.25137243 0.0933318 0.012695593
000240 26 da 5d be e7 60 d0 3d f7 cb 43 be b3 8c a2 bd
       -0.21665248 0.10174733 -0.19120775 -0.079369925
000250 90 71 a3 bd 78 19 81 bd 80 36 33 3b e7 34 3d 3e
       -0.07980645 -0.06303686 0.0027345717 0.18477212
000260 80 ab ff 3c 37 94 67 3e 30 99 1c 3e 37 f8 3b be
       0.031209707 0.22615133 0.15292811 -0.18356405
000270 25 6f b2 3d 23 74 89 3d 6b 5b dc bd d6 c0 31 3d
       0.087126054 0.067116044 -0.10759624 0.043396793
000280 f0 0e a9 3d 0b eb 33 3e 28 d2 a4 bd 00 d4 d1 39
       0.08254802 0.1757013 -0.080478966 0.0004002154
000290 7a cb 03 3e 7d d1 81 be 42 15 39 3e 9a d3 5f be
       0.12870589 -0.2535514 0.18074515 -0.21858063
0002a0 00 d0 61 3b 3a 92 5e bd 0a d4 06 be 6d 20 ad 3c
       0.0034456253 -0.05433867 -0.13166824 0.021133626
0002b0 e7 92 47 3e e8 aa 95 bd 56 fc 17 be 6c 1e d5 bd
       0.19489633 -0.073079884 -0.14842352 -0.10406193
0002c0 e6 bb 7d be ec 63 7a 3d 02 55 53 be bc 12 95 be
       -0.24778709 0.06113045 -0.20637897 -0.29115856
0002d0 21 1b d0 bd 07 9e 2b 3e 24 92 07 3e 58 49 4c 3e
       -0.101614244 0.16759501 0.13239342 0.19949853
0002e0 d8 b6 b9 3d cd 0c a7 be d4 13 8f bd e7 15 3e 3e
       0.09068078 -0.32626954 -0.06986204 0.18563043
0002f0 0a 53 68 3e 17 ff 08 3e 4a 6d e2 be 96 3d fe bc
       0.22687927 0.13378559 -0.44224006 -0.031035226
000300 42 0a 72 be ac 90 40 3d 53 12 06 be b5 b1 5b be
       -0.23636726 0.04701297 -0.13092928 -0.21454509
000310 f6 55 58 3e b3 19 30 be d0 fb e8 bc 5c 30 77 3d
       0.21126541 -0.17197303 -0.028440386 0.060348853
000320 e0 7d 02 3c d2 b7 37 be d8 f4 4c be 7b 8e 40 3e
       0.007964581 -0.17941216 -0.20015275 0.18804352
000330 b7 90 f1 3c da a7 4c 3e 60 76 b9 bd 89 f6 84 3d
       0.02948795 0.19985905 -0.09055781 0.06492335
000340 18 2a 6a bd f1 e5 4b bd 77 d5 21 be f8 71 6a bd
       -0.05716905 -0.049779836 -0.15804087 -0.057237595
000350 01 43 8f 3d cf 92 69 bc c0 4c 66 bd 17 75 83 3d
       0.06995202 -0.014256193 -0.05622554 0.064188175
000360 14 09 31 3e f3 fa c2 be 76 20 cb 3d 43 3b a2 3e
       0.1728862 -0.38082084 0.09918301 0.31685838
000370 7a 55 16 3e 2f e7 13 3d a6 70 0d be 8e 4e 48 3d
       0.14681044 0.036109146 -0.13812503 0.04890304
000380 10 18 49 3d 97 c6 44 be 98 7e 2a 3d 64 13 da 3d
       0.049095213 -0.19216381 0.041624635 0.1064823
000390 ed bf ab 3d b4 30 40 bd 9a dd 51 be 90 da 1d bd
       0.08386216 -0.046921447 -0.2049469 -0.038538516
0003a0 50 d2 b1 3d 2c d1 ba bd 30 be a3 3d 86 7c 2a 3e
       0.08682692 -0.091219276 0.0799526 0.16649064
0003b0 49 45 0c be 67 c3 54 bc 98 da b3 3d ff f1 8c 3b
       -0.13698305 -0.012986041 0.08781928 0.004301309
0003c0 90 12 ab 3c fb a4 7b bb a3 af 63 be fc 1a b9 bc
       0.020882875 -0.0038397897 -0.22234969 -0.022595875
0003d0 e4 49 35 3e 8a 16 6c 3e d8 76 16 3e 6d b6 42 3c
       0.17703968 0.23055473 0.14693773 0.011884314
0003e0 7c 1c ef 3d c2 cc 2d be 06 ca 5c be 44 fe 69 be
       0.11675355 -0.1697264 -0.21561441 -0.22850901
0003f0 b8 04 64 3e 1e f0 25 3e cf 9d 2e be 02 c4 d1 3d
       0.22267425 0.16204879 -0.17052387 0.10242464

fc2.bias f4 [16]
000000 d9 0d 6a 3e 4b ae 60 3e f0 e1 80 3e 51 df 89 3e
       0.22856845 0.21941487 0.25172377 0.2692819
000010 f0 c2 6a bd 89 5a 17 be 3a 2d 15 3e 85 aa f8 3d
       -0.057314813 -0.1478063 0.14568034 0.12141899
000020 9b 5f bc bd 26 fc 45 3e 29 2a df 3d 76 42 83 3e
       -0.09197923 0.19334468 0.10896713 0.25636643
000030 21 f5 53 be 78 0d 06 3e f5 78 e5 bd ff f9 67 3e
       -0.20698978 0.13091075 -0.11204711 0.2265396

fc3.weight f4 [16, 16]
000000 15 e9 f7 bb d0 53 58 3d 36 6d 4e bc ae 99 ee 3e
       -0.0075656273 0.052814305 -0.01259928 0.46601623
000010 e0 fd ad bd 1c d3 05 3e bd 33 3c be a3 9f d0 bd
       -0.084956884 0.13068813 -0.18379112 -0.10186698
000020 61 06 31 be 13 20 aa be 10 95 4d be a4 84 8e 3e
       -0.1728759 -0.33227596 -0.20076394 0.27835572
000030 8f ad f8 3d a9 3a 06 3f 48 16 4d 3e ef 68 36 be
       0.12142479 0.5243326 0.20028031 -0.17813466
000040 72 17 3e be f9 db 0a bd 4c 13 3b be eb 78 31 3e
       -0.18563631 -0.03390119 -0.1826908 0.17331283
000050 ba 89 41 be 8f ca ef bd 4c f4 71 be ab c4 09 be
       -0.18900195 -0.11708557 -0.23628348 -0.13453929
000060 2c eb 54 3e 41 38 38 3e 3f b9 2c 3e 66 45 2e 3e
       0.20792836 0.17990209 0.16867541 0.17018661
000070 be 25 69 3e 24 b4 6c bd 28 94 e8 3d e6 e1 69 3e
       0.22768304 -0.057788983 0.113563836 0.2284008
000080 ff 04 f2 3d 18 f3 78 3e 23 72 40 3e 06 2f 1f 3e
       0.11817359 0.24311483 0.1879354 0.15545282
000090 2c 32 b3 bd aa 92 eb 3d c6 14 bd 3c 8a f0 89 bd
       -0.08749804 0.11502583 0.023081195 -0.06735332
0000a0 5e 24 13 be 31 14 de bd 29 81 3a be 55 be 4a 3e
       -0.14369342 -0.10843695 -0.18213333 0.19799168
0000b0 56 14 30 3e d0 5c 0f bd 4e 32 18 be 6f b3 3f 3e
       0.17195258 -0.035000622 -0.1486294 0.18720792
0000c0 6d af 0b 3e 51 2b cc 3c 62 fd 35 be e8 f6 69 3e
       0.13641138 0.024922999 -0.17772439 0.22848094
0000d0 ac 60 d1 3d 00 30 3d be 9c b2 79 3e a4 f8 49 3e
       0.10223517 -0.18475342 0.2438454 0.19723755
0000e0 88 81 b7 bd 70 ad ee 3d 29 11 1c be 92 90 8a bd
       -0.08960253 0.11654174 -0.15240921 -0.06765856
0000f0 8f 38 5e 3e a3 89 81 3c f4 25 32 be bd af 9f bd
       0.21701263 0.0158127 -0.1739729 -0.07797191
000100 bb df 22 be ab 30 29 bd fb 75 f5 bc d4 52 6c 3e
       -0.15905659 -0.04130618 -0.029963484 0.23078471
000110 20 4d 5b 3c 6a 31 18 be bc 57 94 3c 84 e2 02 3e
       0.013385087 -0.148626 0.018108241 0.12781721
000120 52 65 01 3e ff 77 83 be b0 3c 37 bd 21 51 85 be
       0.12636307 -0.25677487 -0.04473561 -0.2603846
000130 f0 55 cf bd a4 e0 c4 3d 93 1b 32 be a7 13 cb 3d
       -0.10123813 0.09613159 -0.17393331 0.09915858
000140 5c 19 06 3f 5c 14 6f be e7 33 d3 be 5f 6c f2 3e
       0.52382445 -0.2334761 -0.41250536 0.47348306
000150 d8 9a 5f 3d 97 4a 06 be 1d 24 88 be 8f 33 22 bf
       0.05459103 -0.13114391 -0.26590052 -0.6335992
000160 52 17 76 be 5f af 0f bf 68 bb 4f bd 84 ca 0d 3f
       -0.24032333 -0.5612697 -0.050715834 0.5538714
000170 72 4c 72 be ab ab 15 3f cc cf cc bd 80 ba b0 3e
       -0.23661974 0.5846507 -0.100005716 0.34517288
000180 7b d8 44 3d a4 fd fd bd b6 28 8d 3e 93 c4 df 3d
       0.048058014 -0.12401894 0.27570122 0.109261654
000190 80 76 7e 3e 04 b9 30 3e 62 ec 01 3d af 94 b2 3e
       0.24849892 0.17258078 0.031719573 0.34879062
0001a0 da f8 0b bd 3f b8 28 3e 00 25 42 be 30 a3 1b bd
       -0.03417287 0.16476534 -0.18959427 -0.037997425
0001b0 96 ea 70 be 96 94 55 be a0 e8 5c 3d 1c 04 08 be
       -0.23526987 -0.20857462 0.053932786 -0.13282818
0001c0 c8 b7 00 3e ca 00 02 3e 6c 53 e3 3d 40 12 2c be
       0.12570107 0.12695614 0.11099896 -0.16803837
0001d0 5a 7b 46 be 82 d2 a9 bd a0 4b d4 3d bc 49 74 3e
       -0.19382992 -0.08292104 0.10365987 0.23856252
0001e0 10 ce 0f 3e ca 31 87 3c 00 84 b3 3d 57 fb 52 be
       0.1404345 0.016503233 0.087654114 -0.20603691
0001f0 b1 00 61 be 94 bb e0 3d 27 91 15 be b6 d6 e8 3d
       -0.2197292 0.10973278 -0.14606152 0.11369078
000200 80 d6 22 be 04 71 06 be 6e a3 42 be 2a 48 05 3e
       -0.15902138 -0.1312905 -0.19007656 0.1301581
000210 60 ae d0 bc 7d c2 3e 3e 5e 57 18 3e 4a 08 05 3e
       -0.025473773 0.18628879 0.14877078 0.12991443
000220 16 c2 a0 3b fa 48 79 bd 62 11 46 bd e8 94 5b 3d
       0.0049059493 -0.06086061 -0.04835642 0.053608805
000230 24 5f f1 3d 32 21 3a be c8 76 52 3e 9f 0d 0b bd
       0.11785725 -0.18176726 0.20553124 -0.033948537
000240 e6 9c 32 be dd 11 13 be cc 03 90 3e 9e de 67 3e
       -0.17442665 -0.14362283 0.28127897 0.22643515
000250 aa 20 6d be ad c7 2d 3e 38 98 f1 3d ae 36 0e 3e
       -0.23156992 0.16970702 0.117966115 0.13888046
000260 d9 cc 53 3e fb 90 d5 bd ee 41 b6 3d 07 69 06 3e
       0.20683612 -0.104280435 0.08899294 0.13126002
000270 7c 6d a6 bd dd 11 9b 3d f2 e7 9e bd 5e 57 16 3e
       -0.08126351 0.075717665 -0.07759084 0.14681765
000280 88 0e 8e bd 14 df be bd 40 e5 80 3d 68 9a b5 3d
       -0.06936365 -0.093198925 0.06293726 0.08867341
000290 10 26 fa bd 30 0a b5 3c 74 5c 14 3e f0 c4 cb bc
       -0.12214291 0.022099584 0.14488393 -0.02487418
0002a0 a8 d1 9b 3d b8 f9 76 bd b0 74 b3 3d e6 71 39 be
       0.07608348 -0.060296744 0.08762491 -0.18109855
0002b0 0e 89 16 be 74 f1 01 be 4c 44 6b 3e 64 c5 89 bd
       -0.1470072 -0.12689763 0.22975272 -0.067271024
0002c0 8a 52 00 3d c4 45 4d bd b8 99 43 3e be 95 c0 3e
       0.031328715 -0.05011536 0.19101608 0.37614244
0002d0 60 12 41 be 0a 6f 4f be 41 57 c6 be ad f4 8d bd
       -0.18854666 -0.20257202 -0.38738444 -0.06931434
0002e0 c4 82 82 bd 45 61 85 be e0 a3 b7 bd 94 7a 1e 3e
       -0.06372598 -0.26050773 -0.089668036 0.15476447
0002f0 f4 c1 05 be 17 ee 5b 3e c8 d1 6a bd 6f 20 b0 3c
       -0.13062268 0.21477543 -0.05732897 0.02149984
000300 1b 41 0d bc 71 1f 59 3e 60 a8 72 be 3d 65 32 3c
       -0.008621479 0.212034 -0.23697042 0.010888395
000310 20 cf bc bd 2e 23 80 3e 57 ab 6d be 0c c7 6d be
       -0.092191935 0.2502684 -0.23209892 -0.23220462
000320 49 74 7e 3e ea 26 3f be 20 53 44 3d 87 86 65 bd
       0.24849047 -0.18667188 0.047930837 -0.0560365
000330 1f 41 42 bd fd 9d 4c bd 6b 2c 26 3e 38 58 90 3c
       -0.047425386 -0.049955357 0.16227882 0.017620191
000340 40 c5 8e be 12 83 10 be cc 68 12 be 77 60 00 3e
       -0.27884865 -0.141125 -0.1429779 0.12536798
000350 8e aa 25 be 9d 14 76 3e 4f 62 4e bd a5 e2 19 bd
       -0.16178343 0.24031301 -0.050386723 -0.03756966
000360 b2 06 4b 3e 12 d6 bf 3d 58 98 4e 3e 26 1d ea 3d
       0.19826773 0.093670025 0.20175302 0.11431341
000370 b3 2a 90 bd bd 73 23 be 48 58 75 bc fb a8 59 3e
       -0.07039394 -0.1596212 -0.014974661 0.21255867
000380 5c d6 ab bd 1e 68 6d be 24 e2 d1 3d 6c 35 79 3e
       -0.08390495 -0.23184249 0.10248211 0.24336785
000390 00 c2 91 bd 5a f9 53 be 10 35 68 be 90 4e 80 3d
       -0.07117081 -0.20700589 -0.22676492 0.062649846
0003a0 f0 12 9b bc d8 46 01 be a8 fb 4e 3d c0 6f c2 3d
       -0.018929929 -0.12624681 0.050532967 0.09493971
0003b0 06 9a 4b 3e fc c0 46 3e b0 46 19 bd 7e bb 61 be
       0.19882974 0.19409555 -0.03742093 -0.22044179
0003c0 34 2b 43 be 71 eb 67 3e 93 8f 2c 3e 20 c5 de 3d
       -0.1905945 0.22648408 0.16851644 0.10877442
0003d0 20 7f 5d be 89 d3 67 3e 42 91 6c 3e c3 2f 5f 3e
       -0.21630526 0.22639288 0.23102286 0.21795563
0003e0 cb 05 5b be 28 7f 80 bd 86 9b 25 be a6 8d 88 3e
       -0.21388929 -0.06274253 -0.16172609 0.2667057
0003f0 2b 2c e8 bd 79 75 f7 bd 04 da 01 3e ee 79 f9 bd
       -0.11336549 -0.12082953 0.12680823 -0.12181459

fc3.bias f4 [16]
000000 df e2 65 bd 8b e9 09 3c 1b 55 4d bd df c9 06 be
       -0.056124564 0.008417497 -0.05012999 -0.13162945
000010 c1 de 87 3e f8 82 86 3e 61 a3 0b 3e 65 07 38 3e
       0.26537135 0.26271796 0.13636543 0.17971571
000020 20 2c 81 3d c7 6f a2 3b c4 d1 59 3e c8 2a 21 3e
       0.06307244 0.0049571726 0.21271425 0.15738976
000030 74 9d 9a bd 77 e2 85 3e 60 5c 72 3d 5c 1a 8a be
       -0.07549563 0.2614934 0.059170127 -0.26973236

fc4.weight f4 [1, 16]
000000 36 6f 97 be 28 52 2f be 71 9b 59 3e 6b 9d 3e bd
       -0.29577035 -0.17121184 0.21250702 -0.046536844
000010 35 62 6c be da b8 08 bf 00 a6 7a 3e ea db 6a 3d
       -0.23084338 -0.5340706 0.24477386 0.057338633
000020 6b 8e 97 3d fe 89 99 3c 18 e2 be 3d e5 d0 63 be
       0.07400211 0.018742558 0.09320468 -0.22247656
000030 6c d2 cc bd e2 d7 6e be b0 da 40 be 38 e9 cd 3d
       -0.10001072 -0.2332454 -0.18833423 0.100542486
